runs/0000_CNN_1_bsz-128_lr-0.001_ep-3-desc-.pth (torch, 370578 bytes, 14 tensors)

conv_1.weight f4 [32, 3, 5, 5]
00000000: b850 5a3d 1143 803d 33ed 083d b9b1 0b3e
00000010: 323c 063e ef1d ccbd f8e6 1cbc a78a eb3a
00000020: c00e eabc 8345 923d 4007 8cbd 2304 2cbd
00000030: 487c bfbc 50fc b2bd 9abb b4bb 2e7a 2f3d
00000040: 760c ee3c 8b26 a7bd 493b a2bd c2d3 1e3c
00000050: f765 8dbc cbec bdbc 62bd 40bd 1544 e73c
00000060: c3fa 24bd 39ef 6f3d fd5c a03d 84d4 e9bb
00000070: 9375 cfbc c7dc a63d e442 1ebd aa53 97bd
00000080: 15cb a3bd 8b33 1fbd e192 35bd c1d8 95bc
00000090: fa1c a43b 0294 0f3d cf5f d1bd c4c8 4dbd
000000a0: b0f7 c5bc 9dc1 54bd d940 56bd b5dc cf3c
000000b0: 6036 93bd ba12 733d 9018 f93c b782 903d
000000c0: 8b1b b5bd a709 87bc af38 4a3d 1954 d8bc
000000d0: 5000 9fbd 3efd cfbc 5128 f7bc b198 2cbd
000000e0: 4499 6d3d 143c aabd a71f 6fbd 260e b6bd
000000f0: 8b5a 813d b621 a3bd 5430 79bd 3f61 bfbd
00000100: 050b c33c e8ee d03d d0bb f03d 566e a13d
00000110: f425 713d 6738 28bd 50a0 db3d 2d3c fd3c
00000120: b02d bb3d c776 bc3d 23d4 08bd e35e 8f3c
00000130: 12bc 993d ba00 353d 5fbf d6bd 1920 0abd
00000140: dfbc e3bc 483e 0dbd 01a7 323d d085 ce3c
00000150: 0bfe b2bb 4dfe ff3b 8661 503d 14a0 b7bd
00000160: b81a e83b cc26 d2bd 834d 8abd ade8 51bd
00000170: 5f76 6e3d 9801 603d c65b 03bc 38da 013d
00000180: c00d 67bc 8115 3bbc e554 d3bd 49ef 8a3a
00000190: 388c d33c 633c 60bd c6b6 8dbd ec54 1ebd
000001a0: 4455 ebbd ec79 2c3d 8b80 11bd 4593 13bc
000001b0: 00ec bfbd 498a 04be 836c 8c3d 4bf0 773d
000001c0: b7b6 8d3d c811 6ebc e2b4 bb3c 2cc3 c73c
000001d0: 3adf c93d e9f6 9f3d b861 173d d5a0 d6ba
000001e0: 8b82 88ba 9570 ae3d cae9 7ebd e0c0 a4bc
000001f0: d892 07bd 3551 a13d 7f56 7cbc 302d e93c
00000200: 7c75 963c 0aff dcbd 06fb a43d e909 d83d
00000210: 4a94 55bd 58e1 a2bc 1d26 d7bb 61d3 7c3d
00000220: 52fb ad3d 1d2e 19bd c45c 54bd d391 85bc
00000230: 69fb 08bc 7787 ef3d ccb2 743d 5b35 2bbd
00000240: 16e5 813d 5ab8 673c 5119 6b3d fe1b ee3c
00000250: 213d ccbc c784 e13c d188 f33c f943 87bd
00000260: 268a 243d d594 3e3d c0c4 fc3c 0b2c a83d
00000270: d22d 5b3d 4160 d03d 6fdf 153d 232f 5b3b
00000280: a7a5 7e3d 9ac8 a03b fcb0 42bd 2ca1 a3bd
00000290: 565f 94bd 4981 b23d 98f6 dc3d d1d4 b13c
000002a0: 9ad8 51bd 3d76 4abd afa7 e83d d880 35bd
000002b0: 6477 a93d 6b70 6cbc 790e 683d 5086 63bc
000002c0: 52a5 d33c adfd 86bd 6cda d0bd a136 2c3d
000002d0: b8f9 d43b 3c51 823d a435 8f3c ad98 5bbd
000002e0: dbc6 7fbd dd0d c7bd b094 683d f001 85bd
000002f0: c411 a6bd 721b 0dbd bffe 8ebd 401f c3bd
00000300: 41ac b83c b5b8 b5bc 2dc6 8bb9 49d6 8ebd
00000310: 855d 84bb 3d4f 953c 23e4 22bd 5f01 f2bc
00000320: 9dbc cebc a305 95bc 68b2 9f3c 776f 30bd
00000330: 7a42 6dbc be60 2fbc cd4e 053d 6e42 233e
00000340: 658c f03d d460 053e 57f8 323d 8e4e 913c
00000350: 4173 823c 5d3f 6c3d 3a95 9f3d 57e9 2ebd
00000360: 66c8 71bd 3421 913d de60 353b 14d9 723d
00000370: 38a7 79bc f2a3 0fbd b7f0 a33c 3cac d23c
00000380: 1e76 62bd 1842 2a3d 80bf 1dbd 55c7 a23d
00000390: 02d0 fabc 99f0 803c e6d2 193d 3616 9e3d
000003a0: ed6e 423d 6d75 cdbd 4409 463c aa4b e93c
000003b0: 75a9 f43c 54a6 41bd 6583 0e3d cd13 72bd
000003c0: c1a8 3b3d d126 e1bb 40ec 27bc 9732 cbbd
000003d0: 6e2b bc3b fe5d 8a3d fbb5 5cbc 8cbd 80bd
000003e0: 7c7c 76bd 387a c8bc 4106 01bd dfd5 e93c
000003f0: b29c bebd 2c21 c0bc df7f 6c3c 878f a73d
0.053299636 0.06262792 0.033429336 0.13642015 0.131089 -0.09966647 -0.009576552 0.0017970399
-0.028571486 0.071421646 -0.0683732 -0.041996133 -0.023374692 -0.08739531 -0.005515528 0.04284113
0.029058676 -0.08161648 -0.07921464 0.009694042 -0.017260535 -0.0231842 -0.04705561 0.028230706
-0.040278208 0.05857775 0.07830236 -0.0071359295 -0.025324618 0.08147579 -0.03863801 -0.073890045
-0.07997719 -0.038867515 -0.044329528 -0.018291833 0.005008337 0.03505326 -0.10223352 -0.050240293
-0.024165958 -0.051942457 -0.052307937 0.025373796 -0.071881056 0.05934403 0.03040722 0.07056182
-0.08843144 -0.016484095 0.049370464 -0.026407288 -0.077637315 -0.02538931 -0.030170592 -0.042137805
0.058007494 -0.0831224 -0.058379795 -0.08889417 0.06316098 -0.07965414 -0.060837105 -0.0934472
0.023808965 0.10201818 0.117545724 0.07882373 0.058874086 -0.041069414 0.107239366 0.030912483
0.091395736 0.092023425 -0.033405434 0.0175013 0.07506575 0.044190146 -0.1048572 -0.033722017
-0.027800022 -0.034483224 0.0436163 0.025210291 -0.005462413 0.0078122974 0.050874256 -0.08966079
0.0070832632 -0.10261306 -0.067530654 -0.051247288 0.058218356 0.05468902 -0.008017486 0.03170225
-0.014102399 -0.011418701 -0.10318927 0.0010599877 0.025823697 -0.05474509 -0.06919627 -0.038655207
-0.114908725 0.04210846 -0.03552298 -0.00900728 -0.09371185 -0.12943377 0.068566345 0.060531896
0.06919616 -0.014530607 0.0229134 0.024385057 0.0985703 0.07810766 0.036958426 -0.0016374836
-0.0010414881 0.08517567 -0.062234677 -0.020111501 -0.033099025 0.07876817 -0.015401482 0.02846393
0.018366568 -0.10790832 0.080556914 0.10548765 -0.052143373 -0.019882843 -0.0065658228 0.061725024
0.08495201 -0.037397493 -0.05184628 -0.016304886 -0.008360722 0.1169576 0.059740826 -0.04179893
0.06342523 0.014143074 0.05739719 0.029066082 -0.024931492 0.027529133 0.029728325 -0.06604762
0.04017081 0.046528656 0.030855536 0.082115255 0.053510495 0.10174609 0.036590036 0.0033444844
0.062169697 0.004906726 -0.047532067 -0.079897255 -0.072447464 0.087160654 0.107892215 0.021707924
-0.051231958 -0.049429167 0.11360108 -0.044312328 0.08274725 -0.014431099 0.056654427 -0.013887003
0.025835667 -0.065913536 -0.10197911 0.042044286 0.0064994954 0.063631505 0.017481633 -0.0536124
-0.062445503 -0.09719441 0.056782424 -0.0649451 -0.08108857 -0.034450002 -0.06982183 -0.09527445
0.022543075 -0.022182802 -0.00026659798 -0.069744654 -0.0040394687 0.01822626 -0.03976835 -0.02954167
-0.025236422 -0.018191164 0.01949425 -0.04307505 -0.014481181 -0.0107042175 0.032545853 0.1594331
0.11745528 0.13025218 0.043693867 0.017737653 0.015924098 0.057677615 0.077921346 -0.042703
-0.059029005 0.07086411 0.0027676146 0.059289053 -0.015237622 -0.03506846 0.020012243 0.025716893
-0.055288427 0.04156694 -0.038512707 0.07948176 -0.030616764 0.015739726 0.037554644 0.0771908
0.04746907 -0.10032163 0.01208717 0.028478462 0.02986596 -0.047277763 0.034793276 -0.059100915
0.045815233 -0.0068710824 -0.0102491975 -0.099217586 0.005742482 0.06756209 -0.013471122 -0.06286153
-0.06017731 -0.024472341 -0.031500105 0.028544364 -0.09307231 -0.023453318 0.014434784 0.081816725

conv_1.bias f4 [32]
00000000: ea18 8f3c d301 92bc d490 8a3c bea7 75ba
00000010: 7c35 2bbd 36a3 173d b5ee 223c eae8 fa3a
00000020: e2be fd3c 530d 783c b2da 02bd c447 0cbb
00000030: 98c8 213c dcfb da3b eb93 a63c 1901 06bc
00000040: 02ac 8c3d 75eb e83c 28ad 353b 8ac1 ecbb
00000050: 71a5 e23c f4b3 c73b 518b d33c 229f 14ba
00000060: 917a 58bc 3b42 eb3b 07dc 6b3c 3a6d a2bb
00000070: 69d1 2dbc 45e7 6dbb 8ad6 363d c416 c63c
0.017467935 -0.017823135 0.016914763 -0.0009371004 -0.041799054 0.037020884 0.0099446075 0.00191429
0.03097481 0.0151398955 -0.031946845 -0.002140508 0.009874485 0.006682856 0.020334205 -0.008178973
0.068687454 0.028432587 0.0027721617 -0.00722522 0.02766678 0.00609445 0.025823267 -0.00056694646
-0.013212816 0.007179526 0.01439572 -0.0049568685 -0.010609009 -0.0036301177 0.044638194 0.024180777

batch_norm_1.weight f4 [32]
00000000: d6f1 803f 553a 613f bf51 6b3f c7df 913f
00000010: 9069 893f 25ff 763f af30 643f 4934 843f
00000020: 6584 783f fc42 813f 8e22 8a3f 0092 863f
00000030: c5d4 7f3f 6500 6e3f ee18 643f 0fdf 863f
00000040: e5a0 7b3f 77a6 7c3f 7f18 793f a191 653f
00000050: a7b9 6a3f f8ce 623f 6592 6b3f 8c92 703f
00000060: ba52 933f 9bec 763f a101 793f 8715 843f
00000070: b06d 673f c44b 893f eb37 7f3f 5f90 683f
1.0073802 0.8797963 0.9192161 1.1396416 1.073534 0.9648307 0.89136785 1.0328456
0.9707702 1.0098567 1.0791795 1.0513306 0.99934036 0.9296935 0.8910054 1.0536822
0.9829238 0.98691505 0.97303003 0.8967534 0.91689533 0.8859706 0.92020255 0.9397361
1.1509621 0.9645478 0.9726811 1.031907 0.90401745 1.0726247 0.996947 0.9084529

batch_norm_1.bias f4 [32]
00000000: 07aa 29be ebb5 6ebe b8c0 eabd 12e5 c1bd
00000010: 4d85 60bc 7325 9ebd 2be5 45be ce9d 17bd
00000020: 0b8c 2bbe 1e83 74bd 9a34 05be 0ce7 97bd
00000030: 6f35 68be 7eea 3ebe 239d acbd 7abb 61be
00000040: cc1a 213b 9505 c4bd 828c fabd 26a4 ecbd
00000050: f31f e8bd 55df 61be d8c7 02be 8e7d 7ebd
00000060: 107d 76be a89a 0dbe 2367 5bbe 8f03 23be
00000070: 16a0 97bd 264d 4ebd 1f44 cc3c a03e 1fbe
-0.16568767 -0.23311584 -0.114625394 -0.0946752 -0.013703656 -0.077219866 -0.19325702 -0.03701573
-0.16752641 -0.059695356 -0.13008347 -0.074171156 -0.22676633 -0.18644139 -0.08428409 -0.22044173
0.0024582623 -0.09571377 -0.12233831 -0.11554746 -0.11334219 -0.2205785 -0.12771547 -0.062131457
-0.24071145 -0.13828528 -0.21426062 -0.15919326 -0.07403581 -0.050366543 0.024934826 -0.15551233

batch_norm_1.running_mean f4 [32]
00000000: 0e8e c4bd 2621 0e3d c38f 253e c6e7 1ebd
00000010: 28c2 dcbc 81e8 cbbd 66ca e43d 9812 b6bc
00000020: 0e86 2d3c 66c1 05bb d6be 81bd 50b5 07bc
00000030: 95de cfbb 8b24 383c 0f67 1f3e 341a 9abc
00000040: 78e9 a43b 0b1f 693a 8989 adbd bed3 663d
00000050: 1f93 483c 11a3 2dbe 0525 fa3d a0e3 90bd
00000060: 8264 03bd d80b febd 195f 4fbe 8cb0 42bd
00000070: a251 4b3e 7d74 b7bc a464 3e3d f119 18be
-0.09597407 0.03469958 0.16168122 -0.038795255 -0.02694805 -0.09956456 0.11171417 -0.022225663
0.010591043 -0.0020409464 -0.06335227 -0.008282974 -0.0063436725 0.011239181 0.15566657 -0.018811323
0.0050327145 0.00088928704 -0.084734984 0.056354277 0.012242108 -0.16956736 0.12214092 -0.07074666
-0.032078274 -0.12404603 -0.2025112 -0.04753165 0.19855359 -0.022394413 0.046482697 -0.14853646

batch_norm_1.running_var f4 [32]
00000000: a1d5 c03c d1d0 1e3d 84ca 843c 4396 543d
00000010: fb20 173c 07c5 5a3c bfd3 953c 0dbf 5c3d
00000020: d4d8 c63b 0b0e 493c c1a4 fd3b dead 083d
00000030: 0fa0 c83b f643 cf3c 3bbc 013d 67b0 f73b
00000040: e8b3 193c 0ed2 843c 38d6 283c df7c f53c
00000050: 20a5 463c ac82 0c3d fcb8 cf3c f2cd a53c
00000060: c049 863c ac2c a43c 0c34 ee3c cd15 8f3c
00000070: b5ba 0a3d a506 d63c 51d3 103c eb11 113d
0.023539366 0.03877336 0.016209848 0.051901113 0.009224172 0.013352639 0.018289445 0.053893138
0.0060683284 0.0122714145 0.0077405875 0.033368938 0.006122596 0.025300961 0.03167365 0.0075588706
0.009381272 0.016213443 0.01030498 0.02996677 0.01212433 0.034304306 0.025356762 0.020239804
0.016392589 0.020040832 0.029077552 0.01746645 0.033869464 0.026126215 0.008839444 0.03541748

conv_2.weight f4 [32, 32, 5, 5]
00000000: 0eb5 1d3d dd28 7dbd bfaa b0ba 1a5c ffbb
00000010: d87b 5fbc babe 7c3d 5fb5 443d 6e56 183d
00000020: fe72 72bd 025e 7ebb 67c2 903c 706c c53c
00000030: f033 8dbb f590 913c e852 eabc 0edb 033d
00000040: 6706 233b 04b3 36bd 1a3e b7ba 3f46 eab9
00000050: 177a 43bd 6475 6ebd f19c 0bbd 4fb5 5dbd
00000060: a4de b1bc 39b1 113d 994d 5b3b cb36 c73c
00000070: 5ff3 693d 3d4f 3ebd de13 49bc 5d6c 94bd
00000080: 4426 51bd 5b79 e4bb e5af ed3c a39a 25bd
00000090: ef0e 85bd 190c 8e3c 889c 5d3d b082 233a
000000a0: 0643 89bc 0220 e63c 37fe 4e3d 47a5 bbbc
000000b0: ffa4 c3bb 8569 0cbc ae59 bcbc 898d 1f3d
000000c0: fade 34bd 96eb c83c d05b 4bbd 26f5 2bbc
000000d0: ec11 063d c81f b5bb f3e0 273d 914a e8bc
000000e0: 74dc 52bb c397 01bc 14f1 923c d7a6 15bd
000000f0: 9d42 da3b 89fa 86bd baa7 bcbc 7149 603d
00000100: 7f91 6f3d 1a73 483d db65 95bd f3eb 29bd
00000110: 4f6a 06bc 2fc5 fb3c 9744 263c ace2 f4bc
00000120: 8d40 8fbc 49c9 ce3c a1e1 bf3c 466e 753d
00000130: f143 593d eaab 9c3d 4494 473d 1c6f 95bc
00000140: 949c 0bbc 8d2c b13c 3f80 7d3d b429 133d
00000150: 2d5c 3cbb 5d86 cf3d ccab f7bb 382e 593d
00000160: 1ecf c33d d32e 5c3d 8d0d 7b3d 3a1f 593d
00000170: fef1 673b 75ed 843d 72b3 553d e1da 333d
00000180: 3746 d73d a757 c03c c8dc bb3c c194 a63b
00000190: 6757 9b3c 647c 13bd b00f b3bc ef7f 833d
000001a0: a76a 083d 0537 46bc 06a8 ccbc 2021 4e3b
000001b0: 910d 653d 87ae 09bc c379 cd3c 2acb 493c
000001c0: d5ec 793d a4b9 17bd 7b86 d4bc 6322 a03c
000001d0: 4976 a13d 5226 a7bc 9243 8cbc 2b70 ed3d
000001e0: e7b8 343d b9c3 873b b862 59bb 7e96 dabb
000001f0: cf88 a63d 5a41 af3c 8352 bbbc c56a 9f3c
00000200: 38f4 10bd 9a3b 14bd 1bf6 c3bc a55f 85bd
00000210: 1c61 27bd a7e1 adbd e4a2 abbc 579f 04bd
00000220: 6fe3 7abd 278a 51bd 4396 903b 5102 51bd
00000230: 9415 21bd 2f2a 3cbd 2152 a6bd e1b7 893c
00000240: 5012 18bc 48a6 7bbd 16f0 91bd 2d39 9bbd
00000250: 713c 7d3a eb0f 17bd 467e dcbc 9304 023c
00000260: 7267 f3bb bc29 96bd a1b9 1ebc a75c 2a3d
00000270: 7302 3abd c25f c0bc 0dd0 03bd 72e1 78bb
00000280: c181 82bd 640f b4bb b770 9dbd b6fe cebd
00000290: 2aa1 bebd 4f35 3bbd a521 133d 921b 44bd
000002a0: 8fdf 80bc c660 44bd d392 2c3d b795 88bd
000002b0: 0c3c bcbc 0005 ef3b f650 87bd c1e1 fcbc
000002c0: 1ad5 5bbd 06b7 0abd 90c3 acbc b026 32bd
000002d0: 06c4 66bd 1cca 4fbd f762 70bd 1ea2 c5bd
000002e0: 1736 5abd c0fd b9bd 33b9 d7bb 545d c6bc
000002f0: 1bf1 47bd a172 153c ac8c c2bc 056e 64bd
00000300: 5807 07bd c9f3 85bc da46 66bd 0e3d 813c
00000310: 06e1 463b cbb7 5bbd cd18 45bc f046 20bd
00000320: bc14 2a3b cda8 81bd 515e 23ba c65a 91bd
00000330: ee73 1b3d 631a 9dbd af80 4ebd 06ff e8bc
00000340: 8129 adbd bcb2 4abd 24c9 9d3c 3895 82bd
00000350: 2c7a afb8 f0e5 5dbc f6e9 3abd e6dd afbc
00000360: 7a75 3bbd aab3 b9bd b00c 66ba 07a6 02bc
00000370: ec11 b6bc 77e1 e43b 69c4 42bc 9ef6 82bd
00000380: 8989 e83b 000f 34bd fe47 3d3d 8898 0a3c
00000390: 3d8f 1a3c 706b 33bd b7bc 563d 0868 f4bc
000003a0: bbb7 b5bc c5c1 3dbd 329e 6f3d aab4 5f3c
000003b0: 7b13 57bc 1e0b 13bd 5593 49bd 2d86 f3bc
000003c0: 54a3 2b3d 1b37 153d cd2a 14bd 2adf 5abd
000003d0: 16d0 843d f192 5a3d f026 f73c e7ef 86bc
000003e0: b634 f8bc be79 b33b c007 21bd e136 1c3d
000003f0: 76e4 b7bc c4c5 abbc a864 083d 9d3c db3c
0.038502745 -0.06180655 -0.0013478621 -0.007792962 -0.0136403665 0.06170533 0.04802453 0.0371918
-0.059191696 -0.0038813357 0.017670823 0.024099559 -0.00430917 0.017769316 -0.028603986 0.03219133
0.0024875642 -0.044604316 -0.00139803 -0.00044684295 -0.047723856 -0.05821742 -0.034085218 -0.054127987
-0.021712609 0.035569403 0.0033463 0.02431812 0.057116862 -0.046462286 -0.012272803 -0.07247231
-0.051061884 -0.0069724745 0.029014537 -0.040430676 -0.06496989 0.017339753 0.054104358 0.00062374305
-0.016755592 0.028091434 0.050535407 -0.022905959 -0.005970597 -0.00857008 -0.022991981 0.038953338
-0.04415796 0.024526399 -0.049648106 -0.01049546 0.032731935 -0.0055274703 0.040986013 -0.028355869
-0.0032174857 -0.007909718 0.01793722 -0.036536064 0.006660773 -0.065907545 -0.023029197 0.05475754
0.058488365 0.048937894 -0.07294818 -0.041484784 -0.008204057 0.030733673 0.010148189 -0.029893242
-0.017486835 0.025242465 0.023423018 0.059919618 0.05304331 0.076499775 0.04872538 -0.018241458
-0.008521218 0.021627689 0.061889883 0.035928443 -0.0028741464 0.1013305 -0.0075583216 0.053022593
0.09560989 0.053755593 0.06129222 0.053008296 0.0035392041 0.06490604 0.052173086 0.04390991
0.10511439 0.023479296 0.022932425 0.005083651 0.018962575 -0.0360073 -0.021858066 0.06420886
0.033304837 -0.012098079 -0.024982464 0.003145285 0.05592114 -0.008403427 0.025082475 0.0123165045
0.061016876 -0.037042275 -0.025943032 0.019547647 0.07883889 -0.020404015 -0.017122064 0.1159366
0.04412165 0.004143205 -0.0033170413 -0.006670772 0.08131563 0.021393467 -0.022866493 0.019460091
-0.035389155 -0.036189653 -0.023921063 -0.06512383 -0.040864095 -0.084903054 -0.020951696 -0.03237852
-0.061252054 -0.051157143 0.004412444 -0.0510276 -0.03932722 -0.045938667 -0.081211336 0.016811313
-0.00928171 -0.061437875 -0.07125871 -0.07579265 0.00096601906 -0.036880415 -0.02691568 0.007935661
-0.007428103 -0.07332179 -0.009687812 0.041592266 -0.045412492 -0.02348316 -0.032180835 -0.0037976173
-0.06372405 -0.005494999 -0.07687514 -0.10107176 -0.09308083 -0.045705136 0.035920758 -0.047877856
-0.015731601 -0.047943853 0.04213221 -0.06669181 -0.022977851 0.007294297 -0.06607239 -0.030869367
-0.053670026 -0.03386595 -0.021089345 -0.043493927 -0.056339286 -0.050729856 -0.05868813 -0.09650062
-0.05327424 -0.09081602 -0.0065833568 -0.024214424 -0.04881392 0.009121568 -0.023748718 -0.055768985
-0.032965988 -0.016351597 -0.056219913 0.015776183 0.0030346527 -0.053642076 -0.012029839 -0.03913015
0.00259523 -0.06331024 -0.0006232011 -0.07097392 0.037952356 -0.076710485 -0.05041569 -0.028441917
-0.08455182 -0.04948686 0.01926095 -0.063761175 -8.3674066e-05 -0.013543591 -0.04563328 -0.021468114
-0.04576633 -0.09067471 -0.00087756943 -0.007974154 -0.022225343 0.0069848853 -0.011887648 -0.06394695
0.0070964736 -0.043959618 0.046211235 0.008459218 0.009433565 -0.043803632 0.052426066 -0.029834762
-0.022182336 -0.04632737 0.058500476 0.0136539135 -0.013127203 -0.035899274 -0.049212772 -0.029727066
0.04190381 0.036429506 -0.03617363 -0.053435482 0.06485002 0.05336279 0.030169934 -0.016471816
-0.030298572 0.0054771593 -0.03931403 0.038138274 -0.022447806 -0.020968325 0.03329912 0.026762301

conv_2.bias f4 [32]
00000000: 95b0 b33c 6830 813b 3c43 6e3c e10c 353c
00000010: a420 eb3c 2c33 b4bc 5ad8 0b3c 9988 4c3b
00000020: 5946 333c f4dc 10bc 5ee6 2e3c b372 8f3c
00000030: 5bdc 8e3c 5c78 c3bc 776b ea3a e7cc 82bc
00000040: 91ca 96bc 99a8 c23c 600e a23b f390 793c
00000050: 20bd e93c 0419 8fbb e8c1 853c f9f9 273c
00000060: 755e 223c 2691 273c 6762 8cbb 720b b0ba
00000070: f4f7 7a3c 30b6 1ebc c3ac eb3a bed4 923c
0.021934787 0.003942538 0.014542397 0.011050434 0.028702088 -0.021997057 0.008535469 0.0031209348
0.010942065 -0.008841742 0.010675041 0.017510748 0.017439058 -0.023861103 0.001788481 -0.015966846
-0.018407138 0.023762034 0.0049455613 0.0152323125 0.028532565 -0.0043669958 0.016327813 0.010252469
0.009910216 0.010227477 -0.0042841914 -0.0013431145 0.015317906 -0.009686992 0.0017980564 0.017923709

batch_norm_2.weight f4 [32]
00000000: f649 623f 5334 4f3f 03ea 563f 23ba 523f
00000010: f38e 403f d03a 4b3f 05a7 633f 5bbb 493f
00000020: 3057 5c3f 0edd 493f d1e9 543f 3117 403f
00000030: 5b47 3a3f e779 4b3f 661a 3b3f f9d2 683f
00000040: 23ed 3c3f b05c 643f d530 493f 8027 4b3f
00000050: 71cf 473f 7c65 5a3f 258d 3c3f f787 4b3f
00000060: 3941 573f bd25 3e3f 99da 573f a9ab 553f
00000070: ab02 493f db9c 623f 6f06 643f f5ff 523f
0.88394105 0.80939215 0.83950824 0.8231527 0.75218123 0.79386616 0.88926727 0.78801507
0.8607054 0.7885293 0.83169276 0.7503539 0.7276513 0.79482883 0.73087156 0.9094692
0.7379934 0.8920393 0.78590137 0.7935715 0.78050905 0.853111 0.7365287 0.7950434
0.84083897 0.74276334 0.8431793 0.8346506 0.78519696 0.8852059 0.89072317 0.8242181

batch_norm_2.bias f4 [32]
00000000: 66b6 0dbe 220a 74be 3dde 4ebe 8702 55be
00000010: be54 89be 373b 4bbe a47f f3bd 3532 8ebe
00000020: ad37 09be a879 77be ad3c 4fbe 5203 3dbe
00000030: 27e7 85be 7e12 5abe bc36 7dbe c52d f4bd
00000040: 6d5c 87be f939 07be d90a 73be 8ecc 58be
00000050: f4d3 75be 15ea 4ebe a2c4 89be bef4 58be
00000060: 0970 3ebe 2ced 8ebe c462 0ebe 1a18 26be
00000070: 04c7 58be bcb8 30be 0cb1 1bbe 630f 42be
-0.1383911 -0.2383199 -0.20201965 -0.20801745 -0.26822466 -0.19846807 -0.1188958 -0.2777268
-0.13400145 -0.24167502 -0.2023799 -0.18458298 -0.26152918 -0.21296117 -0.24727911 -0.11922792
-0.26437703 -0.13205709 -0.23734607 -0.21171781 -0.24006635 -0.20206483 -0.2690783 -0.21187112
-0.18597426 -0.27915323 -0.13904864 -0.16220132 -0.21169668 -0.1725797 -0.15204257 -0.18951182

batch_norm_2.running_mean f4 [32]
00000000: 806a dfbf a158 7bc0 03d9 19c0 43d9 ecbf
00000010: 5b8a aebf faa7 babf 4f8d 72bf 4c72 0dbf
00000020: 4e02 a9bf df65 ebbf 6fbd 15c0 8615 f03d
00000030: 9a53 16c0 1b45 74bf e462 5fbf 93f0 92bf
00000040: f581 82bf b716 84bf dcdc aabe 9a99 0cc0
00000050: ba53 e1bf a34b 51c0 8f70 5cc0 7880 a7bf
00000060: 63a4 21bf 6b79 93bf 33a1 9bbf b4f3 0fc0
00000070: 928e 21c0 9257 d1bf 1409 b1bf 4265 d1bf
-1.7454376 -3.9272845 -2.4038703 -1.8503803 -1.3635973 -1.4582512 -0.9474687 -0.5525253
-1.3203828 -1.8390464 -2.339687 0.11722855 -2.3488526 -0.95417947 -0.8726027 -1.1479667
-1.019591 -1.0319432 -0.33371627 -2.196875 -1.7603676 -3.2702415 -3.44437 -1.308608
-0.6314146 -1.1521429 -1.2158569 -2.2492495 -2.5243268 -1.6354849 -1.3830895 -1.6359026

batch_norm_2.running_var f4 [32]
00000000: ccd3 d640 062c 0941 7721 9e40 889e 3240
00000010: 36c6 4240 f86f 1b40 b686 0b40 7ab6 5b40
00000020: 2b0a 5a40 8452 5140 74b1 6740 f726 c240
00000030: 5291 a840 18ab 7640 6fc3 1740 8246 2340
00000040: ddd9 a240 e84b 2940 8882 4d40 2de5 f740
00000050: 7142 9140 454d 9840 3dab ce40 1722 5740
00000060: b6d0 4940 f1be 3c40 675d 4540 0ce3 3940
00000070: abd3 b640 a6e1 2040 d5af 2a40 c672 dc3f
6.713354 8.573248 4.941585 2.790926 3.0433478 2.428709 2.180097 3.4330125
3.4068706 3.2706614 3.6202059 6.0672565 5.2677393 3.8541927 2.3713033 2.5511785
5.0890946 2.645258 3.211092 7.7467256 4.5393605 4.7594323 6.458403 3.3614557
3.1533637 2.9491541 3.0838258 2.9044828 5.7133384 2.5137725 2.666982 1.7222526

output.weight f4 [10, 6272]
00000000: a194 73bc 8e35 5dbc 22b6 b43c 1e21 3c3c
00000010: b94f 953b bf6e 01bc 339f a83c 71d5 5ebc
00000020: 253a bb3b b48c 4fbc a873 583c f488 463c
00000030: 2ee0 483b ae7d 063b b70c a7bc c600 a43a
00000040: c1ef 9ebc 60db 1a3d daf0 d83c 2738 57bc
00000050: 8ff1 f23c 31c9 a5bc de31 e9bb afed a4b9
00000060: 0ad2 e03b 7db8 ed3c 5468 903c 991a 19bd
00000070: 84b7 bf3c 954e ee3b ab78 e23c 967e 33b9
00000080: 869b 1c3d 4d39 dcbb 25c7 c93a 7a5d a4bc
00000090: 00d4 d13c 4ed0 2a3c c1af 5d3c b809 81bc
000000a0: d60d b2bc 7901 1dbd 6c6b 0dbc 6bab f13c
000000b0: a4b9 df3c 432c f2bb 490b 9ebc 04e2 b83c
000000c0: fc09 ad3b a77c 9bbc 133d fa3b 9c94 1f3c
000000d0: 9ede 1ebc fc5e 863c 720f c43b 0283 503c
000000e0: 4310 6dbc 2e08 81ba e639 023d 0721 ec3b
000000f0: af8c 66bb ff9e 17bd 53e6 1abc 8517 23bd
00000100: 9b97 e7bc 0de1 1dbd fe9f a339 e40b 28bd
00000110: ec33 e5bc 755a 10bc df70 333d 8ca4 d139
00000120: 3e37 b13c 3b60 273c 3e25 a73c 8434 84bc
00000130: 38f6 05bd 3ebe 20bd 77da fbbc 7c6d 79ba
00000140: de61 c2bc be3f 373c 7d5e 453c 5512 093d
00000150: c10f f73c 82f0 543c 9c96 7fbc b979 e3bc
00000160: 6aec 833c 98b9 b3ba b7a8 49bc 74ab efbc
00000170: 139b 9abc 263b 49bd 3098 b9bc f6e1 02bd
00000180: 3371 aabb ecd1 88bb 1486 9abb 62de d83c
00000190: b7a1 a6bc 797a 35bc a9a1 08bd 1f79 20bd
000001a0: 2e90 1dbd 5081 15bd b960 aabc 4704 b8bc
000001b0: 847b 60bc b8b4 16bc d978 0cbd f97f 753c
000001c0: 48bc 773c aca8 0c3d bd3b dabc 6b64 6f3c
000001d0: 00f6 37bc 270e 9fbc 775d 11bd e9b2 b1bb
000001e0: a37c 4bbb 79f8 40bd 90b8 e5bc 3dba d3bc
000001f0: feaa 14bc 6b89 0b3d e68c 993c 08b9 00bd
00000200: 6d06 563c ada0 16bd 532e 20bd 2046 563b
00000210: 30d4 20bd 3433 aebc 54c5 26bd db4c 22bd
00000220: 8e62 c33b a504 0e3c c65f b13c faf4 cd3c
00000230: dcad 74bc 3748 d0bc 7fac 89bc d95f 023b
00000240: 7fc7 efbc 6d4c 63bc 2a88 f6bc fc9b e3bc
00000250: d32a 69bc a502 e5bc ccd3 a5bc 9cd0 8ebc
00000260: cd3e c13c b5a7 bdbc 6b90 82ba 06d4 b43c
00000270: b275 c93c 1f2d 98bc c35c 11bb 355f b73b
00000280: 0b5a 46bc 7c0a 79bc 8ed7 d8bc 1a92 863b
00000290: 2055 39bc fbe9 18bd 7cd6 7a3c 23e8 a6ba
000002a0: f4d7 343d f525 393b b579 8fbc 38b7 683b
000002b0: cf64 86bc 3c0a 12bd 73ea bebc 048f 82bc
000002c0: bf1e 22bd b7fe c6bc dd0f 94bc 2603 f73b
000002d0: c09c cf3c 17a0 3dbb a2c5 993c 554e adbc
000002e0: f14d 4f3c 1323 b9b7 e47a 99bc 4204 f239
000002f0: 09df b9ba e1b0 2abd c430 4abc d528 68bb
00000300: 1cda d7bb 2d8e 4e3c 001f c5bc 605d fabb
00000310: 8bf8 a83c 6dc4 2b3d 9092 753c 463a 1e3d
00000320: 56b6 8a3c ca7f eb3b b915 633d 3ea5 033c
00000330: 10d4 f33c 0de5 29bc 9dd8 253d c309 183d
00000340: 8c1b 3dbc fd6d f7bb b367 05bc 6a95 093d
00000350: 9859 f2bb d78d 2b3c 6441 cf3a 9efb ebba
00000360: af6d 1b3d d811 4b3d 0f89 1b3d 85db f73c
00000370: 17ba 253d ddae 1b3d 423f 0c3c f3ed e23c
00000380: 2b9b 30bc 504e 45bc 8a30 583b 7233 073d
00000390: 2a57 493d 7831 113d 9b56 303d 8bc2 553d
000003a0: bc1a 933c 68c4 53bc 6639 a93c 88e3 073d
000003b0: cf36 253d 14dd b23c 2ff3 293c f894 16bc
000003c0: 0e8d 813c 9b32 863c 73be bd3c fc18 8f3b
000003d0: 625f 1d3d 3448 5e3b ff9e 673c 12f2 8ebb
000003e0: ce4b 323c a587 d53c aab0 10bc b08a ccbc
000003f0: 6a66 603c c88c 9ebc fcdb a0bc 6e1d 12bc
-0.014866979 -0.013501538 0.022059504 0.011482505 0.004556623 -0.007899939 0.020583725 -0.013600693
0.0057137185 -0.012667824 0.013211168 0.012117613 0.00306512 0.0020521688 -0.020391805 0.0012512438
-0.019401433 0.03780687 0.026482034 -0.013135946 0.0296562 -0.020237537 -0.0071165403 -0.00031457606
0.006860976 0.029018635 0.017627873 -0.03737888 0.023402937 0.0072725513 0.02764543 -0.00017117927
0.038234256 -0.006720698 0.0015394433 -0.020064104 0.025613785 0.01042564 0.0135306725 -0.015751705
-0.021735113 -0.038331483 -0.008631568 0.029500684 0.0273102 -0.0073905303 -0.01929249 0.02256871
0.0052807312 -0.018980337 0.007636675 0.009740021 -0.009696631 0.016402714 0.0059832865 0.012726547
-0.014469209 -0.0009844357 0.031793498 0.0072060856 -0.0035179069 -0.037016865 -0.009454328 -0.03981735
-0.028270533 -0.038544703 0.00031208986 -0.041026965 -0.02797886 -0.008810629 0.043808814 0.00039986183
0.021632787 0.010215814 0.0204035 -0.016138323 -0.032705516 -0.03924393 -0.03074382 -0.00095149106
-0.023728307 0.011184631 0.012046454 0.03346475 0.03015888 0.012996795 -0.015599873 -0.027768003
0.016103942 -0.0013711927 -0.012308291 -0.02925656 -0.018872773 -0.049128674 -0.022655576 -0.031953774
-0.0052014827 -0.0041754153 -0.0047156904 0.026473228 -0.020340784 -0.011076563 -0.033357296 -0.03917801
-0.03846758 -0.036500275 -0.020798074 -0.022462977 -0.013701323 -0.00919836 -0.034294937 0.014984124
0.015120573 0.034340546 -0.026639814 0.014611344 -0.011228085 -0.019415928 -0.035489526 -0.005422939
-0.003104963 -0.047111962 -0.028042108 -0.025845641 -0.009073971 0.0340666 0.018743943 -0.03142646
0.013063055 -0.036774326 -0.03910668 0.0032695606 -0.039264858 -0.02126465 -0.04071553 -0.039624076
0.0059626764 0.0086680995 0.021652114 0.025141228 -0.014934029 -0.02542506 -0.016805885 0.0019893555
-0.029269932 -0.013873202 -0.030094225 -0.02778434 -0.0142314015 -0.027955363 -0.020242594 -0.017433457
0.023589516 -0.023151258 -0.0009961253 0.022073757 0.024592254 -0.018576203 -0.0022180534 0.0055960664
-0.012106429 -0.015200254 -0.026469972 0.004106772 -0.011311799 -0.037332516 0.015309926 -0.0012733977
0.04415126 0.0028251384 -0.01751409 0.0035509598 -0.016405491 -0.03565429 -0.023305153 -0.015937336
-0.039580103 -0.02429138 -0.01807397 0.007538217 0.025343299 -0.0028934532 0.018770996 -0.021155516
0.01265286 -2.2070051e-05 -0.018735357 0.0004616101 -0.001418085 -0.04167259 -0.012340728 -0.0035424728
-0.00658728 0.01260714 -0.024062634 -0.0076405257 0.020626327 0.041935373 0.0149885565 0.038629793
0.016932648 0.0071868645 0.05544064 0.008035002 0.029764205 -0.010369551 0.04048978 0.037118685
-0.011542212 -0.0075509534 -0.0081424 0.033589758 -0.0073959343 0.010470829 0.0015812335 -0.0018004065
0.0379464 0.049577564 0.037972506 0.030256042 0.040460672 0.03800856 0.008560004 0.027701354
-0.010779182 -0.012042597 0.0032987916 0.033008046 0.04915539 0.035447568 0.043051343 0.052187484
0.017957084 -0.012925245 0.020657253 0.033175975 0.040335473 0.021833934 0.010372921 -0.00919079
0.01581433 0.016381552 0.023162102 0.004366992 0.038421042 0.0033917548 0.014137029 -0.004362353
0.010882331 0.026065657 -0.0088311825 -0.024968475 0.013696292 -0.01935424 -0.019636147 -0.008918149

output.bias f4 [10]
00000000: e538 c73b 3a57 2c3c a0bf 95bb a09f b03c
00000010: 76a7 8a3c 211e 463c 437d 8e3c 47e6 fa3a
00000020: faef 8e3c 4748 053c
0.0060797804 0.010518843 -0.0045699626 0.02156049 0.016925555 0.012092144 0.017393714 0.0019142114
0.017448414 0.008134908
