runs/0001_CNN_1_bsz-128_lr-0.001_ep-3-desc-.pth (torch, 370578 bytes, 14 tensors)

conv_1.weight f4 [32, 3, 5, 5]
0.06373691 -0.1250714 -0.022989063 0.042177483 0.00942994 0.044226818 0.018094862 0.086640544
0.0831899 -0.042438164 0.039098326 -0.095042 0.0812653 0.08195992 -0.06469709 0.036122967
-0.10956577 0.01993994 -0.05411995 -0.0469935 0.008210786 -0.073900394 0.06494461 -0.019089177
-0.064450495 -0.07874144 -0.016689872 -0.08074613 0.025007458 -0.03836664 0.08250053 -0.07831687
0.054284982 0.122399636 -0.029992178 0.07486745 0.048926946 -0.022503903 -0.013236278 0.04473558
-0.024303446 0.027036592 -0.11148966 0.011388454 -0.07473267 -0.05891763 -0.016267583 0.09252448
0.02049754 0.060071435 0.061119664 -0.079506785 -0.0063757584 0.030488279 -0.03927684 0.03378257
0.040875334 -0.004212743 0.10137916 -0.011845467 -0.030664675 -0.051862076 -0.040734988 0.079145215
-0.07886731 0.036190614 -0.09623142 -0.07383373 0.04279299 -0.013122461 0.063789755 -0.0011550632
0.035768125 0.06277233 -0.0028543416 -0.0065685804 -0.060649402 -0.058525722 -0.021028189 0.03938336
0.11328647 -0.07890661 -0.092646174 -0.099232934 0.05846265 0.045114614 0.09313381 0.065586865
-0.05561157 -0.12500654 -0.030739415 -0.052496783 0.100569576 -0.007934721 -0.00172765 0.042863723
-0.026667846 -0.027078843 0.051581047 -0.027678581 -0.0060644867 0.0023042813 0.04073722 0.10257604
0.021124216 0.03045768 -0.022842644 0.011477537 -0.06672816 0.03943619 0.00028623609 0.08489589
0.01722628 -0.12115759 -0.044226307 -0.0007938235 -0.044933993 0.115656026 0.060941737 -0.05900779
-0.028078847 0.06311486 0.033829276 0.028822053 0.034126654 -0.054394454 0.0032266898 -0.06603147
0.0045860917 0.019320037 0.072636105 -0.07602567 -0.1342653 -0.034549896 0.092838295 0.023229169
0.11866452 -0.08043015 -0.0685604 0.04064761 0.03242359 -0.022899205 -0.035809223 0.003787805
-0.09743174 0.043684393 -0.050116647 0.0722069 -0.053606104 -0.042041082 -0.0420357 0.014417825
0.019502439 0.124627545 0.0713118 0.027511615 0.04973083 0.066034935 0.09692747 -0.038763285
-0.032227617 0.013459823 -0.04428728 -0.009557631 0.079095975 -0.0144180395 -0.058036912 -0.08197194
-0.07130627 0.027173568 0.003884989 -0.101137556 -0.0999348 -0.014878367 -0.08821767 0.04391119
0.004914313 0.050315227 0.013264732 -0.008185566 -0.093901224 0.00029684432 -0.08912742 -0.032186646
-0.04336389 -0.0450993 -0.05840418 -0.014069476 0.07448993 -0.04777521 0.067056194 0.05921488
-0.038047086 0.0047140257 0.003846773 0.045643076 0.0663969 0.039304223 -0.02604164 0.02263774
0.047998346 0.026962072 -0.1089926 -0.11488377 0.0014851288 0.0041225385 -0.044918872 -0.094660446
-0.0684533 -0.011477573 0.04453137 -0.06302634 -0.0017368455 0.0014702429 -0.050166864 0.040644635
0.077053554 0.011244972 0.038763445 0.04384932 -0.023384554 0.057215393 0.115269445 0.07271379
0.06908946 0.056348078 0.016939672 -0.06287452 0.023474982 -0.019073954 0.01787776 0.017792508
-0.015863745 -0.029448817 -0.047305867 0.02193438 -0.0030615728 0.1112977 0.07902674 -0.071391866
-0.07564129 0.029898465 0.106334426 0.08459043 0.07198982 -0.07730201 0.054249126 0.044099238
-0.06568227 -0.037885506 -0.044275757 -0.069855295 -0.098928556 -0.059315123 0.04631674 -0.09577691
00000000: 7f88 823d b812 00be 8f53 bcbc 4cc2 2c3d
00000010: 0980 1a3c 2e27 353d ad3b 943c 9970 b13d
00000020: 775f aa3d a4d3 2dbd 9125 203d 61a5 c2bd
00000030: 6c6e a63d 9ada a73d e87f 84bd adf5 133d
00000040: 0564 e0bd 1659 a33c e1ac 5dbd 427c 40bd
00000050: 8886 063c 1759 97bd ae01 853d e860 9cbc
00000060: 9ffe 83bd 3143 a1bd 33b9 88bc 3a5e a5bd
00000070: 71dc cc3c 5726 1dbd 0af6 a83d 9864 a0bd
00000080: ee59 5e3d a9ac fa3d 28b2 f5bc 1b54 993d
00000090: 9f67 483d 1b5a b8bc f9dc 58bc a83c 373d
000000a0: 0518 c7bc d87b dd3c b154 e4bd a396 3a3c
000000b0: 710d 99bd 9d53 71bd 9843 85bc 797d bd3d
000000c0: 75ea a73c 770d 763d 9d58 7a3d 74d4 a2bd
000000d0: bdeb d0bb 8ec2 f93c c0e0 20bd 985f 0a3d
000000e0: e56c 273d 0d0b 8abb e19f cf3d 7d13 42bc
000000f0: 7c34 fbbc 546d 54bd bbd9 26bd e316 a23d
00000100: 2f85 a1bd 9c3c 143d fb14 c5bd 2336 97bd
00000110: b447 2f3d 97ff 56bc 34a4 823d 7d65 97ba
00000120: 9981 123d c88e 803d e80f 3bbb 3f3d d7bb
00000130: 826b 78bd abb8 6fbd 4f43 acbc 7250 213d
00000140: bd02 e83d ca99 a1bd 47bd bdbd a33a cbbd
00000150: 8876 6f3d 1aca 383d f0bc be3d 6852 863d
00000160: f5c8 63bd b701 00be 3ad1 fbbc de06 57bd
00000170: 6cf7 cd3d a200 02bc 5072 e2ba df91 2f3d
00000180: 8776 dabc 73d4 ddbc a646 533d 31be e2bc
00000190: 9ab8 c6bb 6d03 173b 12dc 263d 6313 d23d
000001a0: b10c ad3c 6282 f93c 7f20 bbbc 480c 3c3c
000001b0: c6a8 88bd d887 213d f511 9639 e5dd ad3d
000001c0: 211e 8d3c 7821 f8bd a526 35bd 9818 50ba
000001d0: b50c 38bd 11dd ec3d 0b9e 793d 27b2 71bd
000001e0: 9c05 e6bc 5d42 813d 9190 0a3d 3a1c ec3c
000001f0: 64c8 0b3d b8cc 5ebd df76 533b 823b 87bd
00000200: ed46 963b 0e45 9e3c 3dc2 943d 59b3 9bbd
00000210: d87c 09be 3184 0dbd 0122 be3d 194b be3c
00000220: 6206 f33d 90b8 a4bd 6569 8cbd 1c7e 263d
00000230: 99ce 043d 1d97 bbbc b1ac 12bd d33c 783b
00000240: 4b8a c7bd 68ee 323d 1d47 4dbd 36e1 933d
00000250: 1392 5bbd 4533 2cbd a02d 2cbd be38 6c3c
00000260: 94c3 9f3c ba3c ff3d ec0b 923d 0a60 e13c
00000270: 8eb2 4b3d 533d 873d e981 c63d 40c6 1ebd
00000280: 1b01 04bd 9786 5c3c 9466 35bd 9c97 1cbc
00000290: 12fd a13d a439 6cbc 1db8 6dbd e8e0 a7bd
000002a0: 0609 92bd 1a9b de3c 4d9b 7e3b 3521 cfbd
000002b0: 9eaa ccbd 65c4 73bc 77ab b4bd 38dc 333d
000002c0: 3f08 a13b 5717 4e3d 5254 593c c11c 06bc
000002d0: 494f c0bd c5a1 9b39 7088 b6bd 25d6 03bd
000002e0: 569e 31bd 0bba 38bd 3939 6fbd a983 66bc
000002f0: 2d8e 983d f0af 43bd c254 893d 4d8b 723d
00000300: 43d7 1bbd 1d78 9a3b 241a 7c3b 3cf4 3a3d
00000310: 19fb 873d 77fd 203d 4755 d5bc c872 b93c
00000320: ea99 443d 90df dc3c 8337 dfbd 2f48 ebbd
00000330: a7a8 c23a 5c16 873b dafc 37bd 56dd c1bd
00000340: 3e31 8cbd 6e0c 3cbc 8766 363d f413 81bd
00000350: dda6 e3ba 2ab5 c03a c57b 4dbd fd7a 263d
00000360: 41ce 9d3d d53c 383c 6bc6 1e3d 589b 333d
00000370: f790 bfbc b05a 6a3d 6312 ec3d f8ea 943d
00000380: c67e 8d3d 3ecd 663d 11c5 8a3c 5bc4 80bd
00000390: 9b4e c03c fb40 9cbc 6174 923c 98c1 913c
000003a0: aff4 81bc a53e f1bc ccc3 41bd bbaf b33c
000003b0: aba4 48bb 0cf0 e33d c5d8 a13d e635 92bd
000003c0: d2e9 9abd a0ed f43c ddc5 d93d bf3d ad3d
000003d0: 666f 933d 8450 9ebd 5534 5e3d 67a1 343d
000003e0: 6d84 86bd d52d 1bbd 7f5a 35bd 4b10 8fbd
000003f0: 0e9b cabd 6af4 72bd 9fb6 3d3d af26 c4bd

conv_1.bias f4 [32]
-0.012338561 -0.006031706 0.034409784 0.017529638 -0.021731963 -0.00064895954 0.00040792496 -0.017070362
-0.013237788 -0.014331987 0.061716717 0.04997112 0.0109318625 0.026853075 0.00547069 -0.04312958
0.0238453 -0.0021068626 0.020079521 0.011483481 0.001087736 0.019769514 0.006697524 -0.0008744495
-0.004659259 -0.00425378 0.021131929 0.04417187 -0.019931532 0.027139416 0.014668469 0.022402253
00000000: ad27 4abc 9ea5 c5bb 46f1 0c3d 519a 8f3c
00000010: 3b07 b2bc f01e 2aba c3de d539 25d7 8bbc
00000020: 4fe3 58bc b6d0 6abc abca 7c3d 84ae 4c3d
00000030: 8e1b 333c fbfa db3c 7943 b33b a4a8 30bd
00000040: 3857 c33c 4a13 0abb cf7d a43c 3625 3c3c
00000050: 5d92 8e3a adf3 a13c e776 db3b 503b 65ba
00000060: b3ac 98bb 4b63 8bbb de1c ad3c 90ed 343d
00000070: 7447 a3bc 7b53 de3c 0554 703c ee84 b73c

batch_norm_1.weight f4 [32]
1.1160007 0.960521 1.0050043 0.941882 1.034579 0.86298674 0.9567794 1.0206703
0.93746203 0.9885784 0.9852059 0.90182716 1.014096 1.2099363 0.9722844 0.9490694
0.9061356 0.9182802 0.9408122 1.0228478 1.0394642 0.9129073 1.0626248 0.91125107
0.99479777 0.94661295 0.96679103 0.988157 0.922136 0.98750854 1.0261941 0.944509
00000000: 1cd9 8e3f b4e4 753f fba3 803f 2e1f 713f
00000010: 166d 843f b3ec 5c3f 7fef 743f 53a5 823f
00000020: 83fd 6f3f 7913 7d3f 7436 7c3f 25de 663f
00000030: e6cd 813f 31df 9a3f a1e7 783f 36f6 723f
00000040: 81f8 673f 6914 6b3f 11d9 703f adec 823f
00000050: 2a0d 853f 4bb4 693f 1704 883f c047 693f
00000060: 11ab 7e3f 3a55 723f 9e7f 773f dbf7 7c3f
00000070: 1b11 6c3f 5ccd 7c3f 545a 833f 58cb 713f

batch_norm_1.bias f4 [32]
-0.15018266 -0.05289946 -0.18163255 -0.07015342 -0.12370685 -0.18788701 -0.1618033 -0.03867958
-0.28077218 -0.13125785 0.060881034 -0.112396054 -0.040564876 -0.086783625 -0.039015967 -0.08507433
-0.11594729 -0.067820616 -0.1073519 -0.20469365 -0.07903107 -0.08556293 -0.044382133 -0.20999812
-0.035288725 -0.11351305 -0.110559046 -0.19789298 -0.1125221 -0.002834214 0.016200827 -0.08878372
00000000: 7cc9 19be 1bad 58bd e2fd 39be 99ac 8fbd
00000010: 045a fdbd 7465 40be c4af 25be 7b6e 1ebd
00000020: 5fc1 8fbe 7568 06be 645e 793d e72f e6bd
00000030: 5b27 26bd 9dbb b1bd 35cf 1fbd 733b aebd
00000040: c675 edbd 89e5 8abd 50db dbbd 369b 51be
00000050: 0bdb a1bd 9e3b afbd 0aca 35bd bf09 57be
00000060: e98a 10bd 8879 e8bd c86c e2bd 75a4 4abe
00000070: fd71 e6bd 38be 39bb 99b7 843c 3dd4 b5bd

batch_norm_1.running_mean f4 [32]
-0.013648239 -0.09581048 0.00874344 -0.08975273 -0.049126286 -0.29030448 -0.0015802421 -0.01893489
-0.09263767 -0.036263946 0.020722674 -0.09468814 0.023620928 0.027872495 0.06132328 -0.06811579
0.47559962 0.13263899 0.037782434 0.0075079384 -0.07872253 -0.18556024 0.0345355 -0.07345314
-0.14922512 -0.07928355 -0.095881134 0.04078861 0.1980687 0.035348773 0.0059003397 -0.00012635735
00000000: dd9c 5fbc 4938 c4bd a540 0f3c 48d0 b7bd
00000010: a538 49bd caa2 94be 2020 cfba 581d 9bbc
00000020: d2b8 bdbd 8189 14bd 99c2 a93c dbeb c1bd
00000030: ad80 c13c dc54 e43c 1f2e 7b3d 4b80 8bbd
00000040: cb81 f33e 84d2 073e c1c1 1a3d 2705 f63b
00000050: 4739 a1bd 8103 3ebe 1975 0d3d 9a6e 96bd
00000060: 78ce 18be 6a5f a2bd 545d c4bd f511 273d
00000070: 85d2 4a3e e0c9 103d a357 c13b cb7e 04b9

batch_norm_1.running_var f4 [32]
0.009594471 0.0118934335 0.0049955854 0.03630516 0.034071498 0.05804828 0.04515588 0.06382646
0.008198929 0.012101917 0.006565166 0.015799556 0.024776943 0.011974677 0.023390511 0.01415454
0.09924282 0.035967845 0.019521168 0.01581805 0.012775917 0.02933492 0.038995445 0.010629085
0.032867145 0.014188866 0.020792792 0.011043857 0.040539164 0.054381385 0.0060703643 0.025393872
00000000: 2132 1d3c addc 423c 02b2 a33b b8b4 143d
00000010: 8e8e 0b3d 09c4 6d3d 5ff5 383d 72b7 823d
00000020: cd54 063c 1e47 463c 9b20 d73b 126e 813c
00000030: 04f9 ca3c 7031 443c 759d bf3c 72e8 673c
00000040: d23f cb3d 0553 133d dbea 9f3c db94 813c
00000050: 1452 513c c94f f03c b0b9 1f3d 9d25 2e3c
00000060: b39f 063d 6b78 683c a555 aa3c 4bf1 343c
00000070: 650c 263d 04bf 5e3d e8e9 c63b cf06 d03c

conv_2.weight f4 [32, 32, 5, 5]
-0.042723317 -0.05009585 0.020560762 0.047026347 0.07823244 0.059065036 0.09739675 0.07653908
0.069453314 0.024596952 -0.030039288 0.06344711 0.06541027 0.08885726 0.040016912 -0.018943377
0.043364096 0.10704826 0.090248115 0.098805726 -0.007688228 -0.025356857 0.0301461 0.020706607
-0.0032644197 0.039299607 -0.051904235 0.0054278118 0.0462882 -0.056550264 0.02961344 0.04708134
0.038456798 0.08315139 0.027363388 -0.013366103 0.010637081 0.053637072 0.06213542 0.018367486
0.060560565 0.022691036 0.004043534 0.034713384 0.0419745 0.0051294696 0.040390003 -0.035718877
0.023450386 0.050860625 0.08599006 -0.006427322 0.042572305 0.08002235 0.07455171 0.07600669
0.057433993 0.00023302274 -0.007700468 0.050037473 0.030888364 0.073485956 0.01657182 -0.025653461
-0.009776773 0.09387474 0.10396962 0.03400612 0.0053650164 0.023253856 -0.005466352 0.00019470854
0.07227147 0.02015213 -0.027835999 -0.07158781 0.047928825 -0.032535546 -0.02442618 0.028977705
0.055976715 0.03646237 0.003895008 0.07679672 -0.015273614 -0.065223075 0.034520615 -0.02497807
0.017574992 0.020902345 -0.067541644 -0.025147371 -0.030542765 -0.015603851 0.045633573 -0.060817964
0.033074573 0.047794443 -0.048003934 -0.048974585 0.005122074 -0.015600779 -0.019430723 -0.023697125
-0.032711316 -0.0137795815 -0.057174567 -0.023969907 -0.017184658 -0.069163226 0.004450848 0.0070596547
0.021138465 -0.04144761 0.04059679 0.06704169 -0.0016435019 0.02951063 0.041489057 0.011173029
-0.024621677 -0.000813554 0.06307217 -0.00017198043 0.049912587 0.009710723 -0.06043342 0.016438667
-0.022828052 0.006014141 0.0095003545 0.051233362 -0.011875128 0.045550138 0.042720214 -0.031568013
-0.039480396 0.04116463 0.03976577 0.0072984505 -0.031198071 0.041016195 -0.009281646 -0.0047619413
0.05511898 -0.036125917 -0.029900573 -0.01573933 0.033003528 0.026047383 -0.04670768 -0.012529859
-0.048817802 -0.024060681 -0.03484872 -0.032588236 0.058769803 0.0547939 -0.025055343 -0.018426524
-0.05712662 0.007936439 0.03593785 -0.03220225 -0.0026912075 0.028058026 0.013181586 -0.07399878
0.028984046 -0.029304361 -0.0027297637 0.014258683 -0.055080574 -0.0044293497 -0.043627758 0.041949466
0.00806685 0.046970945 -0.03411128 0.03754374 0.0432792 0.03966121 -0.0302605 0.06641124
-0.056217335 0.05033235 0.02672236 -0.009818852 0.06859292 0.050704014 0.0012745976 0.06964876
0.07938194 0.06402623 0.049808346 0.078731336 0.021102719 0.08420481 0.062024754 0.06858539
0.06093635 -0.04250676 -0.019914364 0.04100613 -0.025899118 0.05442385 -0.05141071 0.04225133
0.028237758 -0.027757002 0.07802997 -0.030748239 0.061415695 0.054163776 0.070696026 -0.015221742
-0.022749305 -0.008988531 0.030026233 0.021711674 -0.05737516 -0.015286471 -0.037640143 -0.017321985
0.015768105 -0.02328501 0.0046830727 0.08053534 -0.027931476 -0.009643245 0.029138036 0.07329862
-0.007189353 -0.008941708 0.04519358 0.012816753 0.07864246 0.06738331 0.017217856 0.085689396
0.009033573 0.0010082825 0.057893142 0.002622814 0.037386984 0.053818356 -0.0084418515 0.06763918
0.08538708 0.07917341 0.011654208 -0.0064634806 -0.051470153 0.07404819 0.013805471 -0.049112733
00000000: a5fe 2ebd 4e31 4dbd 0b6f a83c b39e 403d
00000010: 5438 a03d 2eee 713d f277 c73d 85c0 9c3d
00000020: 8a3d 8e3d 8c7f c93c f414 f6bc 8ff0 813d
00000030: d2f5 853d ccfa b53d c6e8 233d 242f 9bbc
00000040: 8d9e 313d 1e3c db3d 01d4 b83d a85a ca3d
00000050: 88ed fbbb 2fb9 cfbc f4f4 f63c e7a0 a93c
00000060: e0ef 55bb a0f8 203d 8999 54bd c9db b13b
00000070: b298 3d3d 40a1 67bd e397 f23c 5dd8 403d
00000080: e084 1d3d 474b aa3d 2f29 e03c 80fd 5abc
00000090: 2747 2e3c 8cb2 5b3d b681 7e3d 6977 963c
000000a0: 5b0e 783d 8de2 b93c 9f7f 843b 9f2f 0e3d
000000b0: 74ed 2b3d 1c15 a83b fd6f 253d f54d 12bd
000000c0: 061b c03c 3b53 503d 8e1b b03d 499c d2bb
000000d0: 4c60 2e3d c2e2 a33d 91ae 983d 65a9 9b3d
000000e0: e83f 6b3d 9157 7439 3554 fcbb 18f4 4c3d
000000f0: 9809 fd3c ce7f 963d a0c1 873c 3527 d2bc
00000100: c22e 20bc 6641 c03d 06ee d43d 004a 0b3d
00000110: 05cd af3b df7e be3c 161f b3bb ad2a 4c39
00000120: 1103 943d 1416 a53c 5208 e4bc a19c 92bd
00000130: 0451 443d fe43 05bd 6a19 c8bc a762 ed3c
00000140: d747 653d 9159 153d 6443 7f3b 9947 9d3d
00000150: 2e3e 7abc ad93 85bd 7d65 0d3d cf9e ccbc
00000160: 6ef9 8f3c 653b ab3c 4653 8abd dc01 cebc
00000170: d234 fabc 4ba7 7fbc 45ea 3a3d 421c 79bd
00000180: 3479 073d 1bc4 433d c69f 44bd 9399 48bd
00000190: 12d7 a73b 699a 7fbc 2e2d 9fbc 7920 c2bc
000001a0: 4dfc 05bd c1c3 61bc e12f 6abd 8a5c c4bc
000001b0: d7c6 8cbc 73a5 8dbd 6bd8 913b ad54 e73b
000001c0: 932a ad3c f8c4 29bd d248 263d 274d 893d
000001d0: c66a d7ba 47c0 f13c 6ef0 293d 150f 373c
000001e0: 66b3 c9bc af44 55ba fb2b 813d a555 34b9
000001f0: 2471 4c3d b919 1f3c 0989 77bd 62aa 863c
00000200: e501 bbbc 4512 c53b 60a7 1b3c 13da 513d
00000210: e68f 42bc c892 3a3d 64fb 2e3d 764d 01bd
00000220: 32b6 21bd 3e9c 283d 6fe1 223d d727 ef3b
00000230: 1993 ffbc 9900 283d 0c12 18bc 0f0a 9cbb
00000240: 71c4 613d c5f8 13bd 0cf2 f4bc c4ef 80bc
00000250: b52e 073d 5261 d53c 8d50 3fbd 0a4a 4dbc
00000260: 2df5 47bd e81a c5bc 88bd 0ebd 3e7b 05bd
00000270: 9bb8 703d 926f 603d dd40 cdbc 39f3 96bc
00000280: 9afd 69bd d607 023c 9133 133d 82e6 03bd
00000290: f85e 30bb f2d9 e53c 94f7 573c ac8c 97bd
000002a0: f36f ed3c b30f f0bc d6e5 32bb 409d 693c
000002b0: 2b9c 61bd 1424 91bb 05b3 32bd 34d3 2b3d
000002c0: d22a 043c 9b64 403d 45b8 0bbd 77c7 193d
000002d0: 8845 313d cb73 223d dee4 f7bc 9e02 883d
000002e0: 2644 66bd 4b29 4e3d dae8 da3c 40df 20bc
000002f0: 727a 8c3d 03af 4f3d 6610 a73a 02a4 8e3d
00000300: 0093 a23d 2f20 833d d603 4c3d e53d a13d
00000310: 9cdf ac3c 9273 ac3d ab0d 7e3d 7f76 8c3d
00000320: 6598 793d 921b 2ebd 7323 a3bc 0bf6 273d
00000330: 632a d4bc 8beb 5e3d 0994 52bd bb0f 2d3d
00000340: df52 e73c a762 e3bc 2dce 9f3d bbe3 fbbc
00000350: 068f 7b3d d6da 5d3d 14c9 903d 9d64 79bc
00000360: c05c babc a244 13bc 93f9 f53c aedc b13c
00000370: 3702 6bbd 1b74 7abc 8d2c 1abd d6e6 8dbc
00000380: 1d2c 813c 35c0 bebc 7674 993b b6ef a43d
00000390: 8dd0 e4bc b3fe 1dbc e4b2 ee3c 961d 963d
000003a0: aa94 ebbb 3e80 12bc e71c 393d 5cfd 513c
000003b0: 4c0f a13d 4300 8a3d 760c 8d3c ec7d af3d
000003c0: 8d01 143c 5928 843a 5c21 6d3d 84e3 2b3b
000003d0: 1823 193d a370 5c3d b14f 0abc 6986 8a3d
000003e0: 6cdf ae3d ab25 a23d 4bf1 3e3c 9bcb d3bb
000003f0: 5ed2 52bd 94a6 973d 5830 623c 6f2a 49bd

conv_2.bias f4 [32]
0.014240261 -0.004411316 -0.03487066 -0.0076391683 0.007067477 0.012547946 -0.006642902 0.0113619575
-0.011761826 -0.0002837429 0.015236594 0.009646072 -0.002355097 0.0018513137 -0.011827054 0.005090806
0.0047987923 -0.017664 -0.0027729264 -0.0039740046 -0.026939897 0.0038939465 0.004901705 -0.032211617
-0.01191023 0.01500877 -0.007029059 0.003262244 0.0042688497 -0.0006033018 -0.011181629 0.0047816173
00000000: fc4f 693c cd8c 90bb 8ad4 0ebd fd51 fabb
00000010: 4b96 e73b e695 4d3c b3ac d9bb 8127 3a3c
00000020: adb4 40bc 54c3 94b9 e8a2 793c 8f0a 1e3c
00000030: f957 1abb c8a7 f23a 43c6 41bc c7d0 a63b
00000040: 303f 9d3b 18b4 90bc fcb9 35bb 5e38 82bb
00000050: 0fb1 dcbc 9531 7f3b 7b9e a03b 54f0 03bd
00000060: 2023 43bc 58e7 753c 0554 e6bb 5fcb 553b
00000070: b5e1 8b3b e626 1eba 2733 37bc 1daf 9c3b

batch_norm_2.weight f4 [32]
0.767359 0.8765942 0.8880289 0.8865016 0.8141526 0.81423324 0.81289995 0.8362133
0.7653327 0.768918 0.8657837 0.86170334 0.8020638 0.83279854 0.8063819 0.79464877
0.8040512 0.802207 0.79190195 0.87952137 0.8378562 0.78046054 0.7642229 0.8432309
0.8394732 0.8107211 0.78612167 0.82347107 0.8012223 0.7806618 0.85176533 0.86177677
00000000: a471 443f 7a68 603f dd55 633f c5f1 623f
00000010: 4e6c 503f 9771 503f 361a 503f 1312 563f
00000020: d8ec 433f cfd7 443f 00a4 5d3f 9798 5c3f
00000030: 0e54 4d3f 4932 553f 0b6f 4e3f 1a6e 4b3f
00000040: 4dd6 4d3f 705d 4d3f 16ba 4a3f 5028 613f
00000050: be7d 563f 43cc 473f 1da4 433f fbdd 573f
00000060: b7e7 563f 6b8b 4f3f 453f 493f 00cf 523f
00000070: e81c 4d3f 74d9 473f 4b0d 5a3f 679d 5c3f

batch_norm_2.bias f4 [32]
-0.20228343 -0.1596094 -0.08697214 -0.1172402 -0.19991884 -0.18372759 -0.2108674 -0.15513349
-0.22778408 -0.1987147 -0.14874904 -0.14489119 -0.17844307 -0.15793628 -0.21658233 -0.19159932
-0.2273187 -0.18785092 -0.24378012 -0.16002841 -0.20377234 -0.21860649 -0.23135431 -0.19952027
-0.19741853 -0.19440563 -0.21048929 -0.18646665 -0.21250555 -0.22330533 -0.1251616 -0.1394828
00000000: 6323 4fbe a670 23be 731e b2bd a11b f0bd
00000010: 86b7 4cbe 1623 3cbe a0ed 57be 50db 1ebe
00000020: 3b40 69be de7b 4bbe ab51 18be 5b5e 14be
00000030: c8b9 36be 0cba 21be c2c7 5dbe 9d32 44be
00000040: 3cc6 68be fe5b 40be 7fa1 79be 7dde 23be
00000050: b2a9 50be 61da 5fbe 25e8 6cbe 0b4f 4cbe
00000060: 1528 4abe 4512 47be 818a 57be 1df1 3ebe
00000070: 0e9b 59be 27aa 64be 5d2a 00be 94d4 0ebe

batch_norm_2.running_mean f4 [32]
0.43733376 -4.4099927 -2.1000273 -1.6903114 -1.48501 -0.62221646 -0.8817574 -1.7761549
-0.4044998 -1.1661816 -1.2228634 -2.0394568 -2.6938837 -1.5050465 -1.3140286 -1.5394087
-2.4751983 -1.9328464 -2.4892526 -1.4177754 -1.0219066 -2.2026582 -1.1726407 -1.1722877
-3.0250933 -0.55086917 -1.0836773 -2.2103593 -1.1759826 -0.6101261 -1.440796 -1.7130175
00000000: 36ea df3e a91e 8dc0 d966 06c0 205c d8bf
00000010: cf14 bebf 9449 1fbf daba 61bf 0b59 e3bf
00000020: 991a cfbe 7045 95bf ca86 9cbf 7686 02c0
00000030: 9768 2cc0 5da5 c0bf 1732 a8bf 580b c5bf
00000040: a669 1ec0 8367 f7bf ea4f 1fc0 aa79 b5bf
00000050: d6cd 82bf 5af8 0cc0 1719 96bf 860d 96bf
00000060: 219b 41c0 c305 0dbf f0b5 8abf 8776 0dc0
00000070: 9986 96bf 3931 1cbf 016c b8bf 2844 dbbf

batch_norm_2.running_var f4 [32]
2.489229 8.067555 4.229536 4.418251 3.4524858 3.6784103 2.9461038 6.4165645
2.8287306 3.7104106 2.3951855 4.8496284 6.0123625 5.955871 3.8564441 3.583408
5.8352394 4.4081635 6.847285 5.229284 3.6384776 5.2404475 6.5361795 1.5744715
4.8434324 5.110173 6.0642385 4.2267947 4.1597033 4.6164193 4.07667 3.0992823
00000000: 874f 1f40 b514 0141 5c58 8740 5062 8d40
00000010: 87f5 5c40 136b 6b40 f78c 3c40 7f54 cd40
00000020: ec09 3540 5e77 6d40 b84a 1940 2830 9b40
00000030: 4665 c040 7f96 be40 fbcf 7640 8f56 6540
00000040: 48ba ba40 ad0f 8d40 f51c db40 4b56 a740
00000050: d1dc 6840 bfb1 a740 6228 d140 4888 c93f
00000060: 66fd 9a40 8a86 a340 3e0e c240 e741 8740
00000070: 4a1c 8540 b5b9 9340 1574 8240 a45a 4640

output.weight f4 [10, 6272]
-0.0035207146 -0.020664815 -0.003494638 0.04787677 -0.0009443625 0.048682105 0.025705703 0.02194911
-0.02240489 0.011811874 -0.017071806 0.00055543205 -0.01803133 0.008496369 0.028520696 0.025689002
0.0006866909 0.019361282 0.009387321 0.03846501 -0.0070048952 -0.0084198285 -0.0036060857 0.034857437
0.009738221 -0.03572608 -0.008865651 -0.008110582 0.035212804 0.043356627 0.027489625 0.014242436
0.011295246 0.025378594 0.0049889083 -0.008183381 0.044052895 0.0042795497 0.0047127693 0.018517064
-0.032443903 -0.022436392 -0.003833736 0.011822062 0.010706377 0.03138358 0.0077651907 0.0035061925
-0.004376714 0.016499707 0.0029631502 0.011887016 0.0027950064 -0.01498058 0.0026946354 0.004661956
0.050369725 0.05098467 0.049270913 0.057782035 0.043134436 0.026575897 0.013816886 -0.011059645
0.013225097 0.0019524212 0.019079803 0.008161074 0.033104338 -0.00031434372 0.034951005 0.043201223
0.016919589 0.059519336 0.02162179 0.03330152 -0.005498984 0.0032382247 -0.018446056 0.0009406933
0.015983159 0.03022761 0.026733067 -0.025700226 -0.0050282814 0.029302325 0.033940196 0.014450582
0.03891672 0.04082724 0.0089477515 0.03445524 0.0019232801 -0.015342649 0.01299994 0.011582912
-0.0038944006 -0.019567743 0.011213306 0.055717282 0.041663695 0.010637248 -0.0034399985 0.0072659124
0.0025805214 0.030705957 0.021764046 -0.00019302935 0.026198255 0.061548162 0.04100363 -0.0022809105
0.028479425 0.026277697 0.028120795 0.003391837 -0.008014468 0.027490208 0.030292455 0.02740566
0.010097671 0.05352159 0.013064273 0.030968044 0.040231425 0.016097324 0.0015511353 0.0070404653
0.010139929 0.04460619 0.043081455 0.020748017 0.009082155 0.010673716 0.008477949 0.039454732
0.022916827 0.05937618 0.039232764 0.012040356 0.015429442 -0.010279915 0.025914697 -0.0010403428
0.020715002 0.008440571 0.0059073414 -0.010422276 0.019670779 0.040450323 0.026660573 0.023638185
0.03224544 0.025146605 0.024232268 -0.025795178 -0.011449579 -0.010373837 -0.012062899 0.023068175
0.0046678013 0.004174575 -0.0049125357 0.043721627 0.03654218 0.0008691608 0.030424805 0.03201661
-0.0005835339 -0.03370806 -0.023186816 0.0047849715 0.018469883 -0.010132141 -0.010211713 0.03633459
0.039241664 0.0021727053 0.042754784 0.034708478 -0.021704746 0.00726195 -0.0039045252 -0.01206816
-0.011472475 0.006442738 -0.03775036 -0.022690853 0.013127105 0.0147217205 0.015644468 0.006771788
-0.0135668125 -0.016736709 0.019338232 -0.0052450784 0.023235371 0.019726915 0.018364742 0.03602547
0.04196064 0.03732074 0.023374673 0.046480313 0.047661513 0.02538749 -0.00092054607 0.0026129845
0.031307742 0.055956654 0.03797585 0.035250403 0.003810015 0.02813777 -0.00067233044 -0.0037362315
0.02295873 -0.0037191277 0.053843763 0.05589976 0.01757098 0.033059407 0.020212185 0.03497804
0.046959788 0.048383214 0.021765767 0.044545464 0.04014574 0.050433736 0.0071689407 0.0142619945
0.039667897 0.019813174 0.050982263 0.049805272 0.02493672 0.0759934 -0.0069685257 0.00035577043
-0.011135691 -0.0032935047 0.012530368 0.012856534 0.012732928 0.034765787 -0.002851402 0.04095953
0.03371825 0.004543196 0.03957886 0.014127002 -0.012716032 0.02575223 0.016472911 -0.0074850745
00000000: cabb 66bb 4249 a9bc 4c06 65bb 6f1a 443d
00000010: 188f 77ba e366 473d c494 d23c 9fce b33c
00000020: 768a b7bc 9786 413c 2cda 8bbc 6a9a 113a
00000030: 71b6 93bc 5b34 0b3c 3ca4 e93c be71 d23c
00000040: 0c03 343a 8d9b 9e3c 47cd 193c 7c8d 1d3d
00000050: 5289 e5bb 52f3 09bc 1454 6cbb acc6 0e3d
00000060: 0f8d 1f3c 8355 12bd 3c41 11bc 3fe2 04bc
00000070: 4d3b 103d b896 313d ec31 e13c 1b59 693c
00000080: b20f 393c c5e6 cf3c ff79 a33b 9613 06bc
00000090: cf70 343d 773b 8c3b 936d 9a3b 19b1 973c
000000a0: e6e3 04bd 86cc b7bc 6b3f 7bbb 52b1 413c
000000b0: cd69 2f3c 128c 003d 2473 fe3b 26c8 653b
000000c0: 8a6a 8fbb 652a 873c 6931 423b c2c1 423c
000000d0: 6d2c 373b 1b71 75bc 7b98 303b 52c3 983b
000000e0: 7c50 4e3d 4dd5 503d 4cd0 493d dbac 6c3d
000000f0: bcad 303d b2b5 d93c 3860 623c 8333 35bc
00000100: 14ae 583c 62e8 ff3a 3f4d 9c3c 06b6 053c
00000110: 6a98 073d 80ce a4b9 c928 0f3d c4f3 303d
00000120: f39a 8a3c 8cca 733d 2e20 b13c 2d67 083d
00000130: d230 b4bb 6538 543b 2f1c 97bc dc98 763a
00000140: 1def 823c e59f f73c 4eff da3c 4889 d2bc
00000150: 48c4 a4bb 6e0b f03c e004 0b3d 22c2 6c3c
00000160: 2367 1f3d 773a 273d 9799 123c f020 0d3d
00000170: 9216 fc3a bc5f 7bbc b3fd 543c 41c6 3d3c
00000180: 3339 7fbb 884c a0bc 04b8 373c ce37 643d
00000190: 8da7 2a3d da47 2e3c 9971 61bb e416 ee3b
000001a0: f71d 293b 0f8b fb3c 834a b23c ec67 4ab9
000001b0: b99d d63c ed19 7c3d 6cf3 273d 547b 15bb
000001c0: af4d e93c 5344 d73c 955d e63c 9549 5e3b
000001d0: 1d4f 03bc 2533 e13c e227 f83c d681 e03c
000001e0: b470 253c 7439 5b3d 880b 563c b2b0 fd3c
000001f0: b5c9 243d 89de 833c 774f cb3a b4b3 e63b
00000200: f221 263c fbb4 363d 2e76 303d bff7 a93c
00000210: 52cd 143c cfe0 2e3c 18e7 0a3c 499b 213d
00000220: 12bc bb3c 7034 733d 89b2 203d ea44 453c
00000230: c5cb 7c3c 176d 28bc 0f4b d43c 1d5c 88ba
00000240: 82b2 a93c 524a 0a3c 5f92 c13b 32c2 2abc
00000250: 9d24 a13c 3daf 253d 4667 da3c dea4 c13c
00000260: cb13 043d 4100 ce3c c082 c63c 6950 d3bc
00000270: 0497 3bbc 07f7 29bc 77a3 45bc 78f9 bc3c
00000280: 5bf4 983b e0ca 883b 56f9 a0bb 7315 333d
00000290: 41ad 153d 65d8 633a 713d f93c d923 033d
000002a0: 4cf8 18ba 7611 0abd 47f2 bdbc 40cb 9c3b
000002b0: 274e 973c 4801 26bc 074f 27bc 94d3 143d
000002c0: debb 203d f263 0e3b a41f 2f3d 7a2a 0e3d
000002d0: 27ce b1bc a7f5 ed3b 10e3 7fbb 88b9 45bc
000002e0: 0cf7 3bbc 9b1d d33b 1fa0 1abd 2be2 b9bc
000002f0: 1213 573c 5f33 713c d428 803c e0e5 dd3b
00000300: 5647 5ebc 6c1b 89bc 366b 9e3c e8de abbb
00000310: 1b58 be3c 579a a13c a871 963c 718f 133d
00000320: ecde 2b3d a2dd 183d 3e7c bf3c 2462 3e3d
00000330: b838 433d 6df9 cf3c cd50 71ba 9b3e 2b3b
00000340: 8c3c 003d ce32 653d 918c 1b3d ba62 103d
00000350: 72b1 793b 2e81 e63c 553f 30ba 90db 74bb
00000360: f213 bc3c 9cbc 73bb 478b 5c3d 26f7 643d
00000370: 04f1 8f3c 4d69 073d 0694 a53c 2245 0f3d
00000380: e858 403d 7a2d 463d 1f4e b23c 4e75 363d
00000390: dc6f 243d 9b93 4e3d 6fe9 ea3b 24ab 693c
000003a0: ce7a 223d 3d4f a23c c7d2 503d 9d00 4c3d
000003b0: 1848 cc3c 6da2 9b3d 3b58 e4bb b386 ba39
000003c0: 7972 36bc d7d7 57bb 2c4c 4d3c 36a4 523c
000003d0: c59d 503c 9266 0e3d 96de 3abb 2ec5 273d
000003e0: 261c 0a3d 17df 943b 711d 223d f174 673c
000003f0: e756 50bc 57f6 d23c 33f2 863c 5b45 f5bb

output.bias f4 [10]
0.00082547957 0.008180182 0.011057578 0.011378579 0.015964542 0.013965649 0.011965396 0.008144105
0.020869305 0.0037815112
00000000: ff64 583a 2c06 063c d82a 353c 386d 3a3c
00000010: 12c8 823c 2dd0 643c 820a 443c da6e 053c
00000020: 1bf6 aa3c 3bd3 773b
