runs/0002_CNN_1_bsz-128_lr-0.001_ep-30-desc-.pth (torch, 370598 bytes, 14 tensors)

conv_1.weight f4 [32, 3, 5, 5]
000000 22 e3 ee 3d d0 f4 ca 3c 4a d0 ed bd 81 65 98 3c
       0.11664416 0.024774939 -0.116119936 0.018603088
000010 71 3a 03 3d 71 ef a5 bd 9c 38 64 3e 3f f3 3a 3d
       0.032038156 -0.081023104 0.2228722 0.045642134
000020 2e 50 57 be 58 c3 08 3c bf c0 19 be 08 c6 d4 3d
       -0.2102668 0.008347355 -0.15014933 0.10389334
000030 4d 86 66 3e 35 8f bb 3d aa 4e 12 be ff bd 21 be
       0.22512169 0.09158174 -0.1428782 -0.15795134
000040 f2 d1 6a be 8d 1e 38 3d b3 56 5a 3e 05 0c b8 3d
       -0.2293165 0.04495101 0.21322136 0.089866675
000050 b1 07 4f 3d a5 96 14 be 22 28 26 be 01 7b 3b 3c
       0.050544444 -0.14510591 -0.16226247 0.011442901
000060 73 92 9d 3d b5 3c be 3d 50 36 94 3d a0 67 89 bd
       0.076939486 0.09288923 0.07236922 -0.06709218
000070 72 b4 b1 bb e0 a8 8b 3d 7f 01 cd bc 82 e8 db 3d
       -0.005423122 0.0681932 -0.025025127 0.10737707
000080 6f 0c 83 3d 4c 78 60 be c5 36 e8 bd 79 e2 80 bd
       0.06398856 -0.2192089 -0.113385715 -0.06293196
000090 8e 3f 80 3d 9e 60 89 3e b5 98 82 bd ad b0 b4 bd
       0.06262122 0.26831526 -0.06376783 -0.08822761
0000a0 4c 6e 8f bd 83 71 22 be d3 92 ae 3d 25 41 53 3e
       -0.07003459 -0.15863614 0.08524098 0.2063032
0000b0 7e 8b 8c bd f5 b0 89 3d 7f e6 ad bd 5f d7 1b be
       -0.068625435 0.06723205 -0.08491229 -0.15218876
0000c0 9d 63 26 3d 95 66 09 3d 32 63 a7 bc 92 58 f1 bc
       0.040622342 0.033545095 -0.020433042 -0.029461179
0000d0 8c 46 5d be 77 c1 07 be 75 04 93 3d 1f 16 8a 3d
       -0.21608943 -0.13257395 0.071785845 0.067425005
0000e0 85 d5 3e 3e ac be 78 bc 6b 58 fb bd 2a ca a7 3b
       0.18636139 -0.0151821785 -0.12272724 0.0051205354
0000f0 41 9e 06 bd ce 9a aa 3d 34 e5 42 3e 92 77 b2 3b
       -0.032865766 0.08330308 0.19032747 0.005446383
000100 67 91 46 be eb 97 05 3d 77 cc a9 bd dd 47 1d 3d
       -0.19391404 0.032615583 -0.08290952 0.038398612
000110 cc c3 92 3d 94 e7 22 3d 1f 8e ca 3d 9d 6f 89 bc
       0.071662515 0.03977163 0.09890389 -0.016776854
000120 1a 65 12 bd 83 f4 34 3d 14 1b 89 3d e2 94 5f 3e
       -0.03574095 0.044178497 0.06694618 0.21834138
000130 7a 0c b2 3d 78 2d 23 3d b5 f0 9d bd af d6 93 bb
       0.08693786 0.039838284 -0.07711927 -0.0045116763
000140 79 48 04 3e e8 68 db 3c e8 49 5d 3d da 7d 1c be
       0.12918271 0.026783422 0.05402556 -0.15282384
000150 62 f7 34 bd 20 54 3c 3e 97 31 77 3d ce 51 d2 bc
       -0.044181235 0.18391466 0.060350027 -0.025673773
000160 a4 60 ed bd ba 79 4f 3b d6 59 ff 3d 15 5e 4b bd
       -0.11590698 0.0031658248 0.12468307 -0.04965027
000170 99 b5 06 be d9 86 40 be b5 b4 58 3c 59 ac 14 3e
       -0.13155212 -0.1880144 0.013226678 0.1451887
000180 1f ea 8d bc 00 4b 40 bb 8e 17 fc 3c 14 4c ba 3d
       -0.017323552 -0.0029341578 0.03077295 0.09096542
000190 2d ba a1 3d d9 23 0f be 77 cf 4f bd 4d 24 03 bb
       0.07896838 -0.13978519 -0.050734963 -0.002001065
0001a0 8e 60 a7 3d c3 fc 12 be 2f 97 51 be 5f 6e 18 bd
       0.08172713 -0.14354233 -0.20467828 -0.037214633
0001b0 84 ac dd 3b 9c e6 8d bd 87 75 16 be 57 86 9d bd
       0.00676495 -0.06928751 -0.1469327 -0.07691639
0001c0 71 71 87 3d 9c 7d a8 3d 71 f0 a9 bd d7 76 0c be
       0.06613434 0.08227083 -0.08297814 -0.13717209
0001d0 3a 3e 17 be af 83 b7 bd 9e 6a 00 be e0 55 ad bc
       -0.14769831 -0.089606635 -0.12540671 -0.021159112
0001e0 85 7a cd bc 7a a3 09 be 56 20 48 bd 87 f1 02 3d
       -0.025082836 -0.13441268 -0.048858963 0.03196862
0001f0 ed 49 f9 bc 2b 5b ba bd 3a 58 20 be 63 25 a8 3d
       -0.030430758 -0.0909942 -0.15658656 0.08210256
000200 90 02 83 3d 4b 4c c6 bd bf 64 38 be 8c 99 52 bb
       0.06396973 -0.096825205 -0.18007182 -0.0032134978
000210 e9 fd 5a 3e 49 3d db 3d 52 e3 4c bd 9f a1 6a bb
       0.21385922 0.107050486 -0.050021477 -0.00358019
000220 fc 37 0c 3e d5 bd b3 3e e6 0c 89 3e d1 a5 e9 bc
       0.13693231 0.35105768 0.26767653 -0.02852145
000230 60 02 38 bc a9 64 c3 3d 43 42 4c 3e e8 64 9a 3d
       -0.011231035 0.09540684 0.19947152 0.075387776
000240 5d 7e a7 3c 36 f9 bb 3c 72 27 d7 3b 3c 32 0f 3e
       0.020445997 0.022945981 0.0065659815 0.13984007
000250 ee a1 13 3d 93 5a 51 bd be 3d 84 3b cd a9 12 3d
       0.0360431 -0.05111177 0.0040356806 0.035806466
000260 08 61 ce bd fe 5d ca bc 93 f4 ee bd 7e e8 da bd
       -0.10077101 -0.024703022 -0.116677426 -0.106888756
000270 bf bf fa 3c 68 0c b1 bd 02 a7 78 bd ba e6 cc bd
       0.03060901 -0.086449444 -0.060706146 -0.10004945
000280 1d ee 02 be ee cc 82 bd 89 17 43 bd a1 7d df bd
       -0.12786146 -0.063867435 -0.047629867 -0.10912634
000290 60 6f b7 bd 55 7b ca bc 1c d6 1e 3d f4 23 d9 bd
       -0.0895679 -0.024717012 0.03877841 -0.10602561
0002a0 bc 5d d3 bc 1d 4f fd bd da ca c2 3b 52 71 b3 bc
       -0.025801532 -0.12368605 0.005944592 -0.021904621
0002b0 77 43 e2 bc 56 f1 09 3d 6f 79 dc 3c 04 8f 0c be
       -0.02762006 0.03367742 0.026913373 -0.13726431
0002c0 0e 88 56 3d d9 de d3 bd 13 30 fe bc 11 7a e4 bd
       0.052375846 -0.10345239 -0.031028783 -0.11156095
0002d0 b8 9c 53 bd 71 15 7f 3c 18 89 1a bd 31 21 0e bc
       -0.05166313 0.015569077 -0.0377284 -0.008674906
0002e0 7f 08 69 bc bc ad e3 bd 65 91 f3 3a 6b a6 a9 3c
       -0.014223217 -0.111171216 0.001858276 0.020709237
0002f0 fb bc ce 3c f3 b1 04 be 76 55 8b 3b c6 e2 60 3d
       0.025236597 -0.12958507 0.004252131 0.054903768
000300 44 20 7c 3d 04 90 b1 bd 8d a4 1e bd 2d 53 db bd
       0.06155421 -0.08670047 -0.038731147 -0.10709224
000310 5e e7 09 3d 52 05 46 bd 92 f5 b4 bc c1 2e 76 bd
       0.033667915 -0.048344918 -0.022089753 -0.06010318
000320 b1 d6 15 bd c8 8a 10 3e 9d 28 11 3e 7e e7 49 3c
       -0.0365817 0.14115441 0.14175649 0.012323258
000330 da 5b 51 bd 77 43 28 3d 53 5a 48 3e bb 35 93 3e
       -0.051112987 0.041079964 0.19565706 0.2875193
000340 f8 14 64 3e cf f6 19 3d e1 82 e9 3d ae 71 94 3e
       0.22273624 0.03758889 0.11401916 0.2899298
000350 ce 3f 4a 3e a7 66 67 3e 90 fa 40 3c a0 f1 c5 bd
       0.19750902 0.22597753 0.011778489 -0.09665227
000360 9e 57 3f 3e f1 aa 24 3e 32 65 77 bd f4 7a 1d be
       0.18685767 0.16080834 -0.06039924 -0.15378934
000370 45 17 1c be be 46 8b bd 93 71 d6 3c b8 bf 0a be
       -0.15243252 -0.068006024 0.026177203 -0.13549697
000380 28 9d 19 be ac 93 a7 bb a4 3e 6b 3e 61 92 2b 3e
       -0.15001357 -0.0051140394 0.22973114 0.16755058
000390 7e 93 8d 3e 18 ba aa 3d 22 6a 2a be 11 06 22 3a
       0.2765159 0.08336276 -0.16642049 0.00061807135
0003a0 b9 b1 9e 3b 01 14 1b be 66 d7 bd bd ae ea 1c bd
       0.0048429635 -0.1514435 -0.092695996 -0.038309745
0003b0 19 06 2c be 54 f1 fe bd c2 0c 4c be f3 18 3a be
       -0.16799201 -0.124483734 -0.19926742 -0.1817358
0003c0 33 b2 a1 bd 23 51 83 bd 72 9b b1 bd e7 d5 59 bd
       -0.07895317 -0.0641196 -0.08672227 -0.05318251
0003d0 f0 73 7c bd 58 38 f5 3c 7a 52 48 bb 3b 0a 6d 3d
       -0.061634004 0.029934093 -0.0030566738 0.057871085
0003e0 09 24 8c 3d 5f ba ba 3d 9c 30 04 3d 7d db 9c 3d
       0.06842811 0.09117579 0.03227292 0.076590516
0003f0 e6 cb 4f 3e a9 86 2a 3e d8 ff a6 3a 9f 6e 39 be
       0.20292625 0.16652931 0.0012741042 -0.18108605

conv_1.bias f4 [32]
000000 3d 8d e3 3c 17 59 89 bd 75 b6 9d 3c 19 e9 49 bd
       0.027777309 -0.06706446 0.019252041 -0.049294565
000010 90 1d d9 3d 49 9c f1 3b 0f 84 fa bb c4 88 bb bc
       0.10601342 0.007373367 -0.007645137 -0.022892363
000020 21 39 80 3d 9f 13 20 3d 9c 3d 07 3e 37 2e b0 bd
       0.062608965 0.039081212 0.13207096 -0.08602565
000030 56 5d f7 bc a9 66 c4 3d c5 d1 a2 3b a2 6f 2a bc
       -0.030195873 0.09589893 0.004968854 -0.010402592
000040 12 d4 ec bb 2c 06 39 3d 1d 0c 4b 3d 1b 21 1e bd
       -0.007227429 0.0451719 0.0495721 -0.03860579
000050 be 6f c5 3d 97 22 8e 3d df ac e9 bc 98 09 49 3d
       0.09640454 0.06940191 -0.028524814 0.049081415
000060 c9 c0 f1 bb 9a 35 26 3b aa ff 2c bd 4c 6f d0 bc
       -0.007377718 0.002536154 -0.042236008 -0.025443695
000070 54 73 84 3d 8c 08 57 3d 44 56 e4 bd 2b e8 72 3c
       0.064673096 0.052498385 -0.11149266 0.014825861

batch_norm_1.weight f4 [32]
000000 df bc 95 3f 49 24 53 3f 70 bc 34 3f 5d 2c 65 3f
       1.1698264 0.8247724 0.7060003 0.8952082
000010 53 db 54 3f 9f 05 24 3f 2f 34 55 3f 6a b9 6a 3f
       0.8314716 0.6407108 0.8328275 0.9168917
000020 91 e0 48 3f d1 84 79 3f 46 88 76 3f 07 9d 66 3f
       0.7846766 0.97468287 0.96301687 0.90083355
000030 93 f3 a7 3f 7d 2a a2 3f fa e0 55 3f 3e 16 41 3f
       1.3121208 1.2669216 0.8354641 0.75424564
000040 8e 5c 9f 3f 92 97 09 3f 34 9e a2 3f 36 ad 51 3f
       1.245012 0.537469 1.270453 0.81904924
000050 b5 59 48 3f be 09 28 3f 24 7f 67 3f 3b 63 94 3f
       0.7826188 0.65639865 0.90428376 1.1592783
000060 c1 7a 99 3f 9a 22 91 3f 4f 02 69 3f 2a 18 6c 3f
       1.1990587 1.1338685 0.9101915 0.9222437
000070 96 93 3f 3f 89 96 78 3f 08 26 82 3f 76 c5 11 3f
       0.74834573 0.971047 1.0167856 0.56941926

batch_norm_1.bias f4 [32]
000000 f9 9e ad be 6b 71 be 3c d2 e7 b6 be e9 04 b4 be
       -0.3391035 0.023247441 -0.3572374 -0.35159996
000010 b5 e9 f5 be 12 0b d2 be db c0 04 3d 91 02 e4 be
       -0.48029867 -0.4102407 0.032410484 -0.44533208
000020 b2 b4 4b be bd 5d b6 be 8f 89 96 bd f6 90 e5 be
       -0.19893149 -0.35618392 -0.07350456 -0.4483716
000030 22 d1 b1 bd cc 24 db bc 4c f3 b9 be 6e 80 cc be
       -0.08682467 -0.026750945 -0.36318433 -0.39941734
000040 ae a5 1a be e0 9d 40 bc 86 a3 49 3d 8d 1e 64 be
       -0.15102264 -0.01175639 0.049228214 -0.22277279
000050 41 17 17 bf 9a 2a c4 be 7c 4e 7d be 36 0d ea be
       -0.5901986 -0.38313752 -0.2473697 -0.45713204
000060 7b fe c1 be af bb 6b be 4a 80 cb 3e 9b 3f 1f be
       -0.37889466 -0.23020814 0.39746314 -0.15551607
000070 d4 8b 5f be 5d d1 00 be ac 3a fc bc d6 f7 02 bf
       -0.21830684 -0.12579866 -0.030789696 -0.5115942

batch_norm_1.running_mean f4 [32]
000000 9c 61 c1 3c 4a e6 c5 bc 25 6c 92 be f2 1a 06 be
       0.023606114 -0.024157662 -0.28598133 -0.13096216
000010 0d 5d 2f 3e 22 7a 11 3f 4b 32 ad bd a9 75 49 be
       0.1712534 0.56826985 -0.08456858 -0.1967379
000020 af 08 43 3e d6 29 a9 3c 43 5c e2 3d 82 60 fd bd
       0.19046281 0.020649832 0.11052754 -0.12371923
000030 2a 0b 33 bd 98 d9 a7 3d ae d7 c0 be 86 8e 40 bf
       -0.04371182 0.081957996 -0.3766455 -0.75217474
000040 76 f1 5f bd 36 0e e8 3c 21 79 a2 3d 8b b8 05 be
       -0.054673634 0.028327089 0.0793326 -0.13058679
000050 4b 0d d1 be 58 97 19 be a4 af 9a bc 97 03 ac bb
       -0.40830454 -0.1499914 -0.01888258 -0.0052494514
000060 35 bb ca bc 93 e8 6c bd 06 5a 6e 3c 21 f5 6a be
       -0.02474747 -0.057838988 0.01454783 -0.22945072
000070 eb 7a 61 3d 9c 45 8a 3d 6f 46 fb bd 2c 0d fd 3d
       0.055048864 0.06751558 -0.122692935 0.12356028

batch_norm_1.running_var f4 [32]
000000 39 96 af 3c 21 a5 cf 3c 63 16 c9 3d 98 34 a3 3d
       0.021433936 0.025347294 0.09818723 0.07969016
000010 e9 54 c7 3d 8c a5 d7 3e 87 8c aa 3e 77 5c 7b 3d
       0.09732992 0.4211849 0.3331034 0.06136748
000020 59 4b 2c 3d d0 1e 35 3c aa da 1e 3e c8 41 d1 3d
       0.042064045 0.01105471 0.15513101 0.10217625
000030 ff f1 fb 3b f5 b8 52 3d c0 38 2b 3e a0 8f e2 3e
       0.0076887603 0.05144592 0.16720867 0.44250202
000040 af 76 48 3d 9e 85 db 3d 8c fc bf 3d fa 0f d3 3c
       0.04894131 0.10718845 0.09374341 0.025764454
000050 df f3 97 3e 74 cb 4a 3d f7 d2 6b 3e 0e 0e 55 3d
       0.29678246 0.049510434 0.23029695 0.052015357
000060 bb 27 08 3d 3f 8c e9 3c 8d e9 0e 3d f5 ad b3 3e
       0.033241015 0.028509257 0.0348907 0.35093656
000070 99 b7 62 3e b0 d9 25 3d 1e ed 50 3e 17 20 ac 3d
       0.2214035 0.040490806 0.20402953 0.08404558

conv_2.weight f4 [32, 32, 5, 5]
000000 13 a2 74 3d 2b 37 1d bb 64 c3 80 bd 8a 5d e6 3d
       0.05972488 -0.0023989181 -0.06287268 0.1124831
000010 b0 69 1e 3e aa 41 e2 3d a4 fc 34 3e a9 1b f2 3d
       0.15470004 0.11047681 0.176745 0.11821682
000020 5f 71 0d 3e 47 47 4e 3e f6 fd 17 3c 44 b9 c3 3d
       0.13812779 0.20144378 0.009276858 0.09556821
000030 99 83 4d bb b8 64 cc bd 44 1b 18 3e d8 d7 6a be
       -0.0031358956 -0.09980148 0.14854151 -0.229339
000040 ed b8 88 bd a6 95 dc bd 03 22 0c be 20 2a 56 be
       -0.06675897 -0.10770731 -0.1368485 -0.20914507
000050 5e a2 90 be 38 45 6a be 0c 14 24 be 3e 74 62 be
       -0.28248876 -0.22877967 -0.16023272 -0.22114655
000060 21 7f 8e be 5c 9e fa 3d 09 0b b7 bb 72 dc 3e be
       -0.27831367 0.12237236 -0.0055860323 -0.1863878
000070 4c a6 5a bd 60 8e 92 bc a0 f6 0b 3e 5d 9f 12 3d
       -0.05338125 -0.017890155 0.13668299 0.035796512
000080 ee 5b fa bd 9d b7 c3 bd 59 68 40 bd c7 3a d3 3d
       -0.122245654 -0.09556506 -0.046974514 0.10313945
000090 7a 23 93 3c 98 ba a0 bd aa 07 22 be a2 e7 7f bd
       0.017961252 -0.0784809 -0.15823236 -0.06247676
0000a0 5a 3f 9d 3d c6 63 bf 3d 79 f5 a6 bd 4e a4 2b be
       0.07678099 0.09345202 -0.08152289 -0.16761896
0000b0 78 33 b1 bd 6b 74 42 3e ea 8e f0 3d c0 0d b0 3d
       -0.08652395 0.18989722 0.11746009 0.085963726
0000c0 71 0e a1 bc b1 e2 15 bc ff 6a e6 bc 5b 54 64 bd
       -0.019660207 -0.009148286 -0.028127192 -0.05574451
0000d0 1b 7f 04 be d4 b5 b3 bd 14 1a 4e 3d f7 55 9d bc
       -0.12939112 -0.08774915 0.05031784 -0.01920603
0000e0 75 e8 f6 bc 20 74 cb 3c 13 5a b9 3c a6 d4 18 3c
       -0.030140141 0.024835646 0.022625959 0.009328043
0000f0 c1 6e 2c 3d 49 86 92 3d 11 ea aa bc cd ad e0 bc
       0.04209781 0.07154519 -0.020863565 -0.027426625
000100 ce 39 96 bd 77 95 11 bc 38 e5 d4 3c 85 4f c1 bc
       -0.07335244 -0.008885733 0.025988206 -0.023597488
000110 02 d8 e6 3c 98 7a ad bc 9d 79 94 3c c1 2b 14 3d
       0.028179172 -0.021176621 0.018124396 0.03617454
000120 57 a1 3f 3c 3f 17 53 bd e8 24 9c bd 07 5d c3 bd
       0.011696181 -0.05153584 -0.07624227 -0.09539228
000130 a3 cb 57 bd 86 a0 9c 3d 30 eb 06 3e 8a ed 2a 3e
       -0.052684437 0.07647805 0.13175654 0.16692176
000140 0f 2b a8 bd 35 0f 88 bd ea 0d d1 3d bc 08 f9 3d
       -0.08211338 -0.066435255 0.10207732 0.12159869
000150 e1 ad 0b 3d 73 53 3f be 49 24 1b be 9d 25 03 be
       0.03410137 -0.18684177 -0.1515056 -0.12807317
000160 08 18 14 be 87 03 49 bd c9 2d 63 bd 86 a3 b5 bd
       -0.14462292 -0.04907563 -0.055463586 -0.0886908
000170 70 9f a0 bd 5f 3e 3c bd 0a dd 0e bc ff fd 2e be
       -0.0784291 -0.04595792 -0.008719692 -0.1708908
000180 1d a1 b9 bd a1 a7 12 bd ca 36 33 bc 3a b4 f1 bd
       -0.09063933 -0.035804395 -0.010938356 -0.118019536
000190 2b 4a 21 bd 32 65 f0 bd 9e d2 42 be 20 98 3d be
       -0.039377373 -0.117380515 -0.19025657 -0.18515062
0001a0 7b 42 f0 bd d5 06 78 bd ad 02 db bc 85 a4 20 be
       -0.1173143 -0.06055339 -0.026734674 -0.15687759
0001b0 41 b4 34 be 9f 6c 21 be 0a e6 46 bd 3c 64 12 be
       -0.17646886 -0.15764092 -0.048559226 -0.14296049
0001c0 e2 22 dd bd c4 28 4f be 17 3a ed bd fd 5b dc bd
       -0.10797669 -0.20230395 -0.115833454 -0.10759733
0001d0 a2 10 b2 bd e6 ff 3e bd 2e 12 f6 bd 1e a2 08 bd
       -0.08694579 -0.046630763 -0.12015186 -0.033357732
0001e0 1c fe f5 bd 90 76 8d 3d 4c 90 94 bc de 44 4d bd
       -0.12011358 0.069073796 -0.018135212 -0.050114505
0001f0 51 e7 84 3d 85 a6 f2 bd c5 d5 14 be d3 51 7e be
       0.064894326 -0.11848167 -0.14534672 -0.24835901
000200 05 92 29 be 33 00 15 be c6 50 d9 bc ca ee cb bd
       -0.16559608 -0.14550857 -0.026527774 -0.09957655
000210 3f 80 30 be 96 d0 f1 bd 71 bb be bd 4b 51 b5 3d
       -0.17236422 -0.11807363 -0.09313095 0.08853396
000220 5f 24 a5 3d 68 75 ac 3d c3 e6 07 bd 81 d4 ee bd
       0.08063578 0.08420831 -0.033179056 -0.11661626
000230 83 0d e4 3c fa bd 18 3e 93 93 14 3e 39 3b 78 bb
       0.027838474 0.1491622 0.1450942 -0.0037877096
000240 af b6 8f bd d7 f6 71 3d f6 9a 95 3d 67 1a 48 3e
       -0.07017266 0.059073295 0.07304947 0.19541322
000250 26 90 a6 3d 03 61 9f bd c4 83 b0 bd 4c 6f 2b be
       0.08132963 -0.077821754 -0.08618882 -0.16741675
000260 cd e4 4e be 56 2a 13 be 66 28 38 bd 61 63 40 be
       -0.20204468 -0.14371619 -0.044960402 -0.1878791
000270 ba e3 8a be 8f bc c1 be 09 5a c8 be c8 c5 11 be
       -0.27126867 -0.3783917 -0.3913119 -0.14235604
000280 16 96 0a be e9 03 81 be c5 ac 9b be 0a 5f 49 be
       -0.13533816 -0.25198296 -0.3040525 -0.19665161
000290 c5 aa 76 bd 16 72 a1 3c a0 cf 74 bc ba 9c e0 3c
       -0.060221452 0.01970772 -0.01494208 0.027418483
0002a0 66 f1 97 3d 8c 2d d7 3d 63 30 50 3d 5b 17 05 3d
       0.0741909 0.10506734 0.050827395 0.032492977
0002b0 ae 45 5f 3d d5 66 90 3d c2 fc 58 3d 50 3a 4f 3c
       0.05450981 0.07050864 0.052975424 0.01264818
0002c0 c9 08 1a bb 73 0e 6b 3b 3e b0 2e 3d a9 c1 72 3d
       -0.0023503772 0.0035866767 0.042648546 0.05926672
0002d0 ed 95 cf bd c6 19 1a bd fb d4 b6 ba 76 0a e4 bd
       -0.10136018 -0.037622236 -0.0013948971 -0.11134808
0002e0 8b cc 93 3d 27 85 e0 bd cf e9 af bd 7a 34 01 be
       0.07216748 -0.10962897 -0.08589517 -0.12617674
0002f0 2a 0d 0a be 4f b3 38 bd 56 0d 2a be 00 bd c6 bd
       -0.13481584 -0.045092877 -0.1660665 -0.09704018
000300 90 58 18 be 83 d5 32 be 01 5a 0c be 10 ba e6 bd
       -0.14877534 -0.17464261 -0.13706209 -0.11265957
000310 b3 ec 38 be 0e c3 19 be 1e d6 94 bd 49 1f 38 3d
       -0.18059044 -0.15015814 -0.07267402 0.04495171
000320 78 e1 8c bd 17 e1 e1 bd 74 bd 45 bd d2 93 f0 bd
       -0.06878942 -0.110292606 -0.04827638 -0.117469445
000330 94 9a 06 be df a2 8a bd 05 a4 93 be 69 c8 c4 bd
       -0.13144904 -0.067693464 -0.28836074 -0.09608538
000340 35 4f 02 be fe 76 8a bd 48 89 43 bd e6 47 8a be
       -0.12725528 -0.06760977 -0.047738343 -0.2700798
000350 6a f5 68 be 36 67 98 bd d3 fb 37 3d de 71 0e 3e
       -0.22749868 -0.07441561 0.044917893 0.13910624
000360 3e 77 2b bd 65 5a f7 bd 9d 65 71 3d 66 f6 e3 3d
       -0.041861765 -0.12077788 0.058934797 0.11130981
000370 dc 3b 17 3e e7 c0 9f 3d 66 39 d8 bd 69 b7 9c bd
       0.14768928 0.07800465 -0.10557823 -0.0765217
000380 bb 5f 02 bc f4 05 5b bd a4 7c a7 3d 93 b8 c4 bd
       -0.007957394 -0.053472474 0.0817807 -0.09605517
000390 37 46 65 3d 03 f9 59 3e 75 74 10 bb 18 bd 31 bd
       0.055975165 0.21286397 -0.002204207 -0.043393224
0003a0 26 ae e1 bd d0 a2 25 bd 91 a4 12 3d f6 2d a7 3b
       -0.11019544 -0.040438473 0.035801474 0.0051019145
0003b0 7b 6a c1 bd 95 d4 45 bd 38 04 03 be 62 a9 a4 bd
       -0.09444138 -0.048298437 -0.12794578 -0.0804012
0003c0 7f e2 af 3d 46 51 94 bc 22 96 f3 bd 52 df 88 bc
       0.085881226 -0.01810516 -0.1189387 -0.01670805
0003d0 ea f7 f3 bd 8c 61 67 3b 92 5d 96 bd c2 0b 09 3d
       -0.1191252 0.0035305945 -0.07342066 0.03345848
0003e0 a0 04 7f ba b6 10 cc 3c a5 1f a7 3d ad e1 d3 3d
       -0.0009728167 0.024910312 0.081603326 0.103457786
0003f0 d6 98 c6 3d 36 98 a5 bd 28 8f dd 3d 74 13 ac 3d
       0.0969712 -0.080856726 0.108183205 0.08402148

conv_2.bias f4 [32]
000000 d5 b8 18 bd 7b 0d 2a bd b8 d1 b0 bc ec 5e 22 bd
       -0.037285645 -0.041516762 -0.021584377 -0.039641306
000010 6c 4c d0 3b a2 20 0b bd e1 fa c8 bc 9a 41 04 bc
       0.0063567664 -0.033966668 -0.02453369 -0.008072281
000020 7a a2 ac bd a0 8e 74 3b 45 c8 1d 3d 7d 95 56 bd
       -0.084294274 0.0037316456 0.03852107 -0.052388657
000030 51 4a 31 3c fe 11 cf bc 3b 4e a7 bc a2 ba 12 bd
       0.010820941 -0.025277134 -0.020423045 -0.03582252
000040 64 6c 4c bd c0 43 be bb ea 0e 09 bd 4d c4 a0 bc
       -0.049908057 -0.0058064163 -0.03346149 -0.019624854
000050 02 6b 10 3c 53 da a3 bc 2f d8 da bb a8 9f b2 3b
       0.008814575 -0.020001566 -0.006678603 0.0054511614
000060 1c 69 77 3b 5a ed 56 bd 5b e2 b1 bd 7c 2b 90 bc
       0.003775186 -0.05247245 -0.08685752 -0.01759886
000070 12 e4 41 bd a2 79 d0 bc 34 db 1e bd ef 35 1a bd
       -0.047336645 -0.025448624 -0.038783267 -0.03764909

batch_norm_2.weight f4 [32]
000000 19 eb 17 3f 48 f4 16 3f de 00 21 3f 29 a4 03 3f
       0.59343106 0.58966494 0.6289195 0.51422364
000010 da e4 22 3f 36 14 1d 3f 46 c0 11 3f 69 77 13 3f
       0.6363045 0.61358964 0.5693401 0.5760408
000020 ad 1e 12 3f 50 c3 2e 3f a8 b8 3a 3f 53 95 21 3f
       0.5707806 0.68266773 0.72938013 0.63118476
000030 d6 14 0e 3f 35 f1 10 3f ee 2f 1c 3f 90 ea 09 3f
       0.55500543 0.5661805 0.61010635 0.5387354
000040 3b c4 14 3f 63 94 1b 3f 7c dd 13 3f d6 f6 31 3f
       0.58111924 0.60773295 0.57759833 0.69517267
000050 74 8d 36 3f 6b 9a 0e 3f 4e 61 0c 3f 27 34 10 3f
       0.7130959 0.55704373 0.54835975 0.5632958
000060 f0 48 14 3f 5d b0 24 3f 69 03 15 3f 7b 07 24 3f
       0.57923794 0.6433161 0.5820833 0.64073914
000070 f0 75 24 3f a3 60 1c 3f f4 fc 07 3f 40 c7 28 3f
       0.6424246 0.61084956 0.5312035 0.6592903

batch_norm_2.bias f4 [32]
000000 00 c0 c1 be d4 bf f2 be 67 c7 c1 be 6d 0f b7 be
       -0.37841797 -0.47411978 -0.37847444 -0.35753956
000010 02 78 d9 be 9e f0 fd be b2 9b db be 0d fc ab be
       -0.4247437 -0.4959764 -0.42892224 -0.33590737
000020 2f 6d ef be c4 0d 07 bf af 34 b8 be 26 b3 cf be
       -0.46762988 -0.5275538 -0.35977694 -0.40566367
000030 4a 27 f3 be d3 a7 03 bf 40 5f de be ec 3e fa be
       -0.47490913 -0.51427954 -0.43432045 -0.4887613
000040 01 0a d1 be 5e c3 fd be 49 e7 e1 be 65 ee 01 bf
       -0.40827945 -0.49563116 -0.4412177 -0.50754386
000050 ec 97 05 bf 87 96 05 bf 11 d6 d0 be 44 ba f3 be
       -0.5218494 -0.5218281 -0.4078832 -0.47603047
000060 f8 70 04 bf a9 55 d5 be 8f 04 dd be 45 6a ef be
       -0.51734877 -0.41666916 -0.4316754 -0.46760765
000070 38 d9 f8 be 5a 18 ef be a7 cd dc be 35 8b ce be
       -0.48603225 -0.46698266 -0.4312565 -0.40340582

batch_norm_2.running_mean f4 [32]
000000 55 63 46 c0 78 d9 8c c0 4d 59 1f c0 41 50 54 c0
       -3.0998127 -4.4015465 -2.4898255 -3.3173983
000010 0e d0 4d c0 cd 0a e8 bf cb ed 18 c0 cd b3 29 c0
       -3.2158237 -1.8128296 -2.3895137 -2.6515992
000020 cc 68 3e c0 3f 49 33 c0 24 62 32 c0 76 1c 3a c0
       -2.9751463 -2.8013456 -2.78724 -2.907987
000030 07 da 0e c0 de 2e 9e c0 66 22 7d c0 f7 ef 43 c0
       -2.2320573 -4.943221 -3.9552245 -3.0615213
000040 63 20 76 c0 17 f7 18 c0 1c a0 05 c0 91 30 a4 c0
       -3.8457267 -2.3900812 -2.0878973 -5.1309285
000050 35 08 97 c0 10 6d 35 c0 eb 7b 2d c0 57 2b 2d c0
       -4.719752 -2.8347816 -2.7106884 -2.7057703
000060 4c 3c 22 c0 a5 c4 5a c0 c0 de 24 c0 1c 20 e3 bf
       -2.5349302 -3.4182522 -2.5760956 -1.7744174
000070 96 b4 76 c0 24 b0 2a c0 5a e1 e6 bf fa f0 1a c0
       -3.854772 -2.6670008 -1.8037522 -2.420958

batch_norm_2.running_var f4 [32]
000000 ca 6c 1e 41 af 88 83 41 57 4a 4f 41 6d 8f 1f 41
       9.90156 16.44174 12.955649 9.972516
000010 1e 00 2e 41 bc bc f8 40 20 f1 22 41 61 3f 6d 41
       10.875029 7.773039 10.183868 14.827973
000020 93 fc 00 41 30 ac 1e 41 cc 21 91 41 e4 18 61 41
       8.061664 9.917038 18.141502 14.068577
000030 81 f0 0d 41 8d c2 7a 41 8e 88 89 41 4e 8c f6 40
       8.871217 15.672498 17.191677 7.704627
000040 30 14 85 41 79 a8 c2 40 a3 12 83 40 9e 88 dc 41
       16.634857 6.0830655 4.096025 27.566708
000050 4f ff e1 41 32 80 1e 41 d7 52 64 41 f1 a4 ec 40
       28.249662 9.906298 14.270225 7.3951344
000060 6f 5e d0 40 76 7d d3 41 a1 6e 8f 40 70 80 d5 40
       6.5115275 26.43626 4.4822545 6.6719284
000070 ad 8a 78 41 f6 54 03 41 7b dc 0e 41 24 f4 54 41
       15.533856 8.208242 8.928828 13.309605

output.weight f4 [10, 6272]
000000 45 a6 c1 bd d8 0c 5f 3d fe 4a 31 3b 36 44 9d bc
       -0.094555415 0.054455608 0.0027052755 -0.019197565
000010 ec 19 ee 3b ea 03 30 bd 45 15 d3 bc 00 87 e1 3a
       0.0072662737 -0.042972483 -0.025766978 0.0017206371
000020 21 bc 7f bc e9 e8 c7 bd 1c d1 08 be 55 0e 0c be
       -0.015608818 -0.09761221 -0.13361019 -0.13677342
000030 fd 02 0c be 1a 27 e9 bd 9c f8 68 bd 2b d7 fe 3c
       -0.13673015 -0.11384411 -0.056877717 0.03110846
000040 c9 51 a2 3d e9 0c 4e 3d a1 30 a8 3c 79 e5 42 3d
       0.079257555 0.05030528 0.020531 0.047582123
000050 a3 e3 a8 bd ec a4 ab bd 26 e7 bc bd 6e f0 bf bd
       -0.08246543 -0.08381066 -0.092237756 -0.0937203
000060 2a c8 cf bd 24 70 e7 bd 21 c9 03 be d2 3a 0b be
       -0.101456 -0.11300686 -0.12869693 -0.13596657
000070 0f 16 03 bb f2 b5 2b 3d 57 2d 9a 3d 68 7a 00 3d
       -0.0020002162 0.041921563 0.07528179 0.031366736
000080 87 c7 c4 3c 9f 44 c2 bc d0 3d b3 bd 3c 91 ad bd
       0.024020923 -0.023714362 -0.08752024 -0.08474967
000090 a4 0d ef bb d2 79 8e bd 5b 29 ea bd 91 74 3b be
       -0.0072953273 -0.06956829 -0.11433669 -0.18306185
0000a0 43 09 10 be 85 ef 8e bd 0b 96 3d 3d 26 a9 44 3c
       -0.14066033 -0.069792785 0.04628567 0.012003219
0000b0 8f b8 65 3d 7d de c2 3a 5e 43 c1 3c 25 41 70 bd
       0.056084212 0.0014867332 0.023591693 -0.058655877
0000c0 df c5 fc bd 6b 36 06 be fa 1f 19 be 22 26 d8 bd
       -0.123424284 -0.13106696 -0.14953604 -0.10554148
0000d0 b3 01 3b be 27 0a 22 be b5 1f 15 be b6 9e 82 bd
       -0.18262367 -0.15824185 -0.14562877 -0.06377928
0000e0 35 b1 36 3c 7f 7c a6 3d 22 e3 85 3d 0c c9 d9 3d
       0.011150648 0.081292145 0.06537463 0.1063405
0000f0 98 95 4c 3c 84 df 8d bd 95 b8 70 bd 13 e9 9b bd
       0.012486838 -0.06927398 -0.05876978 -0.07612815
000100 e6 3d 27 be 1f d3 2a be b5 ac ac bd cc 37 d7 bd
       -0.16332206 -0.16682099 -0.08431379 -0.10508689
000110 9a da 03 be ba 8b 14 be a5 f0 84 3d b5 75 88 3d
       -0.12876359 -0.14506426 0.06491212 0.06663076
000120 98 4f c3 3d e1 7d 14 3c b0 a4 13 3d 3e de fc bc
       0.09536666 0.009063215 0.03604573 -0.030867692
000130 7d 3b 59 bd 9f 69 1b be c0 d9 27 be f8 2f 1b be
       -0.053035248 -0.1517701 -0.16391659 -0.15155017
000140 ab db 0d be 9e d9 06 be cd 63 e1 bd 61 84 ca bd
       -0.13853328 -0.13168952 -0.110053636 -0.098885305
000150 60 39 ee 3c cd b8 b2 3d 33 b6 82 3d 42 9b 9f 3c
       0.029080093 0.08726654 0.06382408 0.019483212
000160 02 75 14 bd 1d 75 65 bd bd e1 05 be 51 2a db bd
       -0.0362444 -0.05601989 -0.13074394 -0.107014306
000170 5b 3e 2d be 40 b6 05 be 5a 99 35 be 07 5d 33 be
       -0.16918318 -0.13057804 -0.1773428 -0.17515956
000180 1d 42 26 be d2 a3 04 be a2 5c a9 3d 89 a7 be 3d
       -0.16236158 -0.12953117 0.082696214 0.093092985
000190 c7 ff e3 3d cf 71 65 3d c1 23 37 3d 17 32 2d bd
       0.1113277 0.05601674 0.044711832 -0.042284098
0001a0 8d 44 17 be 3a 76 02 be 95 88 47 be 95 77 5b be
       -0.14772244 -0.12740412 -0.19485696 -0.21432336
0001b0 f6 fa ee bd 53 4e 19 be 01 0b ab bd d1 2b df bd
       -0.11668961 -0.14971285 -0.08351708 -0.10897029
0001c0 23 32 b1 3d 1c a6 74 3d 8a 0c 1b 3d e7 ba 33 bd
       0.08652141 0.059728727 0.037853755 -0.043879416
0001d0 e2 05 09 bc db 7b f3 bc 86 59 b2 bd a5 26 ec bd
       -0.008363219 -0.029722145 -0.087084815 -0.11530808
0001e0 2c ab 48 be ed 3c 13 be dc a8 2f be 15 db 3d be
       -0.19596547 -0.1437871 -0.17154258 -0.18540604
0001f0 7f 87 43 bd 23 05 3b bd 82 34 15 3d 14 1b 92 3d
       -0.04773664 -0.045659196 0.03642703 0.07134071
000200 7b b4 c8 3d 70 2a 1b 3b 17 a5 87 3d 1c ad 57 bd
       0.09800049 0.0023676418 0.06623285 -0.052655324
000210 0c 1d 28 bd 54 b5 a0 bd ba bf 43 be 09 49 24 be
       -0.041043326 -0.078470856 -0.19116107 -0.16043486
000220 9c 35 29 be e6 e8 f5 bd d0 05 98 bd ee 2a c6 bd
       -0.16524357 -0.120073125 -0.07422984 -0.09676157
000230 42 ec af 3d 67 77 63 3d 6b ac 3c 3c 88 16 63 3c
       0.085899845 0.055533793 0.011515717 0.013860352
000240 7b 5b e6 bc 3d 10 db bc 5c b9 16 bd 0e 5a e6 bc
       -0.028119793 -0.026741141 -0.036797866 -0.028119113
000250 ac b6 a6 bd 0c 17 f5 bd a8 ce f2 bd f5 5a 20 bd
       -0.08140311 -0.119672865 -0.11855823 -0.039149243
000260 3a 30 aa bc 12 35 99 bd 1c ff 26 3c 63 80 d4 3d
       -0.02077495 -0.074808255 0.010192659 0.1037605
000270 71 03 85 3c 65 e1 75 3a 08 e0 5a bd d0 90 b1 bb
       0.016236993 0.00093795947 -0.05343631 -0.0054188743
000280 d3 17 24 bd e5 04 85 3c 44 92 3a bd 80 32 8c bd
       -0.040061783 0.016237685 -0.045549646 -0.068455696
000290 02 f6 ea bc 19 ab 44 bd 79 eb 88 bc 58 b9 ef bb
       -0.028681759 -0.048014734 -0.016713845 -0.007315796
0002a0 a5 1b ea 3c fe 73 d4 3d fd bf 90 3d 88 e1 19 3c
       0.028577635 0.10373686 0.07067869 0.00939215
0002b0 f3 13 c0 bc fe ea 4c bd b1 ae 94 3c ae 43 44 3c
       -0.023447013 -0.050028794 0.018149706 0.011979027
0002c0 e1 ad ac 3c 3d 9d 5a bd b8 25 b6 bd 4f 78 f5 bb
       0.021079006 -0.05337261 -0.08893913 -0.0074911485
0002d0 73 59 cf 3c e3 c1 63 bd da f6 d8 3a 69 af 85 bc
       0.025311207 -0.055604827 0.001655306 -0.016318994
0002e0 bc d9 b6 3c e7 9f 33 ba d3 73 2b 3c 02 c3 2d 3a
       0.02232062 -0.00068521354 0.010464626 0.00066284847
0002f0 82 7d 54 3d dd 6e 48 3d 0a 5e 0b bd ae 76 ee bb
       0.051877506 0.048933852 -0.03402523 -0.0072773313
000300 5e 02 5b bd d3 1a 6f bd 4f f1 af bd d6 2a b0 bb
       -0.053469054 -0.05837519 -0.08590948 -0.0053762
000310 c8 fa 16 be 2a 06 6a 3d da 22 82 3c e6 1d af 3c
       -0.14744103 0.057134785 0.01588576 0.021376561
000320 ed 1b 19 bc 6b 96 b1 ba e9 2d 5d 3c 85 90 37 3c
       -0.009345037 -0.0013548856 0.013499715 0.01120389
000330 bc 1c d8 3b 21 cc 3f 3d 12 77 f3 bb e0 8b a4 3c
       0.0065952223 0.046825532 -0.007429966 0.020086229
000340 52 18 74 3d 55 75 a1 3d 3e 5f ca bd 8b d0 a6 3d
       0.059593506 0.078837074 -0.09881447 0.08145245
000350 f8 1d 85 3d d6 19 46 3a 6f 87 e4 3c 1c 28 f7 3c
       0.06499857 0.00075569504 0.027896611 0.030170493
000360 15 f3 6d 3c c6 cd b5 39 3b 71 ce 3c b9 7a 7c bc
       0.014523287 0.00034676323 0.025200477 -0.015410119
000370 ca 73 4f bc 85 67 9f bb a5 2d 18 3d ea 53 09 3d
       -0.012661884 -0.0048646354 0.037152905 0.033527292
000380 47 f6 b0 bd 08 79 9d 3c 49 d4 51 3c 0c b7 ab 3c
       -0.08640724 0.019222751 0.01280696 0.020961307
000390 c5 8a 79 bc a7 7c 1c 3d 9d 17 b2 bb c4 d9 b2 3c
       -0.015230839 0.038204815 -0.005434944 0.021832354
0003a0 3e 76 2b bd 36 d8 2e bc 62 92 1b bd 03 80 37 bd
       -0.04186081 -0.010671666 -0.0379814 -0.044799816
0003b0 dd 2d f0 bc df 22 cf bc 71 b4 d7 bd 08 fa 71 bd
       -0.029318744 -0.025285183 -0.10532463 -0.05907634
0003c0 5c a8 3a 3d e2 57 24 bd ba 92 24 bd f4 31 01 3d
       0.045570716 -0.040122874 -0.04017899 0.03154178
0003d0 6e 8a 08 3a 39 3d f1 3b 7f ab c9 bc 4f 98 fa 3c
       0.0005208616 0.0073620346 -0.024617909 0.030590205
0003e0 29 0e f7 bc ce dd 13 bd bd 31 1e be 19 4e de bc
       -0.03015812 -0.0361002 -0.15448661 -0.02713685
0003f0 63 b4 09 be 66 c0 d0 39 ff e7 85 3d ac f2 69 bd
       -0.13447718 0.000398162 0.0653839 -0.057116196

output.bias f4 [10]
000000 69 e2 d4 bc 56 20 2f 3d aa 59 10 be 84 34 00 3e
       -0.025986867 0.042755447 -0.14096704 0.12520033
000010 17 3d a3 3d c8 ea 80 3a 83 0b aa 3d de 82 45 bd
       0.07970636 0.0009835595 0.08302977 -0.048220508
000020 56 37 09 3d f0 94 59 bd
       0.033500038 -0.053120553
