runs/0003_CNN_1_bsz-128_lr-0.001_ep-60-desc-.pth (torch, 370598 bytes, 14 tensors)

conv_1.weight f4 [32, 3, 5, 5]
00000000: 930b 113d 6a7e 313e f7dc 233e aeee 2c3e
00000010: 2f92 023e 802b 4b3e 4bcc 173e 4497 1abc
00000020: a414 a03c d377 c63c 4a07 c43d f21f 853d
00000030: d113 27bc f703 f5bd cecf efbd 2016 203e
00000040: 41f8 9fbd ff75 c4bd 2868 13be ba59 1dbe
00000050: 43ff 853c bf8f 8abe f2ee 5cbe aede 2cbe
00000060: 1c8c 403c d48e 763d b7d3 143d 2ec8 253e
00000070: 9a40 023e f3a5 613d 556c 9e3b 04fa debb
00000080: 9212 d03c 4a4b 753d 56b0 973b 58e6 2c3e
00000090: de1b 4cbc a852 f4bd aab7 0bbe 791e 47be
000000a0: ec78 f63d 879b 46bd 1427 97bd 248f 89be
000000b0: 81a8 1fbe 72e0 d23d 6f35 5fbe e3fa 02be
000000c0: c8ec 41be 904c b6bc 9b84 2f3e 9a8b 2c3e
000000d0: 24df 563e 9f90 8d3e 69e3 6f3e 6b07 4a3e
000000e0: 8273 453e 1a6f 8a3d 9a53 5b3e b725 4d3e
000000f0: ac65 f93d a857 bcbd 2542 21bb 9877 843c
00000100: 11a9 e7bd 7d7a 633c b158 8bbe cf90 45be
00000110: dba8 80be b1ad 43be 1e29 9bbd 5eb0 a5be
00000120: 27d6 a7be 7b85 13be afd7 51bd 5150 debd
00000130: 3625 39be 5469 7abd 9f92 96bc 1e0a 35be
00000140: 4de5 fabc 0b50 4cbd 4507 8abd 49ed b23d
00000150: e892 98bd 7147 493e bd08 bf3d 7e59 2cbe
00000160: 1cc0 61bd 17cd eabd 7992 c43d b4d9 c43e
00000170: 88a7 47bc 82e6 853d e9d7 483c 94fb 46be
00000180: d948 da3c 5d23 a53e ed11 a03e 5bd5 503e
00000190: 5973 19be af68 3abd 0cb1 efbc a75e 603d
000001a0: e4ed 9dbd a31e d1bd 8fd6 f8bd 4966 d4bd
000001b0: 091c dc3d 07b6 b1bd d2ad f8bc fc01 90bd
000001c0: 879a 67be 8fe2 243c 87e4 2bbe 7b87 b93d
000001d0: bb09 093e f988 ebbd c445 f1bd f3ef f53b
000001e0: 5b5b 51bd 45c8 043e efee 833e ef8c 883e
000001f0: e963 473e 8822 cb3d 70f8 1c3d 3ce2 353e
00000200: 8141 513e 1fba 16be 24e4 f73d dbf2 393e
00000210: 84c4 833d a7c3 1d3e 29b3 5dbe 5d6b 873e
00000220: 978a 273e ee21 fbbd 23cd cdbd b7a3 86be
00000230: d896 493e f362 d73d 145c 46be c84d 9bbe
00000240: 6673 85be 05cc 25ba a1a7 f9ba b0c9 d4bc
00000250: a349 26be 1de8 55be d21b 933c 2e34 163d
00000260: cb4b a43d 4158 93bd 836f ab3b 0064 5f39
00000270: 9832 47be bd42 083e 64bf 4a3e ed37 88bc
00000280: cf47 9b3d f250 81be 68bf a2be a0d1 083c
00000290: dd14 1f3e 28e2 373e 2e7b 733e bcb1 3fbe
000002a0: 6c54 4abe c78e 4b3c e108 0cbe ffe4 203d
000002b0: f0b4 383e 4c79 7c3d 63f9 0bb9 86ee 0abd
000002c0: 2ce6 8bbd a9b6 d63d 80c0 79bc 5722 5ebd
000002d0: 2375 04be 0f15 f3bd 563d 163e f7b7 503e
000002e0: 4afc f43c cfc4 303e a369 46be 7e26 b6be
000002f0: bcd2 11bd 198d f53c 45b3 d73d ae4e a53e
00000300: cf64 aebd b6cc 3dbe 4459 f2bc 1e48 26bd
00000310: 36b1 df3d 9687 0f3e 224f debb 9130 a8bd
00000320: 10a1 5d3d 0196 da3d d5cc a33d ed46 0ebe
00000330: 9a52 14bd d764 d7bd f7f1 bcbd d5d2 8e3e
00000340: 2f1a 9e3e bf27 37bd b1ec 96bc 30c3 67be
00000350: f85d 8ebe c9f3 e83d 8454 253e cc75 693d
00000360: 74c4 1b3e 1daa 8ebd f4a5 35be cbb0 9ebc
00000370: bd8c b5bd 5577 49bd a80a eb3c a74a c4bc
00000380: 7da8 1c3c 185f 403e 8f88 8c3e e24f 6a3e
00000390: 92b9 163e a784 0e3c b5c7 743d c3d2 a23e
000003a0: 0cd6 8f3e 1f39 d7bc 5c20 373c 0ee0 f9bd
000003b0: eaa2 063e feca 3c3e 6aa6 4dbd b78d 8dbd
000003c0: c5b9 4bbd afbc 69bb 1f16 e53d dae3 f23c
000003d0: 237f 36bc 73fb 33be 0fa7 09be efbc 1abd
000003e0: f091 93bd 0089 14be da74 ad3c de95 febc
000003f0: ea62 05be f991 3dbd 1578 a0bc 2285 81bd
0.03541143 0.1733338 0.1600226 0.16887924 0.12751077 0.19840813 0.14824025 -0.009435479
0.019541092 0.024227059 0.09571703 0.06500234 -0.010197596 -0.11963647 -0.117095575 0.1563344
-0.078110225 -0.095928185 -0.14395201 -0.15366259 0.01635707 -0.27062795 -0.21575525 -0.1688182
0.011752155 0.060194805 0.03633472 0.16189644 0.12719956 0.055089902 0.0048346915 -0.0068047065
0.02539948 0.059886254 0.004629175 0.16884744 -0.012457816 -0.11929828 -0.13644281 -0.19445218
0.12034783 -0.048488166 -0.073805004 -0.2686702 -0.15591623 0.10296716 -0.21797727 -0.12791018
-0.18937981 -0.022253305 0.17140429 0.16850129 0.20983559 0.276494 0.23426594 0.19729392
0.19282344 0.06759472 0.2141861 0.20033918 0.121775955 -0.091964066 -0.0024606076 0.016170308
-0.11311544 0.013884184 -0.27216104 -0.19293521 -0.25128826 -0.19109227 -0.07576202 -0.3236112
-0.32780573 -0.14406388 -0.051231083 -0.10855163 -0.18080601 -0.061135605 -0.018380461 -0.1767964
-0.030626917 -0.049881022 -0.06739668 0.08736665 -0.07449895 0.19656159 0.093278386 -0.16831014
-0.05511485 -0.11464899 0.0959825 0.38447344 -0.012185939 0.065381065 0.012258508 -0.19431907
0.026646065 0.32253543 0.31263676 0.20393889 -0.14985408 -0.04550999 -0.029259227 0.054777768
-0.0771139 -0.102109216 -0.12150299 -0.10371072 0.10747535 -0.08677297 -0.030356321 -0.070316285
-0.22617541 0.010063781 -0.16786395 0.09059044 0.13382618 -0.11500735 -0.11780885 0.007505411
-0.051112514 0.12967022 0.2576823 0.26670024 0.19471706 0.09918696 0.038322866 0.17762083
0.20435144 -0.14719437 0.12104061 0.18159048 0.06433967 0.15406667 -0.21650375 0.264491
0.16361462 -0.12262331 -0.10048892 -0.2629678 0.19686449 0.1051692 -0.19371063 -0.3033278
-0.26064605 -0.0006324652 -0.001904715 -0.025975078 -0.16239028 -0.20889325 0.017957602 0.036670856
0.08022269 -0.071945675 0.005231799 0.0002130419 -0.19452894 0.13306709 0.19799572 -0.01662823
0.07582056 -0.2525707 -0.31786656 0.00835076 0.15535302 0.17957366 0.23777458 -0.18720144
-0.19758767 0.0124241775 -0.13675262 0.039280888 0.18037772 0.061639115 -0.00013348977 -0.03391888
-0.06831011 0.104840584 -0.0152436495 -0.054231968 -0.12935309 -0.11869251 0.14671835 0.20382677
0.029905457 0.17262577 -0.19376235 -0.35576242 -0.035601363 0.029974507 0.1053224 0.3228659
-0.085153215 -0.18535122 -0.02958358 -0.04059612 0.10922472 0.14016566 -0.0067843357 -0.08212388
0.05410868 0.10673142 0.07998053 -0.13894244 -0.036211587 -0.105172805 -0.09225839 0.27895227
0.30879351 -0.04471564 -0.01842341 -0.22633052 -0.27806067 0.11374623 0.16145521 0.056997105
0.1521166 -0.0696604 -0.17739087 -0.01937141 -0.08864734 -0.04918607 0.028691605 -0.023961378
0.009561655 0.18786275 0.27447936 0.22882035 0.14719227 0.008698619 0.059760768 0.31801423
0.28092992 -0.026272355 0.011177149 -0.12200938 0.13148084 0.1843681 -0.050207533 -0.069117956
-0.04973771 -0.0035665443 0.1118586 0.029649664 -0.01113871 -0.17576389 -0.13442634 -0.037777837
-0.0720557 -0.14505386 0.021173883 -0.031077322 -0.13026014 -0.04628179 -0.01958851 -0.06324221

conv_1.bias f4 [32]
00000000: a6d8 15be e9ca 07bd a13d 1bbd 1146 72bd
00000010: ef9f a73d 5a8a 32bd cc3f 10be 239b 86bb
00000020: 5f73 213e c855 23be c3ac 21bd 8549 443d
00000030: af97 bfbc 8179 233e f097 c43a 2b28 1bbe
00000040: e263 833e c210 e83d a2ea 343d ca5b 07be
00000050: 4781 523e b5eb 7e3b 0a2d f73d 5da8 86bc
00000060: 274d 583b e55f e9bc cb79 68bd 3882 0c3d
00000070: ec3f cabd 88f2 6b3c 87e5 043d 19c4 39be
-0.14633426 -0.033152495 -0.03790057 -0.05914885 0.08184802 -0.043588974 -0.14086837 -0.004107849
0.15766667 -0.15950692 -0.0394714 0.047921676 -0.023387758 0.15964319 0.0014998894 -0.15152042
0.25662142 0.11331321 0.044169076 -0.13218608 0.20557128 0.0038897817 0.120691374 -0.016437704
0.003300497 -0.028488109 -0.056756776 0.034303874 -0.098754734 0.014401086 0.032445457 -0.18141212

batch_norm_1.weight f4 [32]
00000000: 932a 4a3f cc29 4b3f 6090 a13f f9f0 513f
00000010: 06ea 663f 86f4 4e3f a1a2 a73f 2124 5e3f
00000020: f14c 3d3f 8297 823f 226f 563f 5f28 6f3f
00000030: 02d4 643f 3a2c 5c3f 2591 493f 02c8 6b3f
00000040: f398 f53e 07db 7d3f 0276 ce3f 5f43 713f
00000050: b25b ad3f 409c 0e3f c386 593f a298 283f
00000060: 8340 933f 1c3b 523f 3d73 153f 7019 b23f
00000070: 9c2e 2f3f 3f9a 803f 018d 623f 4d56 5e3f
0.78971213 0.7936065 1.2622185 0.8200832 0.9020084 0.80841863 1.3096505 0.8677388
0.7394553 1.0202487 0.83763325 0.93420976 0.89386 0.86004984 0.787371 0.9210206
0.47968253 0.99162334 1.6129763 0.94243425 1.3543608 0.5570717 0.84971255 0.658579
1.1504062 0.82121444 0.58378965 1.3914013 0.68430495 1.0047072 0.88496405 0.86850435

batch_norm_1.bias f4 [32]
00000000: 82ef afbd 5a01 f8be 617b 9fbe 1cbc dfbe
00000010: bfd2 bcbd e909 16bf f45d 83be 06ab a1be
00000020: f56a 23be 3bf6 28bf 4e58 10be c46a 9abe
00000030: 8af2 0bbf 5c6d 26bf 4e2c e4bd 3d0b f5be
00000040: f20e 883c df76 1cbd 1380 93be bcc8 cabe
00000050: deb4 4dbe 4294 91be 276e 9abd 8333 47be
00000060: 2a8e 0d3d 0467 84be 3288 813c e313 1cbe
00000070: b1f7 bebe 1a73 813e 26b5 19bf 79e3 eebc
-0.08590604 -0.4843853 -0.31148818 -0.43698204 -0.09219884 -0.5860887 -0.25657618 -0.31575793
-0.1595877 -0.6600072 -0.14096186 -0.3015958 -0.5466696 -0.6501062 -0.11141263 -0.47860137
0.016608689 -0.0381993 -0.2880865 -0.39606273 -0.20088527 -0.28433424 -0.07540541 -0.19453244
0.034559406 -0.25859845 0.015812013 -0.15241961 -0.3729835 0.25283128 -0.60042036 -0.029161202

batch_norm_1.running_mean f4 [32]
00000000: b3f1 bfbe 1857 e2bc d7a1 56bd dcea 133e
00000010: ece9 873d 0e6d 433d 9558 18be d988 aebe
00000020: 2133 0f3d 822d 91be 3218 d2bc 7d91 3c3c
00000030: c772 a6be 9f8f 1c3d 378c 86bd 2cb3 ddbe
00000040: f37f 233e d630 063e 40d9 b63c 51d5 8dbe
00000050: 940a 263e a791 9b3e 01ba b63d 3af9 f9bd
00000060: 5ea1 04bd b751 543e 8bd2 a4bd f590 243d
00000070: ca12 12bf d0ab 933d 0ee6 d6be 75f5 23be
-0.3748909 -0.02762942 -0.052400436 0.1444506 0.06636414 0.047711425 -0.14877541 -0.3408878
0.03496087 -0.28355032 -0.025646303 0.0115092965 -0.32509443 0.038222905 -0.065697126 -0.4330076
0.15966778 0.13104567 0.02232039 -0.2770181 0.16214973 0.3038456 0.08922196 -0.12205739
-0.032380454 0.20734297 -0.080479704 0.040177304 -0.5705992 0.07210505 -0.41972393 -0.16011603

batch_norm_1.running_var f4 [32]
00000000: b700 353f 123a 103e 3485 ff3c aa90 1e3e
00000010: 2cf4 973d 4916 3a3e 8474 8b3c 1524 a03e
00000020: c4a2 573d 6882 3d3e f279 a43c f4b0 813d
00000030: 2030 073e da68 1d3e 3f56 fe3c 1d97 a43e
00000040: 2d4f 2d3e b06f da3e d6f4 553d 7307 f13d
00000050: 19ca b43d c705 5d3e 994c 0a3e e40b 993d
00000060: f9a4 d33d c1ff 3d3e 0f72 363d d1b6 263d
00000070: e48b 5e3e 9371 e73d d1c8 973e 5f4e 1b3f
0.70704216 0.14084652 0.031191446 0.15484872 0.07419619 0.18172564 0.017023332 0.31277528
0.05264546 0.18506777 0.02007768 0.06332579 0.13201952 0.15372029 0.031046985 0.3214654
0.16924734 0.42663336 0.052235447 0.11768999 0.088276096 0.21584235 0.13505782 0.07472971
0.103342004 0.18554594 0.04454237 0.04070169 0.21733052 0.113009594 0.29645398 0.6066646

conv_2.weight f4 [32, 32, 5, 5]
00000000: 8d2b 043e fcea 3c3e 2172 2a3e db36 993d
00000010: d896 833c 8675 e3bb 5dfe b1bc b87b 6abb
00000020: fb6d c5bb aa5c 18bd b248 f3bc 7690 51bd
00000030: 8c5a 203d 0965 4a3d 0c80 713c c03b 36bd
00000040: c41c a5bc 924f 7cbd cc79 46bd 8a72 87bc
00000050: 70e2 98bd 925e 9dbd f15d c4bc 6cda 72bd
00000060: 2386 8c3d c42b 01be e6b0 17be 885c 31be
00000070: 54c0 cfbb a260 86bd 197e 1fbd 8ad6 4fbe
00000080: ad32 46be aefe 08be 5c10 c0bd 3d49 4fbb
00000090: cebc f3bd 75af 00be 9653 45be 2bff bdbc
000000a0: 309d cebd d269 48bc d3dd 52bd 8d60 1fbe
000000b0: ac96 cebd 93ca 86be c790 31bb 8a0f 543d
000000c0: 5182 c8bc 7678 77bb dfa0 0b3f 0b50 233e
000000d0: 0805 9a3d 4bdb 11be 5d6e 91bd 7b7b 303e
000000e0: 19ba 81be efe4 b8be 5915 92be 8cc1 dabc
000000f0: 1d0e be3d 4f57 d2bd c07c 16be 5515 04be
00000100: 5aeb 7f3d 4d02 b33d e212 4cbc 9476 8dbc
00000110: 7f10 dbbd 8fc7 93bd 5081 063e a224 83bc
00000120: d44c 8cbc 916b 00bc 2932 adba bbe8 1d3c
00000130: e5a5 02be 7163 0bbe f51b aabd c510 863d
00000140: 2ab2 f83c eb12 0bbe 980c 26be b94d b4bc
00000150: fe30 793d 451d 783d 4b25 a5bc 26de 6bbd
00000160: 2e6a a8bd e4a6 c43d 40b2 c63d c807 80bd
00000170: fdaa 16be e1e0 edbd 3470 b03d 9811 913e
00000180: 449d c03d f237 bcbd fff4 1fbe e6ff 48bc
00000190: ac95 67bc 0237 92be 3c9b e4be 1d42 88be
000001a0: f685 e73e 28f9 c3bd 589a d1be 7d8a 2fbf
000001b0: b55e 04bf b7ab bc3e 657a 373d 2345 88be
000001c0: c49a 11bf 5a5a e3be 0034 c13e bbb9 9d3d
000001d0: c3ac a6bd 0e99 14bf 9e63 e9be 7cfb 9f3e
000001e0: e8ec c63d cd98 37bd dfd6 15bf 6175 eabe
000001f0: 10bb 1b3e e18a febd f41a 08be 9dbc 03be
00000200: 7b1f 0bbe e1f9 2cbe dfb0 0abe ca2a 40be
00000210: 340e 3dbe f5ea cfbd 3744 37be 459a 7abd
00000220: 3785 9cbc 0f6e 12bd baad 033d 5846 983c
00000230: 480b 1fbe 8ee7 eebd e989 89bd 8e6e a7bc
00000240: e932 dbbd 09d7 293e 1144 083e 70c0 af3d
00000250: 5559 1c3e 7d67 0c3d 7d45 e33d 36f5 8cbe
00000260: 1c0a 68be fe39 f4bd c61e b23e 2693 083e
00000270: be06 eabe 7aa3 cdbe 187a b0be 950c 373e
00000280: 317f 6d3d 679f 0dbf df4c 20bf 87f5 b1be
00000290: e70c 043d 1354 5b3d fa06 d0be f294 81be
000002a0: 88a8 2ebe de48 323e 10d1 a83d e04f 51be
000002b0: fb14 63be ebb7 78be e8c9 e83d b9a3 a5bc
000002c0: 7e13 04bc b7a7 8d3d a5fa 7b3d 3d86 b0bc
000002d0: 3650 5dbc a033 ee3b 4f80 543d 214f 5d3d
000002e0: a20a c4bd 8685 20bc e377 2e3e cc76 a13d
000002f0: d8b1 f53d ac7a 25bd f641 c93d b0da 453e
00000300: 0bd1 b13d fd14 893d f62f 81bd 2a75 223e
00000310: 97ba a33e f545 703b d9aa 28be 4d57 94be
00000320: 1d72 f13d 78cd e73d e0f0 7d3c bb9c 073e
00000330: 8e17 8f3e 9885 96bd b76c fcbd 6bb2 32be
00000340: 1ba0 e9bd 236f 353d 5308 cfbd 0efe 1bbd
00000350: 8209 11be a70f 73bd 7666 ba3d cd64 84bc
00000360: d30a 4dbc 4b2d 63bd da52 5f3d 8591 c53d
00000370: e9a2 9e3d a0ab 753b fc4c 903a 545f 893d
00000380: 1e65 363e 9aca 4dbd f336 0abd b2cd 0abd
00000390: de69 b9bd 0eb4 9dbe 437c 933b ffdf c53d
000003a0: 0fd2 de3d 2da8 cc3c cf77 20be fecf c5bd
000003b0: f5e7 3d3d 244f 313d 3a81 933d 28c9 a8bc
000003c0: e09c 33bd e2e9 573c e5ef ef3d b720 063e
000003d0: edac e43c debc 0c3d 36be 0bbd e421 a43d
000003e0: ed4f 09bc b251 2fbc 35c3 403d 0ff6 96be
000003f0: 6f44 48be 4af4 7cbe 3668 62be 1e4d 823e
0.12907238 0.18449014 0.16645099 0.07481166 0.016063139 -0.0069415 -0.021727735 -0.0035779309
-0.0060250736 -0.037197746 -0.02969775 -0.05116316 0.039148852 0.04941276 0.014740001 -0.044490576
-0.020155318 -0.06159932 -0.048456 -0.016534109 -0.074650645 -0.076840535 -0.023970576 -0.059290335
0.06861522 -0.12614352 -0.14813575 -0.17320454 -0.006340066 -0.065614 -0.038938615 -0.20296684
-0.19355269 -0.13378403 -0.0937812 -0.0031629347 -0.11901246 -0.12566932 -0.19270167 -0.023192963
-0.10088575 -0.012232261 -0.05148108 -0.15564175 -0.10087332 -0.26326427 -0.002709435 0.05177263
-0.024476202 -0.003776101 0.54542345 0.15948503 0.07520491 -0.1424381 -0.07101128 0.17234604
-0.25337294 -0.36112162 -0.28531912 -0.026703618 0.09280036 -0.10270559 -0.14696026 -0.12898763
0.062480308 0.08740673 -0.012455674 -0.017268457 -0.10696506 -0.07215797 0.13135266 -0.016008679
-0.017126478 -0.007838146 -0.0013213801 0.009638007 -0.12758596 -0.13612153 -0.08306114 0.06546167
0.030358393 -0.13581435 -0.16215742 -0.022009717 0.06083774 0.06057479 -0.020159384 -0.057584904
-0.08223377 0.09602144 0.09701967 -0.06251484 -0.14713664 -0.11615158 0.08615151 0.28333735
0.09404996 -0.09190358 -0.15620802 -0.012268042 -0.014134806 -0.28557593 -0.44649684 -0.2661294
0.45219392 -0.09569007 -0.40938067 -0.6857069 -0.5170701 0.36849758 0.04479446 -0.26615247
-0.5687678 -0.4440487 0.37734985 0.07701441 -0.081384204 -0.5804604 -0.45583814 0.31246555
0.09713155 -0.044823457 -0.5853099 -0.45792678 0.15208077 -0.12428833 -0.13291532 -0.12864919
-0.13586228 -0.16892196 -0.13544033 -0.18766323 -0.1846245 -0.10152236 -0.17897116 -0.06118228
-0.01910649 -0.03574949 0.0321481 0.01858823 -0.15531647 -0.11665259 -0.067157574 -0.020438459
-0.1070307 0.16585936 0.13307215 0.085816264 0.15268452 0.03427838 0.11097238 -0.2753083
-0.22660106 -0.11925124 0.34789103 0.13337383 -0.4570827 -0.40163785 -0.3446815 0.17875893
0.057982627 -0.55321354 -0.62617296 -0.34757635 0.032238867 0.053546976 -0.40630323 -0.2530895
-0.17056477 0.17410609 0.082430005 -0.20440626 -0.22175972 -0.24288909 0.113666356 -0.02021967
-0.008061288 0.06916755 0.06151833 -0.021548385 -0.013507893 0.007269338 0.051880177 0.05403054
-0.095723405 -0.0097974595 0.1703792 0.07883987 0.11996812 -0.040400192 0.09827034 0.19321704
0.0868245 0.06693456 -0.06307976 0.15865007 0.31978294 0.0036662791 -0.16471423 -0.28972855
0.117893435 0.11318487 0.015499324 0.13243382 0.27947658 -0.073497 -0.12325423 -0.17450874
-0.11407491 0.04429544 -0.101090096 -0.038084082 -0.14163783 -0.0593411 0.09101574 -0.016161347
-0.012514788 -0.055463117 0.054522373 0.09646896 0.077459164 0.003748633 0.0011009271 0.067076355
0.1781201 -0.050242044 -0.03374381 -0.033887573 -0.09053396 -0.30801433 0.004500897 0.096618645
0.10879909 0.024982536 -0.15670703 -0.09658812 0.04636379 0.043288365 0.072023824 -0.020603731
-0.04385078 0.013178321 0.11715678 0.13098417 0.027914489 0.034359805 -0.034116946 0.080142766
-0.008380872 -0.01070063 0.047061164 -0.29484603 -0.19557355 -0.24702564 -0.22110066 0.2544946

conv_2.bias f4 [32]
00000000: 4c26 84bd 562a 1cbe 6cea 76bd 5016 0cbd
00000010: 9f52 5a3c 85cc 28bd 0ce6 d5bd 4125 86bd
00000020: 3895 0abd 8088 d6bc 15a8 4ebd b02f febc
00000030: d587 9ebc 0a9f 93bd 14fa 0dbd 47fa 8fbb
00000040: 65a7 94bd 13e7 a6bd b8dc ddbc e234 bfbb
00000050: 845b d7bc 4ec9 25bd 0e45 993d 0a68 d0ba
00000060: 004b 62bd 994f 36bc 6c4d b5bc 86aa b83d
00000070: eca6 b4bc b4bc 67bd fb6e 01bd a735 efbd
-0.06452617 -0.15250525 -0.060282156 -0.034200966 0.0133253625 -0.04121067 -0.104442686 -0.06550074
-0.033833712 -0.026188135 -0.050453264 -0.031028599 -0.01935188 -0.07208069 -0.03466232 -0.004393849
-0.072584905 -0.08149543 -0.027082786 -0.0058351615 -0.026288755 -0.040475182 0.07483874 -0.0015900147
-0.055247307 -0.011127376 -0.022131644 0.090169 -0.02205225 -0.056576446 -0.03159998 -0.11680155

batch_norm_2.weight f4 [32]
00000000: e55f 3f3f f81a 1f3f ce50 2d3f 9da7 093f
00000010: 2104 0e3f db83 213f 1a6e 1d3f 6fba 213f
00000020: 1703 013f 8eda 113f 4e27 093f 1d04 113f
00000030: 4738 263f 9f67 173f 4a6d e73e d9db 073f
00000040: 24ba 363f 69c5 2d3f 2258 233f 3202 f53e
00000050: d505 063f f19b 0c3f c290 183f 3d6b 153f
00000060: 6825 1f3f 8646 0c3f 1ae9 243f 9893 1f3f
00000070: 3e07 1d3f 31f9 213f d60d 063f 8ea9 223f
0.747557 0.62150526 0.67701423 0.5377138 0.5547505 0.6309182 0.61496127 0.631751
0.5039534 0.56974113 0.535756 0.566469 0.6492962 0.5914249 0.45200568 0.53069836
0.7137778 0.6787935 0.63806355 0.47853237 0.5235265 0.5492545 0.5959588 0.5836676
0.6216645 0.5479511 0.64418185 0.62334585 0.61339176 0.6327086 0.5236486 0.6353997

batch_norm_2.bias f4 [32]
00000000: 943b 03bf 5a23 00bf f91d 11bf bd54 efbe
00000010: 0a73 f2be 5436 1bbf 0e59 06bf 09ef 23bf
00000020: 86dc 00bf cac9 07bf 24c4 c4be be8b c0be
00000030: 04c2 1bbf 70d2 ecbe 5b5a 80be fcdd febe
00000040: 83e4 16bf 20aa 05bf 28ff 34bf b902 c9be
00000050: deaf bbbe 3f0b 10bf f96c d3be 6381 f1be
00000060: 1c37 fdbe a8cc 11bf 574e f0be 2730 07bf
00000070: aa46 08bf b099 15bf e6a4 ddbe 03f5 a2be
-0.51262784 -0.5005394 -0.5668636 -0.46744338 -0.47353393 -0.60629773 -0.52479637 -0.64036614
-0.5033649 -0.5304228 -0.38430893 -0.37606615 -0.6084292 -0.462543 -0.25068936 -0.49778736
-0.5894243 -0.52212715 -0.7070184 -0.3925989 -0.36657614 -0.5626716 -0.41294077 -0.47169027
-0.49456108 -0.56952906 -0.4693477 -0.5280785 -0.53232825 -0.58437634 -0.4328987 -0.31827554

batch_norm_2.running_mean f4 [32]
00000000: b6d6 c4c0 b794 5ec0 0633 54c0 2db9 47c0
00000010: 83d7 2cc0 d0f7 16c0 5d56 85c0 8aa3 84c0
00000020: 2f64 92c0 b065 72c0 3e31 38c0 710e 3dc0
00000030: 1d2b 85c0 55ab 69c0 9bcc 26c0 5fea 7fc0
00000040: 283f 93c0 b7b4 19c0 b5b6 1ac0 f2ed 54c0
00000050: 9d4b 6ec0 e781 febf e7f5 79c0 3e2f 2dc0
00000060: f90b 73c0 2e0b 3ac0 2a26 cdc0 f509 74c0
00000070: 06d8 8fc0 c8d3 5ac0 05a4 66c0 d80f 26c0
-6.15121 -3.4778268 -3.3156142 -3.1206772 -2.7006538 -2.3588753 -4.1667924 -4.1449633
-4.5747294 -3.7874565 -2.8780055 -2.9540064 -4.161513 -3.6510823 -2.6062381 -3.9986799
-4.6014595 -2.401655 -2.4174016 -3.327023 -3.723365 -1.9883393 -3.9056337 -2.7060084
-3.7976058 -2.9069324 -6.4109087 -3.8131077 -4.49512 -3.419176 -3.603761 -2.594717

batch_norm_2.running_var f4 [32]
00000000: ebc5 7d42 ba91 6d41 177c 8841 3503 6b41
00000010: e44e 7041 b070 db40 f3ce ae41 8c52 6e41
00000020: 02c8 9841 6578 8641 785b 9f41 306a 9341
00000030: 87d4 9841 110f ac41 9a6d b241 a855 be41
00000040: f609 ce41 5f57 1a41 c089 fe40 a087 9541
00000050: 2f15 ac41 04de fd40 75de ab41 472c 1441
00000060: a609 c041 bbe0 5a41 ada3 4442 a8b0 9141
00000070: 248c b241 0f43 8f41 fa48 8b41 e40e b941
63.44328 14.848078 17.06059 14.688283 15.01926 6.857506 21.85105 14.895153
19.09766 16.808786 19.919662 18.42685 19.103773 21.507357 22.303516 23.791824
25.754864 9.646331 7.954315 18.691223 21.510344 7.9333515 21.483622 9.26081
24.004711 13.679866 49.15984 18.211258 22.318428 17.907743 17.410633 23.13227

output.weight f4 [10, 6272]
00000000: 37f8 163e dce6 4e3d 34b8 a73d dada 043e
00000010: 4c56 d73d b353 d73d a0c7 083e 254b 7e3d
00000020: 7718 ee3c 4417 ef3c eda0 d93b c927 053e
00000030: df24 c53d b3d3 633e 75d2 1f3e c13a c73d
00000040: 729a b83d 1947 343e 55bc d33d 4cf3 133e
00000050: afb5 d93d 6687 b73d 850c b73d 4125 4f3d
00000060: ba03 fabc d3a1 053e 2f57 c73d 1b00 183e
00000070: d864 053e a289 f73d 4754 d33d b50e 523e
00000080: 24d9 763e 96cb 563e 390e 833e e223 513e
00000090: 18ae aa3d a77c dd3d 3a19 b43d e7b5 2e3d
000000a0: c3ba 353c db40 cf3d 4de8 73bc c1e3 d8bb
000000b0: 663f b4bd 9895 283e 7bc9 543e c340 603e
000000c0: 5733 893e f2f2 4f3e 2208 413e 2f26 fb3d
000000d0: daa6 5d3b cad3 02be 7f20 b0bd 6f59 e2b9
000000e0: 4f1e 78bb 6f02 40bd effd 7abd 352f d83d
000000f0: eb78 313e 25bc c83d 1b5a 523d ad35 603e
00000100: 0d81 ec3d d9c8 f83d b977 1aba 0241 d8bd
00000110: 1445 c9bd fb52 963c b376 b9bc ca4d 69bd
00000120: dbeb 9a3c 41dc b63c dbd4 6c3d 3c92 2bbb
00000130: 527d ff3d 6abb ac3d ed6b 7d3c 4bdf a63d
00000140: 538d 2dbd 903d 83bd 3445 9abc 2246 49bb
00000150: 3c47 f3bb f152 d0bc 6908 6f3b f0ff 20bd
00000160: d97b f43b 1003 18bd 8101 f7bb 0b26 a43d
00000170: 951b 933d 3c51 d73b ac3d f4bb 817b efbc
00000180: 495c 9ebc e69f 763b a0b9 b73c 19f9 1a3d
00000190: 03ca ae3c f684 b8bd 4041 cabd fe55 fbbd
000001a0: 084b 27be 9c81 36be bb06 0fbd c6c5 04bd
000001b0: ebbd 82bd d64e f439 36ec 733b 4a7c cf3c
000001c0: 1563 ca3c 11af 3ebc f870 723d 9a9f cdbd
000001d0: 4005 e8bd 2dc2 34be 4409 65be 8fe0 50bd
000001e0: 74f6 113d 0aa7 463d a24d 48bd 2f69 873b
000001f0: 9bac e43d 03fa 173d 760b b43c c669 9dbc
00000200: 22ce b63c 0b74 c6bd 661f d3bd e83e fdbd
00000210: d317 9abd 4333 95bd d530 e03b f2ac 953c
00000220: b048 1ebe 6403 053d b951 aa3d f63f aa3d
00000230: 50fa 993c 42cf 0f3c d635 0cbd d50f dabd
00000240: dbd1 9dbd 3660 f1bd 5af4 e4bd 3725 363d
00000250: 534f 13bd 3473 263c 6eed 10bd 29a0 003e
00000260: d8fa af3d ada8 cd3d 104d 093d 33d3 733d
00000270: f661 003d 7bf0 1cbd 8340 8e3b 5821 7abc
00000280: db6e 16bd a205 85bc fe99 3c3c bb1e 9b3d
00000290: 1583 b33d d9b0 0b3e aa05 3b3d bbd2 d33c
000002a0: 2967 0c3d a7d2 b23d 3b1c e03d 5314 803d
000002b0: 6016 dc3c 447c ce3c 067d bdbc 45ef 32bd
000002c0: 7c83 5cbd 3c40 c43d f1f3 f23d 2432 353e
000002d0: 6ff9 b73d 0e2c dc3d 6c16 533c 8799 1d3e
000002e0: f107 ac3d d4da 593d 4abd 24bc e36c 32bc
000002f0: e4c9 8dbd f31b a5bc 1821 19bd 0b6b 033e
00000300: 6a17 b53c dd6a 073e 61c6 af3d 1b8c 223e
00000310: 5759 0dbf 3b2b e3be e04d a8be e037 7cbe
00000320: 71ad 12be 5e07 38bd 3eeb 20be b6bc 74bc
00000330: a729 0dba 994b 75bb bc74 9abb 4b76 04be
00000340: 7b8f 92bd 0d9a 93bd 0b9f b8be 3f46 26be
00000350: b71e dabd e068 00be 93a9 cabd ac0d 0f3c
00000360: 914d efbb c3d6 71bd 37d4 85bd ef4c bdbd
00000370: fbe7 bd3c a56b 4bbd 39ab 10be 1be4 103c
00000380: e486 82be 1186 b5bd 670a 69bd 1739 adbb
00000390: f450 f0bc 2e52 853d c4d4 0d3d 3769 013d
000003a0: 8cd7 ff3c 1e1e cbbd c518 e3bc a34e bcbb
000003b0: 784a cfbd 3e52 0cbd 22e7 52be 0268 05be
000003c0: ee52 f2bc 88a0 6bbd 8693 ff3c de5f 4e3d
000003d0: 84a4 1abd 0fdb 2f3a 7e28 f0bc e967 893d
000003e0: 73c2 8a3d ac3f 623d dac9 22bd 2011 593d
000003f0: 0bce 15be 2add 8cbd 4af7 bfbd 8d5d 9dbd
0.14743124 0.050513133 0.08189431 0.1297411 0.10514507 0.10514011 0.13357401 0.062083382
0.0290644 0.029185899 0.0066414983 0.13003458 0.09626173 0.22248726 0.15607627 0.09728003
0.09013833 0.17605247 0.10338656 0.14448279 0.106303565 0.08961372 0.08937935 0.050572637
-0.030519355 0.13050012 0.09733426 0.1484379 0.1302675 0.12086798 0.10318809 0.20513423
0.2410627 0.209761 0.2559679 0.20423844 0.08333987 0.10814791 0.08793874 0.042653944
0.011091891 0.10119792 -0.014886928 -0.0066189473 -0.08801155 0.16463315 0.20779984 0.21899705
0.26796982 0.2030752 0.18850759 0.12263142 0.0033821375 -0.12776104 -0.08599948 -0.00043172712
-0.0037859862 -0.04687732 -0.061277326 0.10555879 0.17331283 0.09801511 0.051355463 0.21895476
0.11548052 0.12147684 -0.0005892474 -0.10559274 -0.09827629 0.018350115 -0.022639608 -0.05695895
0.018911293 0.022321822 0.057820182 -0.0026179692 0.12475075 0.08434184 0.015467626 0.081480585
-0.042371105 -0.064082265 -0.018831827 -0.0030711968 -0.0074242633 -0.025430175 0.0036473519 -0.03930658
0.007461053 -0.037112296 -0.007538021 0.080150686 0.07182995 0.006570963 -0.007453641 -0.029233696
-0.019331114 0.0037631928 0.02242738 0.037835214 0.021336561 -0.09009735 -0.09875727 -0.12272261
-0.16337216 -0.1782288 -0.034918528 -0.032415174 -0.0638388 0.00046598044 0.003721965 0.02532782
0.02470545 -0.011638419 0.059189767 -0.10040207 -0.11329126 -0.17652197 -0.22366816 -0.050995406
0.035635427 0.048499145 -0.04890216 0.004132412 0.111657344 0.037103664 0.021978121 -0.019215476
0.022315089 -0.09690102 -0.10308723 -0.12365514 -0.07524075 -0.07285168 0.0068417587 0.018270943
-0.15457416 0.032473937 0.083163686 0.08312981 0.018796116 0.008777441 -0.03423103 -0.10647551
-0.077060424 -0.11785929 -0.11179419 0.044469085 -0.03596432 0.0101593025 -0.03538268 0.12561096
0.085927665 0.10041938 0.03352076 0.059527587 0.031343423 -0.038315278 0.0043411865 -0.015266739
-0.036726814 -0.016238037 0.011511324 0.07574221 0.08765236 0.13641681 0.0456597 0.02585732
0.03427807 0.08731585 0.109428845 0.062538765 0.026866138 0.025205739 -0.023130905 -0.043685216
-0.05383633 0.09582564 0.118629344 0.17694908 0.089831226 0.1075059 0.012883764 0.15390597
0.08399952 0.053187206 -0.010054896 -0.010890218 -0.06923273 -0.020154929 -0.037385076 0.12833802
0.022105891 0.13224359 0.0858276 0.15873758 -0.55214447 -0.4436892 -0.32871914 -0.2463069
-0.14323975 -0.0449289 -0.15714738 -0.01493757 -0.000538493 -0.0037429093 -0.004713623 -0.1293575
-0.07156273 -0.07207117 -0.3605884 -0.16237734 -0.1065039 -0.12540007 -0.09895625 0.008731287
-0.007302948 -0.059042703 -0.065346174 -0.092431895 0.023181906 -0.049663205 -0.14127816 0.008843447
-0.25493538 -0.08863462 -0.056894686 -0.0052863467 -0.029335476 0.06509815 0.034626737 0.03159448
0.03123071 -0.09917854 -0.027721772 -0.005746679 -0.10121626 -0.03425812 -0.20595983 -0.13027957
-0.02958056 -0.05752614 0.031198274 0.050384395 -0.03775455 0.00067083625 -0.029316183 0.067092724
0.067753695 0.055236503 -0.039743282 0.052994847 -0.1462938 -0.06878121 -0.093733385 -0.07683859

output.bias f4 [10]
00000000: f7f8 70bd 16d9 a2bd dde7 823a 19e0 103e
00000010: 280b 3a3e 4420 a2bd 1982 183e 93bc 60be
00000020: df1e 81bc 86a2 a43c
-0.05883118 -0.07951562 0.0009987314 0.14147986 0.18168318 -0.079163104 0.14893378 -0.21946935
-0.01576179 0.020097028
