runs/0004_CNN_2_bsz-128_lr-0.001_ep-60-desc-.pth (torch, 239345 bytes, 20 tensors)

conv_1.weight f4 [32, 3, 3, 3]
00000000: 0b47 04be c3dd 733d 4f9c 543e 52b8 3fbe
00000010: 947c 1fbd ced2 833e 2ea8 b8be 0416 58be
00000020: a611 2a3e a657 a33d 1740 30bd e3df 6b3e
00000030: e9cc 87be fc67 d03c 39a8 883d 9988 83bd
00000040: 3c51 f4bd 818d 7b3e 5045 e8bc d428 773c
00000050: da91 8bbd 720b ce3c 43fa 8bbd 21cd febd
00000060: 62ab 423e 405f 623c d54b dbb9 60ce f1bd
00000070: 5840 94be 8d1b dfba 0fb8 bdbd a1b5 1abe
00000080: c48b 3fbe 13ed 5ebe a056 07be f02c 41be
00000090: 42e0 0f3d 0470 febd 3420 a53d e319 d3bd
000000a0: 6cdb a3bd 758e 5abc 0158 433d 4c2b cabd
000000b0: dce7 96bd 7e34 983e 5ff6 923e bfb6 a13d
000000c0: 1a4a 083e fe7d 943e ceac 4a3e 7d0b 333e
000000d0: 900e 5f3e bbc4 5a3e 3c61 173e 7970 06bd
000000e0: 2309 f6bd 658c 44bd 668e 0a3e eaaa b8bc
000000f0: e680 b8bd 19d7 78bd 8ae5 2c3d 7819 90bb
00000100: fcd7 18bd 2d81 06bd ac0d 123e 0a3a 81bd
00000110: d73a 04bc d9d2 113e a40f 113d aa7a 2bbe
00000120: 923b 623e 7851 a8bd b4a0 23be e2f3 9d3e
00000130: c34d d4bd 0a60 8dbe cf96 b33e 13c9 973d
00000140: 3ec9 a6be 81ea 32bc f163 2ebe a1ac bcbd
00000150: 994e 5e3e c38c 9e3d 0b0b 3cbe 17ba d7bd
00000160: d7d1 213e b79b 7b3d f606 cabc 2fec 99be
00000170: 3933 c93c fd67 8b3e c654 30bd 17e0 4bbe
00000180: d170 a73d 94a4 553e 608b 0d3e d191 a3bd
00000190: 1603 56be 1428 ae3d f2cf 4f3e 6e89 babd
000001a0: 39c2 bfbe d4d3 2ebd 6e6e 703e d4b3 1b3d
000001b0: d0af 663d d6a0 303e 585c 28bd 7039 6dbe
000001c0: 2238 b8bd 1c94 69be 7666 ed3d 5e04 4a3e
000001d0: ca15 513c 86cc e33c 382c 7b3e 6b24 a73d
000001e0: e9ae 1cbe ca7f 64be 50b6 4abe fc2b aa3c
000001f0: 5ed1 373e 4ffa 533d c80c a63d f6d6 dd3d
00000200: 2aa9 943d 380b 5fbe 50f4 06be 33d2 32be
00000210: 2999 433d 14c5 f13d f69c 833d e205 5b3e
00000220: 09b4 1abe 246b 483a 749a f7bc e6af 80be
00000230: 2b74 183e 776f 1abe 7b3b 233e 94d0 89bb
00000240: 276b 503e 46b7 cebd afae 513d f0a3 783d
00000250: 7a4d 63bd 0df5 ac3d 53fd 86bd bfd6 453d
00000260: 9309 0cbc a99b d9bd 1caa 52be 9adf 0abb
00000270: 3140 83be 5f14 15be fc2a a63e cc86 8abe
00000280: b6ab 213e 7cc4 823e e988 8f3d 868c a13d
00000290: 778d a2bd 968e d73d b9b2 f8bd de3a 0e3e
000002a0: 65ea 93bd 4022 0dbe 4f5b edbc 2263 273e
000002b0: f32b 363e 1232 743e 551e 9cbd ff54 dbbe
000002c0: 8251 4ebd 9aeb df3d 9ac6 53bd 6a6f e33d
000002d0: 2d92 d2bd 0330 e3bd 502a f43d 7c92 52be
000002e0: dd2e 44bf cda1 04be 678e 803e 4d9a 8f3d
000002f0: 41e3 cd39 ad21 f4bd 213c dabd 16e0 38be
00000300: 6623 61be bda1 f4bd eea2 80be 8976 0fbe
00000310: a15d 9cbe f0b4 54be 82fa efbd 871e 223e
00000320: fd41 723d 9db1 1b3e b142 9d3d ee32 143d
00000330: e78c af3d 7a47 9b3e 001a 823e 3593 10be
00000340: 0f1b a73c e106 afbd 726b 60bc 7efd 2bbc
00000350: 5f52 933c e181 2c3e acf0 263e e7cb 3f3e
00000360: afe0 293b d78f b23d b521 b43d ff6e 0b3e
00000370: 5c2a d8bb 1bcc 323d 37d0 f3bd 482d 8e3c
00000380: 60ea b33b 1b7a b0be d232 97be 5a7a 73be
00000390: c305 26be deff 4fbe 11f6 9dbc 7bb6 923d
000003a0: 1ffc 893e 76f6 883e f449 bc3e 4a78 4f3e
000003b0: 7c4a 133d bf02 a73d 6298 13be 529b 07be
000003c0: 06b7 8cbe ca86 32be 0a2e 6fbd 8d19 813e
000003d0: 0e06 3e3e 8079 83bd 1bed a23e cf88 88bd
000003e0: 7f23 aabe 6693 d63d 5fb3 a6be a662 62be
000003f0: 4bf1 703c 729b 173e c097 f83d 8ae3 e23d
-0.12917726 0.05953766 0.20762752 -0.18722656 -0.038937166 0.2574677 -0.3606581 -0.21102148
0.16608295 0.07975702 -0.04302987 0.23034625 -0.26523522 0.025440209 0.06672711 -0.06422538
-0.11929557 0.24565698 -0.028353363 0.015085418 -0.06814928 0.025151942 -0.06834843 -0.12441469
0.1901069 0.013816655 -0.00041827434 -0.11806941 -0.2895534 -0.001702176 -0.09263622 -0.15108348
-0.1870566 -0.21770124 -0.13216639 -0.18864799 0.03512598 -0.12423709 0.08062783 -0.10307672
-0.08000836 -0.013339628 0.04769135 -0.098715395 -0.073684424 0.29727548 0.2870359 0.07896184
0.13309518 0.29002374 0.19792482 0.17484851 0.21782899 0.21364109 0.14783186 -0.032822106
-0.120134614 -0.047985453 0.13530883 -0.022542436 -0.090089604 -0.060752008 0.042211093 -0.0043975674
-0.037315354 -0.032838035 0.14263028 -0.06309898 -0.008070669 0.14240588 0.035415307 -0.16746011
0.22093037 -0.08218664 -0.15979272 0.3085013 -0.10366394 -0.27612334 0.35075995 0.07411399
-0.3257541 -0.010920168 -0.17030312 -0.09212614 0.2170967 0.07741692 -0.18363588 -0.10533541
0.15802704 0.061427798 -0.024661522 -0.30063006 0.024560558 0.27227774 -0.043049596 -0.19909702
0.08175815 0.20863563 0.13822699 -0.07986797 -0.20899615 0.08503738 0.20294169 -0.09108244
-0.37452868 -0.042682484 0.23479626 0.038013294 0.05632001 0.17248854 -0.04110369 -0.23166442
-0.089950815 -0.22810405 0.115918085 0.19728228 0.012761543 0.027807485 0.24528587 0.08161243
-0.15301098 -0.22314373 -0.19796109 0.020772927 0.17950961 0.051752385 0.081079066 0.10832016
0.07258828 -0.21781623 -0.13179135 -0.17462997 0.047753487 0.11805168 0.06426422 0.21388963
-0.1510774 0.000764536 -0.030225016 -0.251342 0.14888065 -0.15081583 0.15940659 -0.0042057727
0.20353375 -0.100935504 0.051191982 0.060703218 -0.05549381 0.08445177 -0.065912865 0.0483005
-0.008547205 -0.10625393 -0.20572704 -0.0021190406 -0.25634912 -0.14558552 0.3245467 -0.27055967
0.15788159 0.2554053 0.070085354 0.07888131 -0.079371385 0.10525243 -0.12143464 0.13889644
-0.072224416 -0.13782597 -0.028974203 0.1634641 0.17790203 0.23847225 -0.07622973 -0.42838284
-0.0503707 0.10933609 -0.051703073 0.11105235 -0.10281787 -0.11093142 0.11922133 -0.20563692
-0.7663401 -0.12952347 0.25108644 0.070118524 0.00039269964 -0.11920486 -0.10656 -0.18054232
-0.2198616 -0.11944912 -0.25124305 -0.14010061 -0.30540183 -0.20772147 -0.117177024 0.15831958
0.059144963 0.15204473 0.07678736 0.036181383 0.08571797 0.3032797 0.2541046 -0.14118655
0.020398645 -0.08546234 -0.013697492 -0.010497449 0.017983614 0.1684642 0.16302747 0.18730126
0.0025921275 0.087188415 0.087954916 0.1361656 -0.0065968465 0.04365168 -0.11904948 0.017355576
0.005490586 -0.3446816 -0.2953096 -0.23777142 -0.16213135 -0.2031245 -0.019282373 0.07163712
0.26950166 0.26750535 0.36775172 0.2026073 0.035959706 0.08154821 -0.14413598 -0.13242844
-0.27483386 -0.1743423 -0.058393516 0.25214806 0.18556997 -0.06419659 0.31821522 -0.06666719
-0.33230206 0.10477333 -0.32558724 -0.22107944 0.014705966 0.14805391 0.12138319 0.11078556

conv_1.bias f4 [32]
00000000: ee07 69bd 7691 27bd ad45 4b3c 24ee 5e3e
00000010: 63fb 733d 0a4f 09bd 8275 80be 9ff9 023e
00000020: 56ee a23d fdf7 5fbd a738 72bd 4b26 bc3d
00000030: 36b8 bd3c ca25 e13c 7ab7 59be 17e4 333d
00000040: c137 d4bd 67ff 5e3d 4eb5 883d 0cdd aebd
00000050: 478f 393d 79c6 abbd 984a 463d 562a 13be
00000060: eafe 4e3e 908c 3fbe 57bd ec3c 96c4 a83b
00000070: 95bd 8ebc 9244 c8bd 8e64 173e 1f76 97bd
-0.056892328 -0.040910207 0.012406749 0.21770531 0.059565913 -0.033522643 -0.2508965 0.12790535
0.07955615 -0.05467986 -0.05913606 0.09186991 0.023159128 0.02748384 -0.21261397 0.043918695
-0.10362197 0.05444279 0.06675206 -0.08538255 0.045302656 -0.08387465 0.048410982 -0.14371619
0.2021443 -0.18705964 0.028898878 0.005150388 -0.017424384 -0.09778704 0.14784452 -0.07395577

batch_norm_1.weight f4 [32]
00000000: 67b7 6c3f 9808 453f 1af8 9f3f ffa5 9c3f
00000010: ec11 8f3f 02be 803f d4df 793f 0897 353f
00000020: 4a7f 823f 06bb 923f 028e 623f 7357 5e3f
00000030: 3448 863f 326b 7b3f ab1f b33f 0533 5f3f
00000040: 1bce 583f 153f 6f3f 8af4 5a3f 2e46 883f
00000050: 24f7 463f 28ed 823f 2b30 7f3f cd98 673f
00000060: f25a 903f a3cf 5a3f 9a70 863f f96d f23e
00000070: c041 2b3f 9f6e 373f 3309 663f 53cb 5d3f
0.9246735 0.7696624 1.249759 1.2238158 1.1177344 1.0057986 0.9760716 0.7093358
1.0195096 1.1463325 0.88497937 0.86852187 1.0490785 0.9821044 1.3994039 0.87187225
0.8468949 0.9345563 0.85529387 1.0646417 0.77720857 1.0228624 0.99682873 0.9046753
1.1277754 0.8547308 1.0503113 0.47349527 0.668972 0.7165317 0.89857787 0.86638373

batch_norm_1.bias f4 [32]
00000000: f93c 96be b3c7 64bd 7873 c6bd 45d9 bdbd
00000010: 03be 96bd 9a62 2f3e 5f79 0bbd 68d7 213f
00000020: bcf8 c9be d744 91be 9d2e cebd 817b 78be
00000030: b994 d83b 1596 173e 2022 943d d05d 0ebf
00000040: 639d 26bd 4ee7 b5bd ae85 eebe ec89 5a3e
00000050: c91a 2dbd 557f 74be 5607 293e d07c 4dbe
00000060: cb8f 47bf 30b6 b8bd 17ef bbbd d9fb 3d3f
00000070: ddb3 85bd 2afa 0c3f e07b 60be e519 76be
-0.29343393 -0.05585451 -0.09689993 -0.092699565 -0.073604606 0.17127457 -0.034051295 0.6321931
-0.39447582 -0.28372833 -0.100674845 -0.24265863 0.006609526 0.14803346 0.07233071 -0.55611897
-0.04067744 -0.088820085 -0.46586365 0.21341676 -0.042261872 -0.23876698 0.16506705 -0.20067143
-0.77953786 -0.090191245 -0.09176462 0.74212414 -0.06528447 0.5506922 -0.21922255 -0.24033315

batch_norm_1.running_mean f4 [32]
00000000: 3583 e4bd e832 13bd 3746 bd3b 3af2 323e
00000010: 27ac 5a3d 0e7a 83bd c2a9 0abf 10b0 66bd
00000020: 5dad f2bd 234b b7bd f75b 59bd 9038 b73d
00000030: 6d00 d9bd 1e6f 07bd 559f 36be c7d2 34bd
00000040: d473 0fbe d7d7 b83c 809d a5bc 26bf e7bd
00000050: f480 773d 0bc0 dabd 97be f23c 1ba3 33be
00000060: 18ba 03bf 1425 4dbe 2fd6 b73c 44c1 ce3d
00000070: 9979 403e b929 9d3f d768 183e 18a0 d9bd
-0.11157838 -0.03593722 0.0057761925 0.17475215 0.053386834 -0.064197645 -0.5416528 -0.05632025
-0.11849473 -0.08949878 -0.05306622 0.08946335 -0.10595784 -0.033064954 -0.17834218 -0.044146325
-0.14009029 0.022563858 -0.020216703 -0.113157555 0.060425714 -0.106811605 0.029631896 -0.17542689
-0.5145583 -0.20033675 0.022440998 0.10095456 0.18796386 1.2278358 0.14883743 -0.106262386

batch_norm_1.running_var f4 [32]
00000000: 5dfd d43c 5a99 873d aa97 073d 20ef 013d
00000010: 8803 8f3c 6f88 853c 9fbd 813d d491 263d
00000020: 5b8a 923c 7879 f13c 8373 093b e57b 503b
00000030: f14a 763c 7ad1 e13c 7074 8a3c 5404 663d
00000040: 09e5 bc3b ac02 0e3c 6df9 333c f9e4 633b
00000050: 2c73 d63c 495e 803c e9cc 3b3c 262c e83b
00000060: f903 363e 3a23 c23a 521e 0a3d fb37 8d3c
00000070: 6f1f b33c eee6 163f 7588 d33b 55b3 d23c
0.02599972 0.06621046 0.033103622 0.031722188 0.017457739 0.016300408 0.063349955 0.040666416
0.017888239 0.029476866 0.0020973391 0.0031812128 0.015032516 0.027565707 0.016901225 0.05615647
0.005764608 0.008667629 0.010984761 0.003477393 0.026177965 0.015669959 0.011462429 0.007085341
0.17774953 0.0014811524 0.033720322 0.017238608 0.021865575 0.5894612 0.006455476 0.025720278

conv_2.weight f4 [32, 32, 5, 5]
00000000: 5e75 9bbc 5e03 24be c65b 7bbd ffa7 8b3e
00000010: 3032 743e 64c1 623d 5cb5 823b b0e8 a33d
00000020: 425c 963e 4318 003d 8633 063e 98e9 433e
00000030: 3c7f 873e cd90 7c3e 1420 053d 767f bf3d
00000040: 7b52 e13d 56d3 ab3d 8e52 433e ceb3 063e
00000050: b0d3 54bd 56ae 1cbd 9ae4 2dbe 2c93 be3d
00000060: 6895 583e 4e8e 0f3d 3b65 c3bc a97f 2e3e
00000070: 5296 bc3d 38a7 123d dd94 b5bd 3f91 a7bc
00000080: 1c1c f83d df20 1f3e ee2d 8b3d d756 6ebe
00000090: 0368 1fbe 012f 823d 6293 6d3e 6c95 553e
000000a0: e40a 85be 3c62 5dbe 6b25 8c3d 7f7f b53e
000000b0: 0b69 803e 8b72 7ebe 4048 b9be e10a d3bc
000000c0: e4e5 d13d ac2f 973b dc1c 86be d952 43bd
000000d0: 7eff 473d 4fd9 d83b 659f 04be 14ae ddbd
000000e0: f379 a2be 1e95 84be 9156 e63d 6b17 2f3e
000000f0: 8f30 693d d1c3 c7be ce68 b9be 8c08 413d
00000100: 8975 3f3e 01a5 2fbd 6bc7 5fbe 98a6 72be
00000110: dacf 70bc 67c3 fc3c 3f69 773d e29b 9e3d
00000120: 5a3a 803e 59f9 083d 56ad 59be 6fe3 82bd
00000130: 7495 743d 506b 2b3e 130e 56bd fdfa 82be
00000140: 23d5 42bd af2e 06be 36a7 343c ca22 253e
00000150: 9079 69bb e808 74be 8107 dfbd 193d 3bbe
00000160: 409f 99bd 1950 843d 6a72 0ebe eec5 02be
00000170: d704 b5be 170e 4fbe 1f64 08bd ed5d b6bc
00000180: 76d4 a3bd dab5 913d a31b 7d3d 3d57 b1bd
00000190: b9b2 2abe 8f1b 283d 0f2b f7bb f32d e4bd
000001a0: a03d 03bd 1513 6abd d4c2 6f3b cd84 a8bb
000001b0: 9b30 ee3d 7006 bf3c 00b7 9a3d f2bc 773d
000001c0: 3ed4 273e a269 313e a485 9f3d fa4d b6bd
000001d0: 0da9 bdbd d20d 8c3c 74e7 96bb cec9 f43d
000001e0: 1831 993d d951 c43a 20dd b43d d551 b4bb
000001f0: 1466 063e 051a 113d d219 093e ade6 73bd
00000200: 69cd a2bc 5336 ecbd 5aa0 793e 4fda 0e3e
00000210: c338 483e 8ebf 103e 75e2 2fbe f56c 6e3e
00000220: 2cf9 993e 2319 c13e 88f1 6b3e d805 87be
00000230: 3da4 553d f216 7c3e 15e3 773e 3476 e83d
00000240: a56f 1abe b7d3 2dbd 318c 72bd f237 cebc
00000250: f39b 3a3d ef89 acbd 232d fb3d 8404 8e3d
00000260: 2bfc faba 40c6 e33d ea64 a2bd 4103 3f3e
00000270: d6c1 e33d 4c79 8c3d 29d7 bbbd 8389 82be
00000280: 8e14 743e 8a37 373e 2811 fc3d da0b 2bbe
00000290: 73fc 91be cba9 af3d 05c6 d53d f958 6c3c
000002a0: 0a61 2dbd d062 29be d2ae 43be fdb8 35be
000002b0: e109 973d bfd9 383e 9328 d03d b8fc 333e
000002c0: 8a04 453e bbc0 9b3c 2713 36bd 6a0a 16bd
000002d0: 57c2 633c 039b e4bc 0e51 233b af88 14bd
000002e0: 030d fbbd 4c31 79bd 3208 86bd d8d9 b23b
000002f0: f965 5f3d 5ed4 7cbe 486f b63d 0e26 6f3d
00000300: 07a6 193d 3eb8 2d3d b605 9abe 88bf 653d
00000310: b84a 41bd ff7f 4f3d 80e9 83bc bf9a 86be
00000320: 452e 3b3e b11c d23d 886a 663e 3e69 293e
00000330: a1f6 6a3e e8fc a33e 0ec0 fa3c 34e0 b9bc
00000340: 76d9 36bd 8263 09bd 3511 543e 1952 a73d
00000350: 8eac aebd d567 4bbe a21c 7dbe d8f9 1ebd
00000360: c11e a8bd f6a6 48be af44 78be 87b8 57be
00000370: 51a4 d4bd 9505 25be d2ea 9ebd 13f8 7e3d
00000380: a4cc f93d adef 57be 9e4f cebd 4673 b6bd
00000390: ed62 38be a2c1 19be 4692 ec3b 2fc6 37be
000003a0: 1127 d4be 6bea 6fbd 8c9f 023e 28d3 3c3d
000003b0: fe7e 8ebe 930b 81be 21bc 6c3c 2680 9b3d
000003c0: 1ab0 febd 0c8a a7be 81bd 9ebd 9fe8 f4bc
000003d0: 0052 a9bd f93c f33d 53fa a8bd fef8 a43c
000003e0: 5e34 823b 16ef 56be a9e0 58bd 81c3 603b
000003f0: ad48 f8bd 8791 15be a3d3 a6bd c415 1fbe
-0.018976863 -0.1601691 -0.06136682 0.27276608 0.2384727 0.055360213 0.003988905 0.08003366
0.29367262 0.031273138 0.13105592 0.19132078 0.2646426 0.24664612 0.032501295 0.09350483
0.1100206 0.083899185 0.19074461 0.13154528 -0.051959693 -0.038252197 -0.16981736 0.093054146
0.21150744 0.03504782 -0.023851981 0.17040886 0.09208359 0.035804003 -0.08866284 -0.020455
0.121147364 0.15539883 0.0679587 -0.23275314 -0.15567021 0.063566215 0.23200753 0.20857781
-0.2598487 -0.21619505 0.068430744 0.35448834 0.2508014 -0.24848382 -0.36187935 -0.025762023
0.10248926 0.004613837 -0.26193893 -0.04768643 0.04882764 0.006617702 -0.12951429 -0.108242184
-0.31733665 -0.25895017 0.1124698 0.17098777 0.056931075 -0.39016584 -0.36212772 0.04712729
0.1869718 -0.04288197 -0.21853416 -0.23696363 -0.014697993 0.030854894 0.060403105 0.07744576
0.2504452 0.03344092 -0.21257529 -0.06391036 0.059712842 0.16740155 -0.052259516 -0.25582114
-0.047566544 -0.13103746 0.011026194 0.16126552 -0.0035625435 -0.23831522 -0.10890103 -0.18285026
-0.07501078 0.0646059 -0.13910833 -0.12770817 -0.35355255 -0.20220219 -0.033298608 -0.022261584
-0.07999508 0.071147636 0.061793935 -0.086592175 -0.1666974 0.041041907 -0.007542975 -0.111415766
-0.032041192 -0.057147104 0.0036584632 -0.005142784 0.116303645 0.0233185 0.07554436 0.060482927
0.16389558 0.17325452 0.07789162 -0.089015916 -0.092607595 0.017096434 -0.004605228 0.11952554
0.07480067 0.0014978006 0.08831239 -0.005502919 0.13124877 0.035425205 0.13388756 -0.05954616
-0.019873338 -0.11533799 0.24377576 0.13950466 0.19552903 0.14135572 -0.1717623 0.23283751
0.30072916 0.3771449 0.23041356 -0.26371646 0.052158583 0.24618128 0.24207719 0.113506705
-0.15081652 -0.042438235 -0.05921573 -0.025173161 0.04555888 -0.08424746 0.122644685 0.06934455
-0.0019148638 0.111217976 -0.07929404 0.18653585 0.11120956 0.06859073 -0.09171898 -0.25495538
0.23835966 0.1789228 0.1230796 -0.1670374 -0.28512916 0.08577307 0.1043816 0.01442551
-0.04232887 -0.165416 -0.19109657 -0.17746349 0.07374931 0.18051814 0.10163989 0.17576873
0.19240013 0.0190128 -0.04445186 -0.036631025 0.013901315 -0.027905947 0.0024920139 -0.036263164
-0.12258341 -0.06083803 -0.06544532 0.005458098 0.054540608 -0.24690387 0.08907944 0.0583859
0.03751185 0.042412035 -0.30082482 0.05609086 -0.047190398 0.050659176 -0.016102552 -0.26289937
0.18279369 0.10259379 0.22501576 0.16544053 0.22945644 0.3202889 0.030609157 -0.022689916
-0.04464098 -0.033542164 0.20709689 0.08169956 -0.08529006 -0.19863828 -0.24717954 -0.03881249
-0.08208991 -0.1959494 -0.2424495 -0.21066485 -0.10382903 -0.1611541 -0.07759632 0.0622483
0.12197235 -0.21087523 -0.100737795 -0.089087054 -0.18006487 -0.15015271 0.0072195856 -0.17946695
-0.41436055 -0.058573168 0.12756175 0.04609981 -0.27831262 -0.25204143 0.01444915 0.07592802
-0.124359325 -0.3272251 -0.07750989 -0.029896079 -0.082675934 0.11876864 -0.082508706 0.02013826
0.003973528 -0.20989642 -0.052948628 0.0034296217 -0.12123237 -0.14606296 -0.08145835 -0.15535647

conv_2.bias f4 [32]
00000000: 7a90 c03c 887f 8dbc 1733 153d f638 9b3b
00000010: 2eb4 dbbc 4110 b33b 09f1 d03a 9843 913c
00000020: 5471 bf3c c76c 29bc 07de 913c 4bf7 dd3b
00000030: 6299 80bc 676b 5d3a 9882 613c d63f e53c
00000040: ecc8 393d ab3b 483d 51e1 50bb 5039 063c
00000050: 5373 42bc 7cda 15bc e26b 213d 5926 78bb
00000060: 7ee3 153b f41f f23c 4d0d 4cbd 6d59 9f3c
00000070: 6573 783c 0c66 e23c a72e 00bd 9b0f 0c3d
0.023506392 -0.017272726 0.036425676 0.004737015 -0.026819315 0.005464584 0.0015940975 0.017732427
0.023369469 -0.010340876 0.017806066 0.0067738644 -0.015698139 0.0008446485 0.013764046 0.02798454
0.04535763 0.04888503 -0.003187258 0.008192375 -0.011868316 -0.009146329 0.039409526 -0.0037864654
0.0022871192 0.029556252 -0.049817372 0.019451821 0.015164231 0.02763655 -0.03129449 0.03419457

batch_norm_2.weight f4 [32]
00000000: 247a 6c3f 830e 753f ec7d 283f dad4 843f
00000010: c3d3 a83f e832 583f e7a6 823f f846 6c3f
00000020: 1baf 803f 6183 8a3f a57e 663f 9fcd ae3f
00000030: 00c4 6e3f 5f92 7f3f 098e 683f 33af 5a3f
00000040: 5d7d 583f c769 823f 21fc 8d3f 2445 923f
00000050: 4af7 683f 4fe7 383f 16fd 873f 97e6 953f
00000060: 18f7 813f e91e 653f 6382 5e3f 82ae 863f
00000070: 9742 0c3f 3dc1 5e3f dc0c 6d3f a8e7 a13f
0.9237387 0.9572527 0.6581714 1.0377457 1.3189625 0.84452677 1.0207185 0.9229579
1.0053438 1.0821344 0.90036994 1.36565 0.9326782 0.9983272 0.9084173 0.8542358
0.8456629 1.0188531 1.1092569 1.142735 0.91002333 0.7222795 1.0624111 1.1710995
1.0153532 0.8950029 0.86917704 1.0522006 0.5478911 0.8701361 0.92597747 1.2648821

batch_norm_2.bias f4 [32]
00000000: d7ac 2cbe 6d0e 2bbe 2591 37be 1404 4abe
00000010: d3e3 aebe 8d79 b5be ce5b 14be 5d86 fabe
00000020: c861 9dbe fdb2 acbe 43f7 25be 148f 90be
00000030: 325e 85be 2085 09bf 31dc 9cbe 09a8 70be
00000040: a409 19be 2e8f dbbe 5d3b 48be 4412 f1be
00000050: e6aa 31be b2ee 7ebd 37fc ccbe 7bb1 14bf
00000060: 7d65 3fbe 6f6c eb3d 57a2 19bd d921 4fbe
00000070: 2e08 12be fc8c 39be 99b3 9bbe 2fa4 3fbe
-0.16862808 -0.16704722 -0.17926462 -0.19728118 -0.3415819 -0.35444298 -0.14488146 -0.48930636
-0.30738664 -0.33730307 -0.16207604 -0.2823416 -0.26048428 -0.5371876 -0.30636743 -0.235016
-0.14945084 -0.42882675 -0.19553895 -0.47084248 -0.17350349 -0.062239356 -0.40036175 -0.58083314
-0.18691058 0.114952914 -0.037508335 -0.20227756 -0.14260933 -0.18120188 -0.3041046 -0.18714975

batch_norm_2.running_mean f4 [32]
00000000: 4543 53c0 87bf d6c0 245a 94c0 6abf e3c0
00000010: 7fd1 e9c0 c934 a4c0 e771 91c0 19b1 b7c0
00000020: 2124 8ec0 b0fa 0cc1 606b 02c1 8bd8 bac0
00000030: c204 adc0 f424 c5c0 d3df b5c0 46c5 c9bf
00000040: 5fa7 e8c0 d664 9ebf 31ab d6c0 a87b f1c0
00000050: e51d a3c0 3b56 f53f 3bd0 9ac0 2e0a 01c1
00000060: 6247 95c0 b4af 3ec0 d117 0bc1 7d79 4ac0
00000070: 96dd b440 6ac5 a8c0 5d22 a1c0 40cc 1bc1
-3.3009808 -6.71088 -4.6360035 -7.117116 -7.3068233 -5.1314435 -4.545154 -5.7403684
-4.4419103 -8.811203 -8.151215 -5.8389335 -5.406831 -6.160761 -5.6835723 -1.5763328
-7.270431 -1.2374523 -6.7083974 -7.5463448 -5.097399 1.916694 -4.8379188 -8.064985
-4.6649637 -2.979474 -8.693315 -3.163665 5.652049 -5.2740984 -5.0354447 -9.737366

batch_norm_2.running_var f4 [32]
00000000: 739a 8a42 cba0 1842 89be cb41 10a2 ac42
00000010: 1bbe 6e42 aa83 a541 3764 7b42 99c2 f241
00000020: b87f 2e42 78c6 4d42 f581 1d42 22cd 8042
00000030: 90bd 1542 b9d5 2c42 2a48 1642 969a 2e42
00000040: 90dd 3042 dd0e f841 272b 2242 9968 0742
00000050: 8313 dd41 214c 2642 7a3c 5342 a1dc 9242
00000060: 33ea 1e42 b303 f941 e9b6 ff41 4074 2742
00000070: 9565 f341 9b3d 3642 eb7d 9a41 40a7 3642
69.30166 38.157024 25.468035 86.31653 59.68565 20.68929 62.847866 30.345018
43.624725 51.443817 39.37691 64.40065 37.43512 43.208714 37.570473 43.650963
44.21637 31.007257 40.54214 33.852146 27.634527 41.574345 52.80906 73.430916
39.72871 31.126806 31.964312 41.863525 30.4246 45.56016 19.311483 45.66333

conv_3.weight f4 [32, 32, 5, 5]
00000000: c760 033e 5d09 d2bc 7696 acbd d215 68be
00000010: 3c2d acbe a500 b43d 436f c43d 26f2 af3c
00000020: 72f1 47be 83c8 52bd 9f7a 463e f7cd 9e3d
00000030: 8dd4 133d 8067 39bd 2b52 18bd d34b 033e
00000040: f901 453e 6649 af3d 561b 9ebd 0e8e b7bd
00000050: 1fb6 703e fd98 873e 0bab 663e 6a7e 8b3e
00000060: 5a5f 723e e388 4bbd f322 d03d 33da 883d
00000070: d4de 073e da81 fabc 7b68 ffbc ec6c e8bd
00000080: 26f9 09bc 8854 f63d e305 9dbe 405a b5bc
00000090: 0446 56be a669 9ebd 2dab 75bc c526 1dbe
000000a0: 77d2 a5bd b3c6 bfbd f09a f93c 11aa 8d3d
000000b0: d1a3 123e d2de 12be af23 6e3c 0888 1bbd
000000c0: ff43 42be fd72 08be 426c 15bd 5cb6 a63d
000000d0: f3da 7e3d 7b16 9abd f0c1 17be b334 9cbd
000000e0: ef61 083e 2299 80bc 234a d7bd e867 9ebe
000000f0: 451a 83be 1f8a a5bd 3469 08be 52bb 04be
00000100: ebdf 0bbe 5169 83bd bc8b 253c 7bbb 683d
00000110: 591b ab3d 72f1 f23d ce9f 1fbb 0960 483d
00000120: f729 8e3d 2e0e 663d 23bd a8bd 95f9 993e
00000130: 86d1 8dbd cc23 bf3d 6b37 ba3d 6fbb 743d
00000140: 297e 113e a6e9 2dbe a360 fdbd 5ed5 37be
00000150: 3a8d 25be 5abf d53d 320d 49bd af99 693c
00000160: ed56 823c 3cad 393b 5bec e83c 0303 d1bd
00000170: bdc1 23bd 1c6d d4bc ed32 aebd d2cb 5d3d
00000180: d110 debd ed19 9e3d a4fc dbba 9c0b b1bb
00000190: 2e91 043f ff0f fa3c 2c72 72be 52e8 68be
000001a0: 102b 96be c807 ec3d 1d67 a9be a5d0 16bf
000001b0: 917d debe 1d20 acbe 073d cd3d 55f9 fb3c
000001c0: 062e 5ebe 9aa7 2dbe 7239 1cbd 3702 233e
000001d0: df39 1c3e 49c1 de3d 7f65 773e 7f74 7a3e
000001e0: 31cc 773e 4388 173e acb4 6f3e 4cad 9c3e
000001f0: e895 353e a47b cebe ef1b 60be e341 73be
00000200: d99f d5bd b783 51be f06c e23d a8a8 113e
00000210: ed77 0f3d 16a2 043e 139f 0abc a370 3dbd
00000220: c44e da3b e1e1 3fbe 6dc2 3bbd 7119 adbd
00000230: ed19 0abd a711 aabc 010c 0a3a 12aa 0abc
00000240: 68eb 5dbc 1730 d33d c6f1 dd3c 758e 20bd
00000250: bf48 3abd cbc0 ac3d 513d 153e fd3f 84bd
00000260: 9e78 eb3c c434 0b3e 0833 cc3e 6163 41bd
00000270: 1dab 20be fb20 003e 5033 b6bb 47d2 823e
00000280: 47a3 17be d092 92be 91b1 a73d 9654 00be
00000290: 8507 eb3d b6ea 6dba 9b71 56bd 969e 903d
000002a0: 9a6a 3abe bbf5 bbbd 677d 453e bbd2 173d
000002b0: ca99 edba ff01 05be 62de d8bd 2a16 2dbd
000002c0: 7fe8 0c3e 8c6f 9bbd 265b 31bd c8ac c6bd
000002d0: b108 ad3d 8c4d 773c 4731 2bbe 4247 0e3e
000002e0: 973e 80bc f9d0 1b3e 45b8 773d 524c 50bc
000002f0: 23fb 853d 3b52 afbb c777 51bd d900 debd
00000300: d20b b9bd 83c8 9dbc 7c3c 983d a310 393d
00000310: d354 023e cbe7 41be 460a 483d 8383 0b3e
00000320: 94ed 30bc 7ae3 31be 46b5 3abe 2f10 ba3d
00000330: 8722 613e 0c37 abbd 0201 2bbe a5ba d8bd
00000340: 6814 1cbd daa8 dd3d d3a9 92bd a55f a7bd
00000350: 7e45 9dbd 7a01 00be 3b9e 04bb f663 493a
00000360: a1ff 07be 1570 2fbe 4b1f 3ebe b290 bfbd
00000370: 6249 b3bb e816 68bd 2ae6 0bbd 6d89 57bc
00000380: b0e2 68be eb02 7c3e 6775 aebd 4c4d 86bc
00000390: ae59 333c cbe6 a53e b263 073e 12e7 7cbd
000003a0: 35c2 05bd 4ff1 43bd daf7 923e 1bc0 863e
000003b0: c271 153d 75c5 e33d 1e5d ec3d 7361 bf3e
000003c0: 9224 953e c54d 4d3a 0e38 a53d d6c9 dc3d
000003d0: bfdf ab3e e061 6b3e 35f6 4b3e e32d 833e
000003e0: 26c0 2d3e 3fca 493e bdf5 f63e c8e1 1d3e
000003f0: 8145 0c3e 87d5 4d3d 72e1 ca3c db79 ab3e
0.12829886 -0.02563923 -0.08427136 -0.22664574 -0.3362826 0.087891854 0.09591534 0.02147777
-0.19525698 -0.051460754 0.19382714 0.077541284 0.036091376 -0.04526472 -0.037187736 0.12821893
0.19239034 0.085589215 -0.07720058 -0.08962642 0.23506974 0.26483908 0.22526185 0.27244884
0.23669186 -0.049691092 0.10162916 0.06682243 0.13268596 -0.030579496 -0.03117775 -0.113489
-0.008421218 0.12027842 -0.30668554 -0.022137761 -0.20925146 -0.077349946 -0.014994425 -0.1534682
-0.080967836 -0.09364071 0.030469388 0.06917203 0.14320303 -0.14342812 0.014534875 -0.037971526
-0.18971251 -0.13325115 -0.036480196 0.08140251 0.062220525 -0.07523819 -0.14820075 -0.07627239
0.13318609 -0.01569802 -0.10512187 -0.3093865 -0.2560598 -0.08082985 -0.13321382 -0.12962082
-0.13659637 -0.06416572 0.010104116 0.05681942 0.083548255 0.11862458 -0.0024356726 0.04891971
0.06941598 0.056165867 -0.082392 0.30073228 -0.06924729 0.093329996 0.090926014 0.059749063
0.14208283 -0.16983661 -0.123719476 -0.17952487 -0.16167155 0.10436888 -0.04908485 0.014257832
0.01591059 0.0028332015 0.028433016 -0.102056526 -0.039979685 -0.025930934 -0.08505807 0.054149456
-0.10843051 0.07719789 -0.0016783667 -0.0054029953 0.51784027 0.030525206 -0.23676366 -0.22744873
-0.2932973 0.11524922 -0.33086482 -0.58912116 -0.43455175 -0.3361825 0.10021406 0.03075854
-0.21697244 -0.16958466 -0.03814072 0.15918814 0.15256451 0.1087671 0.24159811 0.24458502
0.24198987 0.14798073 0.23408765 0.30600965 0.17732966 -0.40328705 -0.21885656 -0.23755603
-0.10430879 -0.20460401 0.110559344 0.14224494 0.03502648 0.12952456 -0.008460778 -0.046249997
0.0066622216 -0.1873851 -0.045839716 -0.08452118 -0.03371613 -0.02076037 0.0005266071 -0.0084633995
-0.013544895 0.10311907 0.027092826 -0.039198358 -0.045479532 0.0843521 0.14574172 -0.06457517
0.028744038 0.13594347 0.39882684 -0.047213916 -0.15690275 0.12512581 -0.005560316 0.25551054
-0.14808379 -0.28627634 0.08188165 -0.12532267 0.114760436 -0.0009075807 -0.052354436 0.07061498
-0.18204728 -0.09177729 0.19286118 0.037066203 -0.0018127498 -0.12989043 -0.10589291 -0.042257465
0.13760565 -0.07589635 -0.043299817 -0.09700924 0.084489234 0.015094172 -0.16718017 0.1389437
-0.015654845 0.15216435 0.060478467 -0.012713509 0.06542041 -0.005350379 -0.05113962 -0.108400054
-0.09035458 -0.01926065 0.074334115 0.04518188 0.1272767 -0.18936078 0.048837923 0.13624386
-0.010798831 -0.17371932 -0.18233213 0.09085118 0.21985827 -0.08360109 -0.16699603 -0.105824746
-0.0381054 0.108232215 -0.07161298 -0.081725396 -0.0767927 -0.12500563 -0.0020235914 0.0007682437
-0.13281108 -0.171326 -0.18566625 -0.0935377 -0.0054713944 -0.05666247 -0.03415505 -0.013155323
-0.22742724 0.24610488 -0.085184865 -0.01639428 0.010946674 0.32402644 0.13221624 -0.061743803
-0.032655913 -0.04783755 0.2870472 0.2631844 0.03648544 0.11121646 0.11541198 0.37379035
0.29129463 0.0007831718 0.08067332 0.10780685 0.33569142 0.22986555 0.1991814 0.25620946
0.1696783 0.19706057 0.48234358 0.1541816 0.13698389 0.050252464 0.024765704 0.33491406

conv_3.bias f4 [32]
00000000: 6e13 a23c 37eb eebc 7dd0 463c 330a 07bc
00000010: 3de8 5e39 3959 4ebd 537c 91ba d0cf 3cbd
00000020: b8b2 823b 232d aebc b6ba c9bc 5cc1 71bd
00000030: 7147 76bd e455 35bd 7db8 863b b7eb 09bc
00000040: 725a 9abc c2ad c33c 3da2 31bd 321f 24bd
00000050: c74e 843a ac84 3d3c 54f8 b13b d721 97bb
00000060: 6603 583c 5a11 39bd 62f2 0fbb d0ee 983c
00000070: 7bed 7cbd eca5 33bc 378b 08bd efad deba
0.019784655 -0.029164894 0.012134668 -0.008242178 0.00021258085 -0.050378058 -0.0011099674 -0.046096623
0.00398859 -0.021261757 -0.024625164 -0.059022292 -0.060126726 -0.044271365 0.004111348 -0.008418015
-0.018841956 0.023886565 -0.043367613 -0.040068813 0.0010094278 0.011567276 0.0054312143 -0.0046121883
0.013184404 -0.045182563 -0.002196454 0.018668562 -0.061749917 -0.010964852 -0.03333589 -0.0016989092

batch_norm_3.weight f4 [32]
00000000: 7e77 5f3f 941b 853f 4883 803f 883c 843f
00000010: 745e 533f e5bf 933f 8a0c 643f c1c5 823f
00000020: 24d1 623f 0589 493f 8432 693f 78a1 683f
00000030: d762 7c3f 5169 7b3f 5bda 5e3f 133e 5f3f
00000040: e050 683f 0be4 763f 9e60 603f de35 703f
00000050: 4988 753f 0ded 643f 53f7 823f 8b37 6c3f
00000060: 5563 4c3f 3b26 5c3f 84d1 843f b743 4d3f
00000070: 84c5 713f aa53 773f c661 653f 48f9 773f
0.87291706 1.0399041 1.0040064 1.0330973 0.82566 1.1542937 0.89081633 1.02166
0.88600373 0.787247 0.91092706 0.9087138 0.9858832 0.98207575 0.87051934 0.8720409
0.90748405 0.96441716 0.87647426 0.93832195 0.9591108 0.8942421 1.0231727 0.9227225
0.7983907 0.85995835 1.0376439 0.8018145 0.9444201 0.96612036 0.89602315 0.9686475

batch_norm_3.bias f4 [32]
00000000: 1667 aabe 4ff6 11bf cbb0 1cbf 28a9 ddbe
00000010: ed0e 8abe f371 dfbe dc0f 37bf 931e e8be
00000020: 7a02 95be 4022 82be e7b2 0abf 88df 04bf
00000030: 1d5b 98be 1e89 19bf e514 07bf 6460 8abe
00000040: 3ec0 d4be 0c0d 26bf 8b26 19bf 2e0e bbbe
00000050: 5aa0 0abf 7d24 debe f13a 6abe 232c b2be
00000060: 4973 0abf fe17 04bf c80e a9be 55a3 cbbe
00000070: 6aa6 26bf 4f00 f2be 12ef 45bf 5337 d2be
-0.33281773 -0.5701646 -0.61207265 -0.43293118 -0.26964512 -0.43641624 -0.71508574 -0.45335826
-0.29103452 -0.25416756 -0.54179233 -0.5190358 -0.29757014 -0.5997485 -0.5276626 -0.27026665
-0.4155292 -0.6486366 -0.59824437 -0.36534256 -0.5415093 -0.43387213 -0.22874047 -0.347993
-0.5408216 -0.5159911 -0.3301909 -0.3977305 -0.6509768 -0.4726586 -0.7731792 -0.41057834

batch_norm_3.running_mean f4 [32]
00000000: e465 8d3f fa3f bebf 0d42 51c0 f8db 14c0
00000010: a00b b1bf 2b88 37c0 54c2 e7bf 1a26 fbbf
00000020: 42cb 83bf 3b40 733d 5e30 4dc0 ffbc 35c0
00000030: b726 02c0 ce7a 06c0 4b31 54bf fde7 5cbf
00000040: c97e 0dc0 42a6 38c0 0d22 31c0 2132 3fc0
00000050: 1a8c 1ec0 8324 1cc0 329c 86c0 823b ef3e
00000060: f559 18c0 ec66 97c0 5d57 c5bf a68a 993f
00000070: 0953 71c0 ecb0 d1bf b39f 0ec0 84d4 a0c0
1.104672 -1.4863274 -3.2696564 -2.3259258 -1.3831673 -2.867686 -1.8106179 -1.9621003
-1.0296404 0.059387427 -3.206077 -2.8396604 -2.033613 -2.1012454 -0.82887715 -0.86291486
-2.2108634 -2.8851476 -2.7677033 -2.9874346 -2.4773011 -2.4397285 -4.206567 0.46725088
-2.3804905 -4.7313137 -1.5417286 1.1995437 -3.770693 -1.6382117 -2.2284973 -5.025942

batch_norm_3.running_var f4 [32]
00000000: 7355 1541 a58f 0f41 829c 2441 c750 2f41
00000010: 6857 f240 113a 1441 dafb 0141 13ad f640
00000020: e345 0441 4ada 0241 df8d f640 a74b 0a41
00000030: 7025 f740 4320 1841 3d8f 0241 cf8b f040
00000040: e259 0941 c8e2 1f41 e768 d840 19c6 2241
00000050: d344 fd40 e65c f940 c386 5b41 7981 1441
00000060: 3989 0941 5d9a 0c41 5979 0141 1c16 0541
00000070: 01fe 1741 b7f5 1641 cb6c ae40 9a93 4541
9.333362 8.972569 10.28821 10.957221 7.5731697 9.264176 8.123987 7.708627
8.267062 8.178293 7.7048182 8.64347 7.72332 9.507876 8.15997 7.5170665
8.584444 9.9928665 6.7628055 10.173364 7.9146514 7.79259 13.720401 9.28161
8.596002 8.787686 8.092126 8.317898 9.499513 9.434989 5.4507804 12.348536

output.weight f4 [10, 512]
00000000: 86ae 4a3e 8f7d a13e e8f0 5f3e 6d7b 823e
00000010: efc4 343e 58b3 183e a4f5 2d3e 92d0 013e
00000020: b66c 0b3e 5b6b 4e3e 6909 3c3b b76d 88bc
00000030: 4e1a b43c a1e0 673e 485d 863d d0dd 1cbc
00000040: d9cf 573d 2431 e03c f998 d33c 900f 81bd
00000050: 10a2 83bc 70aa 343c d75d 5d3d ff96 a8bd
00000060: 64c5 bcbc 6619 a1bd ed62 54bd 96ce 11be
00000070: 6813 7aba 7c58 10be 2d53 4ebe e83b 8bbe
00000080: aed1 62be 3c98 6dbd 4c39 07be a92b 28be
00000090: e6b7 03bd d5cb 87bd fe25 3abd d4db d93c
000000a0: c195 0fbe 072e 16be 83c1 bbbd 8b17 6bbd
000000b0: 5953 72be c3d1 5bbe 8f5a 71bd 3b58 81be
000000c0: a621 dfbc 8d32 f03c 9768 7dbc 1e4d 103e
000000d0: 5d9a cd3d 3246 64bd 0f75 c93c dd5a 343d
000000e0: e07c 2b3c 328f 1fbd 58e4 c6bd 4092 063d
000000f0: 2286 93bc d534 353b 33f5 5cbd b0e4 77bd
00000100: d9c7 723e 2f8e 453e ee53 5d3e dbed 1b3e
00000110: 42a1 863e 8dd1 683e 929d 473e 2437 2f3e
00000120: db51 333e a13c 3e3e 1689 083e 6f0e 443e
00000130: 6977 423e bd5e 473e d580 d63d cbcb 253e
00000140: 26e9 18bd 791c ba3d 2ecc 2f3d aaf6 d03c
00000150: 19c7 bd3c 9605 6a3c 6460 d23c 1d6c cb3d
00000160: 4b04 9cbd 6347 393d 9208 4a3d 89d3 103d
00000170: 46a1 f7bd a30d 27be 1015 70bc c9a4 ecbc
00000180: 8b8e 0dbe 7d35 7b3d cb85 523d e489 96bd
00000190: 99b6 9e3c 383a d53d edff 7e3d 3a62 1a39
000001a0: 8894 8ebd e9a2 2fbd c0ef a33d c174 aebc
000001b0: 4e28 0c3e c2fb 5c3c ed32 98bc 6f79 9ebc
000001c0: 81cb afbd a336 16bd 46bc 733d 3e16 0ebe
000001d0: c063 adbc 7c80 e83c cab6 e53c 895b 6dbd
000001e0: 89ee ecbc 8521 5bbd 7fc6 a0bc 6dd7 82bd
000001f0: 4cd2 cb3d 2a0c 503d 6244 0b3d a92c 4dbd
00000200: 03c1 f83d c370 bb3d 01d2 083e d3d2 ee3d
00000210: 5811 a43d d198 2b3d ce9c 953d 9f51 fc3d
00000220: 8dee ff3d 11a0 063d 7218 053e d16e e03d
00000230: e3cb 313e c4fd 973d 8479 7b3d 8767 be3b
00000240: 82c3 98be 64dc 4fbe 945e 20be d8be dbbd
00000250: deec 4dbc 55b4 c2bd 71a9 12bd 48d1 f23d
00000260: e089 4bbe 6739 08be ef66 d3bd 5269 29bc
00000270: bf51 23bd d16b 44be 00af 21be 6e0a 11be
00000280: 826f 223e 6c02 623e 6b7d 0e3e 2fb9 c63e
00000290: a5ba 903e 21dd 8e3e 768c 803e 61c7 d43e
000002a0: 0fa0 8f3e b88a c83d a963 0d3e 268a 8c3e
000002b0: 825e 853e 17ca 9f3e 756c 803e c041 0f3f
000002c0: d034 c8bd 2ae8 33be e962 c8bd 0a9d 4fbe
000002d0: 30f9 0bbe ab26 33be 7704 46bd 15f9 88bd
000002e0: 87cf 4dbd 5e3c 17bd 9837 a3bd aece 00be
000002f0: f348 8dbd bf0a 603c 3383 e6bd 02aa de3c
00000300: e262 ae3c 7b7a 0cbd fd11 753b 7085 25be
00000310: 9c53 613c 8301 50bd 91be 87bc 990d bdbd
00000320: 4197 cdbc 32df 8abd a598 98bd 3423 f0bc
00000330: 47ee 52bd 2c69 c3bd 4460 acbd b11e f9bd
00000340: 6424 0fbd 722b ec3c 03af 0a3d e8b7 41bd
00000350: 8f49 e4bd f784 88bd 8db0 cabd 65ff b1bd
00000360: 511f 8bbd b81c cd3d f94e 24bc a0e8 c3bd
00000370: 8196 c73d f376 b13d 5e80 c4bc 7ef6 943d
00000380: dd45 74bd 9cb8 c53c d759 b13d 22d7 013e
00000390: 3656 ad3b 38b5 b7bc 5577 e3bc 9e79 2bbd
000003a0: 9678 93bc 9497 06be 7fe8 d0bd bb09 adbc
000003b0: af10 57bd af00 6bbd c146 dcbd c553 9ebc
000003c0: 87ec a73d da1a c7bd 0662 04bd f994 a5bd
000003d0: 1ba2 d03c 9107 febb 081a 843d e41f 09bd
000003e0: ebb0 003d 89ba 0b3c 4115 303c 5058 283d
000003f0: c550 793d 196f 503e 547f 3c3e 996b 743e
0.19793138 0.31541106 0.21869242 0.2548479 0.17653249 0.14912164 0.16988236 0.1267722
0.13615689 0.2015814 0.0028692132 -0.016653879 0.0219852 0.22644283 0.06560761 -0.009574369
0.052688453 0.027367182 0.025829779 -0.063017964 -0.016068488 0.011026964 0.05404457 -0.08231925
-0.023043342 -0.078661725 -0.051852155 -0.14238963 -0.0009539635 -0.14096254 -0.20148917 -0.27194142
-0.22150299 -0.05800651 -0.13205451 -0.16422905 -0.0321578 -0.06630675 -0.04544639 0.02659408
-0.1402197 -0.14665996 -0.09167769 -0.0573955 -0.23664607 -0.21466736 -0.058924254 -0.25262627
-0.027237725 0.02932098 -0.015466831 0.14091918 0.10039208 -0.055731006 0.02459195 0.044031966
0.010466784 -0.03895492 -0.09711522 0.03285432 -0.018008295 0.0027649899 -0.053944778 -0.060520828
0.23709048 0.1929252 0.21614048 0.15227453 0.26294905 0.22736187 0.19493702 0.17110878
0.17511694 0.18577816 0.13333544 0.19146131 0.18990864 0.19469734 0.104737915 0.16191022
-0.037331723 0.09087462 0.04291933 0.025508244 0.023166226 0.014283558 0.025680728 0.0993273
-0.07618006 0.045234095 0.04932458 0.035357986 -0.12091307 -0.16313796 -0.014653459 -0.02888717
-0.13823907 0.061330307 0.051397126 -0.07350519 0.019374179 0.10411495 0.06225579 0.00014723177
-0.06961924 -0.042879973 0.08004713 -0.021295907 0.1368725 0.013487758 -0.01857897 -0.019345013
-0.08583737 -0.0366732 0.059505723 -0.13875672 -0.021165729 0.028381579 0.028041262 -0.057948623
-0.028922336 -0.053498764 -0.0196259 -0.063887455 0.0995222 0.05079285 0.03400076 -0.05009142
0.12146189 0.09152367 0.1336136 0.11661305 0.080111206 0.041893784 0.07305299 0.123202555
0.12496672 0.032867495 0.12997606 0.109586366 0.17362933 0.07421449 0.061395183 0.0058106813
-0.2983666 -0.20298916 -0.15661079 -0.1072976 -0.012568681 -0.09507052 -0.035806123 0.118563235
-0.19876814 -0.13303147 -0.103223674 -0.010340052 -0.03987288 -0.19181754 -0.15789413 -0.14164135
0.1586285 0.22071236 0.1391503 0.3881316 0.28267398 0.27903083 0.25107163 0.41558364
0.28051803 0.097920835 0.13807549 0.2744915 0.26048666 0.3120887 0.25082746 0.559597
-0.09775698 -0.17569032 -0.097844906 -0.2027475 -0.13669276 -0.1749522 -0.0483441 -0.066881336
-0.05024674 -0.036922805 -0.07969588 -0.12578842 -0.068986796 0.013674437 -0.11255493 0.027180675
0.021287385 -0.034296494 0.0037394755 -0.16164184 0.013752844 -0.05078269 -0.016570361 -0.09231109
-0.025096538 -0.067808524 -0.0745099 -0.029313661 -0.05149677 -0.09541544 -0.08416799 -0.12164057
-0.034946814 0.02882931 0.03385831 -0.047294527 -0.11146843 -0.06665986 -0.09896956 -0.08691291
-0.067930825 0.10015243 -0.010028594 -0.09565854 0.09745503 0.08665266 -0.023986991 0.07273577
-0.05963694 0.02413588 0.08659714 0.12679723 0.005289818 -0.022425279 -0.027766863 -0.04186403
-0.018001836 -0.1314376 -0.10200595 -0.021122804 -0.052506145 -0.0573737 -0.10755683 -0.019327054
0.08199411 -0.097219184 -0.032320045 -0.08085055 0.025467923 -0.007752367 0.064502776 -0.03347768
0.031418722 0.00852836 0.010747255 0.041099846 0.060868043 0.2035488 0.18407947 0.2386917

output.bias f4 [10]
00000000: f626 573c f577 13be 7c6a de3c e283 3c3e
00000010: a363 443e fd0f e5bd 5cf5 083d 8499 59be
00000020: f52c 1f3e ed05 dcbd
0.013131848 -0.14401229 0.027150385 0.18409684 0.19178633 -0.1118469 0.033437118 -0.21249968
0.15544493 -0.10743318
