runs/0005_SkipCNN_2_bsz-128_lr-0.001_ep-60-desc-.pth (torch, 239453 bytes, 20 tensors)

conv_1.weight f4 [32, 3, 3, 3]
000000 7f 2e 8a 3e 67 9a ac bd dc 4a 9c bd fc dc 21 3e
       0.269886 -0.084278874 -0.07631466 0.15806955
000010 62 8f b8 3d 55 56 4a be 95 70 1f 3e 00 a0 fd bc
       0.09011723 -0.19759496 0.1557029 -0.030960083
000020 12 97 8a be a5 60 39 3e ff 8e 0c 3e 37 78 24 be
       -0.27068383 0.18103273 0.13726424 -0.16061483
000030 b5 78 63 3e 06 1a e5 3b b9 b8 52 be e9 00 57 3d
       0.22214015 0.0069916276 -0.20578279 0.052491102
000040 13 b8 1e 3d a6 f6 25 be fb 88 c8 bc 61 da 64 bd
       0.038749766 -0.1620737 -0.02447938 -0.055872325
000050 5e 4d 45 be da 18 e8 3d 04 52 a9 3c b5 f8 b3 bd
       -0.19267794 0.11332865 0.02066899 -0.087876715
000060 6f 0f 88 3e 35 51 76 bd 67 ee 14 be f0 44 ec bd
       0.26574275 -0.06013604 -0.14544068 -0.11536586
000070 c9 aa 34 be ec a1 1a 3e d3 43 0b be d1 c2 62 3e
       -0.17643274 0.15100831 -0.13600092 0.22144629
000080 0e e5 54 3d a7 85 f9 3d c4 91 4c bd 2c a2 c5 3d
       0.051976256 0.12183695 -0.0499437 0.096500725
000090 23 0d cb 3c 92 d7 b7 be 78 98 3d 3e 71 5e 54 be
       0.024786538 -0.35906655 0.18515193 -0.20739152
0000a0 a8 39 bf 3e 57 8e 1d bd 02 f3 10 3e 6b 87 93 bd
       0.37348676 -0.038465824 0.141552 -0.07203563
0000b0 90 d8 48 be 95 aa 9a bd 5f 36 e9 bd fc b3 d2 3d
       -0.19613862 -0.07552067 -0.113873236 0.102882355
0000c0 ca 67 e3 bd 9b 1e 9e 3e d4 2a 60 3c 1c 32 38 3e
       -0.111037806 0.30882725 0.013682086 0.17987865
0000d0 94 83 7b bd bf 35 60 be ad 47 a4 3d e8 ff 47 be
       -0.06140478 -0.21895503 0.080214836 -0.19531214
0000e0 ed 2e 4e 3e ac c0 04 39 48 d9 ab be 94 57 af bd
       0.20135088 0.00012660277 -0.3356421 -0.08561626
0000f0 c4 9e 43 3e 01 48 a3 bd 93 24 a7 3e 1e 63 f5 3d
       0.19103533 -0.07972718 0.3264509 0.11981796
000100 de b0 d1 bd a1 e9 35 3e 61 e5 0f bd 28 65 65 be
       -0.10238813 0.17764904 -0.035130862 -0.2240187
000110 5d f5 03 3e 67 e3 eb 3d 5d e5 69 be 06 3a 6d 3e
       0.12886567 0.11517983 -0.22841401 0.23166665
000120 ea 4e 91 3d ee 33 01 bd b2 2e 31 3d c1 14 ab 3c
       0.0709513 -0.031543665 0.043257423 0.02088392
000130 9f f4 62 bd 07 67 8c 3c 24 64 55 3d ac a5 da 39
       -0.05540907 0.017138971 0.052097455 0.00041703635
000140 30 ea 8d bd 06 27 6f bd 80 2f 71 3e 35 12 44 be
       -0.06929433 -0.058386825 0.23553276 -0.1914757
000150 70 9d 51 3e b4 ed 9b bc ff 2f 2a be 34 d5 50 3e
       0.20470214 -0.019034244 -0.16619872 0.2039383
000160 5c c0 3d be fe c4 c2 3b 7e fa 21 be 03 21 1d 3e
       -0.1853041 0.0059438935 -0.15818211 0.15344624
000170 47 3d e0 bc 42 08 42 3d 4b b6 6a bd bd d5 5c bd
       -0.02737297 0.047371157 -0.057302754 -0.053914774
000180 66 b7 29 3d d0 60 9e be 8e 07 80 3e 13 8b 37 be
       0.041434668 -0.30933237 0.25005764 -0.17924146
000190 38 7f 53 3e 1b a7 9a bd 47 f1 08 3d 49 3e 3d bd
       0.20653999 -0.07551404 0.033433225 -0.046201978
0001a0 2b ed 04 3d 62 6b 87 b9 78 ed ea bd 52 ba 4a 3e
       0.032452744 -0.00025829213 -0.11471075 0.19797638
0001b0 aa 32 96 3d a4 be 8c 3e 63 00 61 3e b7 fb 3d 3e
       0.07333882 0.27489197 0.21972804 0.18553053
0001c0 ce 1b ec 3d 31 fc 7f be e7 09 29 be 98 38 90 be
       0.11528741 -0.24998547 -0.16507684 -0.28168178
0001d0 41 11 cf bd d0 66 02 be 7e 7a ab 3d d1 50 8f 3d
       -0.10110713 -0.12734532 0.08372973 0.069978364
0001e0 a4 d8 28 3e 9f 0c 10 3c fa 31 58 be 77 b0 20 bd
       0.16488892 0.008792072 -0.21112815 -0.03923079
0001f0 4a 43 d1 bd 61 91 25 bb 81 38 85 be b3 e3 c1 bd
       -0.102179125 -0.0025263655 -0.26019672 -0.09467258
000200 11 82 5f 3c 34 93 3d 3e 9f ff f5 3d 7b 32 90 bc
       0.01364185 0.18513185 0.120116465 -0.017602196
000210 0b 07 31 bd d9 f5 e3 3c 38 d4 32 3e e6 2e d3 bc
       -0.043219607 0.02782719 0.17463768 -0.025779199
000220 2d 3e e7 bd b1 85 0c be 11 37 4d bd 6c ae 24 be
       -0.11291156 -0.13722874 -0.050101344 -0.16082162
000230 52 53 dc bd 92 22 f2 bd aa a3 bb be 5f 51 88 bd
       -0.107580796 -0.11823 -0.36648303 -0.06656145
000240 f2 9f 21 bd 31 de 5e bd 27 c5 87 bc d1 ad 98 bd
       -0.039459176 -0.054411117 -0.016573502 -0.07455028
000250 14 bf 5d be 61 52 ce bc 9a fc 20 be 97 4e 12 bd
       -0.21654922 -0.025185766 -0.1572136 -0.03571948
000260 1a f3 97 bd ff 3b cd 3d 29 bc 1e 3e e5 ad 29 3e
       -0.07419415 0.10021209 0.15501465 0.16570242
000270 b1 c9 ee 3d e7 84 bd 3e 0e 6f 05 3e ac 9d 91 3e
       0.11659563 0.3701546 0.13030645 0.28440607
000280 dc f6 c7 3e 3d 00 17 3e 9f 84 8f be f4 68 85 bd
       0.39055526 0.14746185 -0.2803087 -0.06514159
000290 64 a8 da bd 05 24 85 be b6 35 a8 be ec fb c2 be
       -0.10676649 -0.26004043 -0.32853478 -0.38082826
0002a0 47 ec 73 be 79 40 d0 be 39 07 8a be 83 65 1f be
       -0.23820601 -0.4067419 -0.26958635 -0.15566067
0002b0 c4 d1 f6 3c 70 d6 00 3d 98 f2 a3 bd 57 5f cb 3d
       0.03012932 0.031454504 -0.080052555 0.09930294
0002c0 61 a4 48 3b 0b 10 02 3e 64 a3 ea 3d 6b 33 03 3e
       0.0030615556 0.12701432 0.114569455 0.12812583
0002d0 5c 71 74 bd 05 ed 0f be 53 2b 0f 3c c6 ad 41 3d
       -0.05967842 -0.1405526 0.008738357 0.047284864
0002e0 4d 7b 72 3d 96 f5 64 3d a7 f2 58 3d ce e6 7c 3e
       0.05919962 0.05589827 0.052965786 0.2469742
0002f0 b3 6f 4e 3e bc 17 a2 3d 2a ae c9 3d a0 29 23 3e
       0.20159797 0.07914683 0.09847672 0.15933847
000300 65 a2 7f bd 12 be 13 be 0c 51 71 bd 14 d2 98 3c
       -0.06241073 -0.14427975 -0.058915183 0.01865486
000310 10 61 41 3d b5 ec bf bd 74 e0 91 3d f9 8a 64 3e
       0.047211707 -0.0937132 0.07122889 0.22318639
000320 86 33 9a 3e a2 44 6d be 82 43 1d be b9 99 1c be
       0.30117434 -0.23170713 -0.15357783 -0.15293016
000330 25 a9 b8 bd 8d f7 28 3d e6 29 9b 3c 14 74 34 3e
       -0.09016637 0.041251708 0.018940877 0.17622405
000340 52 73 ec 3d f5 53 5c 3e 3f e2 53 be d1 22 5c be
       0.11545433 0.21516402 -0.20691775 -0.21497656
000350 60 0d 81 be 02 b9 95 3c ed 03 ee 3d f1 5e f1 bd
       -0.25205517 0.018276695 0.116218425 -0.11785687
000360 e4 ce c7 3d db f8 ff bd 48 cc 4e 3d c4 c7 28 3e
       0.09756258 -0.12498637 0.050487787 0.16482455
000370 90 5d 48 3d 45 8f 63 be 87 4f 08 be 04 17 96 3d
       0.048917353 -0.22222622 -0.13311587 0.07328609
000380 9f 43 32 3d 7c 47 f1 3c 07 67 89 be cd 31 2c bd
       0.04352152 0.029453032 -0.26836416 -0.04203968
000390 28 2b 04 3e e6 26 12 bc b0 40 55 be 75 49 8c 3d
       0.12907088 -0.008920407 -0.20825458 0.06849948
0003a0 3f db 09 3e f2 ef 43 3e 51 81 46 3d 63 9f b1 be
       0.13462542 0.191345 0.04846317 -0.34691915
0003b0 6d ba 76 be 51 68 90 3e d6 20 d2 3c 5e e1 86 be
       -0.24094553 0.28204587 0.025650423 -0.26343817
0003c0 66 18 f8 3c 4f 83 3c 3e b0 c2 e4 3d 5c ce 53 3e
       0.030285072 0.18409465 0.11169946 0.20684189
0003d0 5d b9 4a bc 13 07 af 3b ef b2 e6 3d 06 61 d3 be
       -0.012373296 0.0053414195 0.112645976 -0.4128496
0003e0 dc fd 62 be 6d 21 3f 3d bf f1 c1 be 96 3e 10 be
       -0.22167152 0.046662737 -0.3787975 -0.14086375
0003f0 e9 b4 7c 3d c5 9c 24 3e f6 2a 54 3e 1b f8 3a 3e
       0.061695967 0.16075428 0.20719513 0.18258707

conv_1.bias f4 [32]
000000 b3 36 f6 3d 1b e8 71 3e 24 7e 93 bc 3b e0 af 3d
       0.12022152 0.23623697 -0.018004484 0.085876904
000010 2e cb e7 3d 82 20 d8 3d 86 a8 da 3b 98 81 53 3e
       0.1131805 0.105530754 0.0066729216 0.20654905
000020 9c 50 ae bd b9 d5 57 bc 45 09 b6 3d d6 03 fe bd
       -0.08511469 -0.013173514 0.08888487 -0.124030754
000030 30 58 25 3e 93 c2 ec 3c 6d ab 87 3d d2 b1 fb 3d
       0.16146922 0.028901374 0.06624494 0.12289776
000040 c2 65 1c bd 3b 53 ab bc 61 c3 49 3e 49 9b fa bd
       -0.03818298 -0.02091371 0.19703437 -0.122366495
000050 7e 5a bd bd 1d ed 97 3e 94 81 8f bd 9d f3 7c 3d
       -0.09245776 0.2967309 -0.07007137 0.061755765
000060 f8 a4 22 3e 1e 26 78 bd 5d c5 dc bd 37 fd 29 3e
       0.15883243 -0.060583226 -0.107798316 0.166005
000070 ee 81 fa bb 23 d3 58 bd 05 6f 6b 3e 88 b3 54 3e
       -0.0076448834 -0.05293573 0.2299157 0.2077161

batch_norm_1.weight f4 [32]
000000 e7 64 86 3f f6 06 4a 3f 63 bb 63 3f 8c 09 65 3f
       1.0499543 0.7891687 0.88957804 0.8946769
000010 bc 81 64 3f d5 b0 6d 3f 38 8f 9a 3f e3 a5 a0 3f
       0.8926046 0.9284795 1.2074957 1.2550625
000020 68 0c 8f 3f 50 e8 88 3f d8 83 4e 3f 25 7c 59 3f
       1.1175661 1.0695896 0.8066993 0.84955055
000030 2f 9b 89 3f 15 77 90 3f 71 a9 56 3f c2 fa 4f 3f
       1.0750483 1.1286341 0.838523 0.81242
000040 76 ca 67 3f de 5a 59 3f 13 b5 6d 3f 8a 8a 70 3f
       0.90543306 0.8490428 0.9285442 0.93961394
000050 80 f0 87 3f 10 3e 8e 3f 33 de 6a 3f 31 81 89 3f
       1.062027 1.111269 0.917453 1.0742551
000060 86 ec 52 3f 0e 96 30 3f c3 6e 60 3f 42 6d 68 3f
       0.82392156 0.68978965 0.8766901 0.90791714
000070 34 a4 32 3f 48 8e 3d 3f 1c 40 8d 3f a5 59 7d 3f
       0.69781804 0.7404523 1.103519 0.9896491

batch_norm_1.bias f4 [32]
000000 d3 6c c4 3c 43 44 32 be 5c 71 16 be 3e 41 3d 3e
       0.023977673 -0.17408852 -0.1469168 0.18481919
000010 5b 3a 89 be 5e 98 9b be ce 26 0b bf df 5c 15 3d
       -0.26802334 -0.30389684 -0.54356086 0.036465522
000020 64 cd 4c bf a0 4f b8 be 9a 5b d0 3b 05 5e ab 3d
       -0.800009 -0.3599825 0.006358576 0.08367542
000030 2f 87 6c be 64 65 f9 3e 14 48 b7 be 5c ca 2c 3e
       -0.23098443 0.48710167 -0.3579718 0.16874069
000040 7a 59 83 bf 3d 79 57 be 3c 66 72 bf 8d 80 9b be
       -1.0261681 -0.21042342 -0.9468725 -0.30371514
000050 15 ce af 3e 54 47 1e be b6 b2 d2 bd 99 31 d5 3e
       0.34336916 -0.15456897 -0.10287993 0.41639403
000060 dd 83 02 3f fd ae c6 3e 78 a3 ad be d0 0e b9 3c
       0.5098246 0.3880538 -0.3391378 0.022590071
000070 2b 0d b6 3e 3f 7c bb bd d3 eb 81 be d3 19 da be
       0.3555692 -0.091545574 -0.25375232 -0.42597827

batch_norm_1.running_mean f4 [32]
000000 1c ff cf 3d d1 ad 85 3e 10 71 f6 3d ea c1 a4 3d
       0.1015608 0.26109174 0.12033284 0.08044799
000010 26 7b db 3d 08 c8 04 3d 1c de 31 bf 84 05 34 3e
       0.10716848 0.032417327 -0.69479537 0.17580229
000020 a6 3c 06 be 34 33 a0 bd d6 2a 42 bc 8c 7b 24 be
       -0.13109073 -0.07822266 -0.011851033 -0.16062754
000030 d2 51 89 3d f6 9d bc 3d f7 12 40 3d fd 33 6f 3f
       0.06705059 0.09209816 0.046893086 0.934387
000040 de d3 4d bd 9e 92 8c bc e4 74 11 3e 7f e6 10 be
       -0.05025088 -0.017159756 0.14204746 -0.14150427
000050 90 8d d8 bd b9 2b 58 3e de f5 d3 bd 90 32 39 bd
       -0.10573876 0.21110429 -0.1034963 -0.045214236
000060 a1 c8 45 3e 33 7d 1e be 8e bc e3 bd 32 fa 3b 3e
       0.19314815 -0.15477447 -0.11119948 0.1835716
000070 8c c6 c3 bd 87 57 73 3d 44 30 4b 3e c4 17 ef bd
       -0.09559354 0.059409644 0.1984263 -0.11674455

batch_norm_1.running_var f4 [32]
000000 93 cc 68 3d 61 7d f6 3b 8e e5 8d 3c ea 43 44 3b
       0.056835722 0.0075222705 0.017321374 0.0029947706
000010 19 54 13 3c 3b ba 5f 3d 8f e7 36 3e 6a 8a 05 3d
       0.008992218 0.054620963 0.1786177 0.032602705
000020 e9 03 0f 3d 6d 88 7f 3c 0d bf c7 3c 64 f8 04 3d
       0.03491584 0.015596491 0.024383092 0.032463446
000030 ff 77 5a 3c 48 e3 9a 3c 09 a9 da 3b b1 fe 6a 3e
       0.013334273 0.018907204 0.0066729826 0.2294872
000040 bd 30 e3 3c 19 72 3e 3b 9f 50 d1 3c 08 59 b8 3c
       0.027733201 0.0029059707 0.025551138 0.02250339
000050 91 c5 39 3c 8c 3b 2c 3c 70 38 4e 3d e9 2c 7c 3c
       0.011338607 0.010512244 0.05034679 0.015391567
000060 18 e5 11 3c 76 54 4e 3c fb 14 83 3b d6 f2 87 3b
       0.008904718 0.012593379 0.004000304 0.0041488213
000070 4f 68 80 3c 08 4b 74 3c be d7 19 3d c0 41 c9 3d
       0.015674738 0.014910467 0.037559263 0.09826994

conv_2.weight f4 [32, 32, 5, 5]
000000 26 4a 13 bd 8c 9f 83 3c 9d 3f 75 3d 14 21 ac bc
       -0.035959385 0.016067289 0.05987512 -0.021011867
000010 70 32 c5 3c 4c f8 de bc c7 15 2e bd 7a 23 1f 3d
       0.024071902 -0.027218007 -0.042501237 0.038852192
000020 0a cf 18 bc f6 10 4f 3d d2 5b 83 3b 97 50 2f 3d
       -0.009326706 0.050553285 0.0040087486 0.042801466
000030 58 c8 60 bc 1d 56 4e bd 36 9e 05 3d 27 81 0e bc
       -0.013719641 -0.050375093 0.032621585 -0.0086977845
000040 d4 34 25 bd 95 5d 41 bd 73 ff be bc 05 e5 d2 3b
       -0.040333584 -0.047208387 -0.023315167 0.0064359927
000050 a5 66 da bb 46 ac b7 bc fd b9 71 bd 97 f4 a4 bc
       -0.006665068 -0.022421014 -0.059015263 -0.02013616
000060 4e ea 2f 3d 94 08 b0 3c da c1 c4 3c 9f 7d 35 bd
       0.04294806 0.021488465 0.024018217 -0.044309255
000070 7e d3 4c 3b 7e e3 ba 3b 96 f3 6a 3b 11 6c 93 3c
       0.003125399 0.0057033887 0.0035850755 0.017995866
000080 54 43 12 3c ea 55 5c bc 5a 00 27 3c b2 e4 52 3d
       0.008927185 -0.013448218 0.010192955 0.051487632
000090 11 38 00 bd 37 dd 67 bd 01 c7 11 bd 5d 96 28 bd
       -0.03130347 -0.05660745 -0.035590176 -0.041159023
0000a0 79 a9 70 3c f1 f1 09 bc de ef e3 ba 16 f0 5d bd
       0.014688843 -0.0084195 -0.0017390212 -0.054184042
0000b0 fe 6d 1b 3d 56 72 6d bc e9 b6 b2 3c 85 66 3c bd
       0.037946694 -0.014492592 0.021815734 -0.045996208
0000c0 59 16 40 3d 6b 03 a2 bc ba 13 3d bd b5 4c 51 bd
       0.046896312 -0.01977702 -0.04616139 -0.051098544
0000d0 a7 4d ff ba 42 94 68 bd 81 17 36 bb fb 9a 54 bd
       -0.0019478098 -0.056782015 -0.0027785006 -0.051905613
0000e0 42 2b 97 3c 5f 89 cf 3b 00 3b 3a bd d4 49 02 3d
       0.018453244 0.0063335146 -0.045466423 0.03180869
0000f0 0d a4 4b 3d e8 81 e7 bc 48 3c d3 ba b0 b8 4a bd
       0.049716998 -0.028260186 -0.0016115988 -0.049492538
000100 a1 1b 39 3d 75 1d 57 3c 44 10 24 3d 03 ef 23 bd
       0.045192365 0.013129582 0.040054575 -0.04002286
000110 69 88 72 bd 58 50 6e 3d 1c bb 62 38 eb 4f 6e 3d
       -0.059212122 0.05818209 5.4056858e-05 0.058181684
000120 f2 84 08 bd 1c 59 23 bd a3 f4 15 bd a7 64 47 bd
       -0.03332991 -0.039879903 -0.036610257 -0.048679974
000130 c5 9a 2e bd 48 0a 82 3b d1 a8 6b bc 27 6e e0 bc
       -0.04262807 0.003968511 -0.014383511 -0.027396275
000140 b1 d5 03 bd a5 fd 49 3d 71 4d 28 bd 66 2c 45 3d
       -0.032186214 0.04931416 -0.04108948 0.048138045
000150 d9 8f 2f 3c 26 7e 1d bd 5f 04 59 3d 9a 22 71 3c
       0.010715448 -0.038450383 0.052982684 0.014717722
000160 f0 ca 77 bd 3d 46 67 3d b9 b9 15 3d 3b 20 22 3d
       -0.06049627 0.05646347 0.036554072 0.03958152
000170 05 0c 03 bd 33 a1 97 3c 97 2c b9 3c 66 bb 01 3d
       -0.031993885 0.018509483 0.02260427 0.031672858
000180 bc 24 89 3c eb ec 0d bd 16 26 db bc 10 b0 fa 3c
       0.01674115 -0.03464977 -0.02675156 0.030601531
000190 4c 6b 91 3c e8 7b 53 bc ac de dc bc 00 55 21 bc
       0.017751358 -0.0129079595 -0.026961647 -0.009846926
0001a0 77 5b be 3c b7 4a f3 bc a2 0c 57 bd fd ad 0d bd
       0.023236973 -0.029698713 -0.052502282 -0.034589756
0001b0 6d 65 a8 3c 8b 1a 2c bd be c2 26 bd 51 04 2e 3c
       0.020556176 -0.0420175 -0.040713064 0.010621146
0001c0 55 da 44 3c 89 a6 d6 bc d4 65 4e 3d 29 da 80 3c
       0.012014945 -0.026202457 0.05039008 0.015729027
0001d0 bd a8 0d bd ad 5f 6e 3c ef e0 cd bc d5 01 03 bc
       -0.03458475 0.014549178 -0.02513167 -0.007996042
0001e0 79 a5 46 3d ec ab 56 3d 31 e2 29 3d 7d 62 07 bc
       0.04849765 0.05241005 0.04147548 -0.0082632275
0001f0 c2 08 78 3d 75 75 68 3d ed 31 4b bd 1f 37 9d bc
       0.060555227 0.05675264 -0.04960816 -0.019191323
000200 22 fe fe 3c 93 49 ef 3a 2a 52 f7 ba c5 c5 3c 3d
       0.03112704 0.001825618 -0.0018869091 0.046087045
000210 11 e5 5d 3d f0 3e 4f 3d 81 ef 50 bd c9 53 47 3d
       0.054173533 0.05059713 -0.05100966 0.048663888
000220 13 1e 1d 3d 4d 89 b1 3a b1 d6 b8 bb ff 2b 85 b9
       0.03835876 0.0013544947 -0.0056408276 -0.00025400516
000230 0a d7 1d bd 8a 0e 39 bd 23 c4 50 bd 43 9c 06 bd
       -0.038535155 -0.04517988 -0.0509683 -0.032863867
000240 a9 b8 ba 3c 31 3d 27 bd bc 90 58 bd 3b fb a9 3c
       0.022793131 -0.04082984 -0.052872404 0.020749679
000250 e9 e2 0d bd 28 8f 99 bb aa 1f cb 3c a4 8a 70 bb
       -0.034640227 -0.004686255 0.024795372 -0.003670373
000260 dc da 20 3c 28 67 71 3d 60 79 80 bc ef f6 40 3d
       0.009817805 0.058936268 -0.015682876 0.047110494
000270 d7 59 f2 3c 14 8c 0f bd 3a d8 2c 3d 7d 2e 2e bd
       0.029583855 -0.0350457 0.042198397 -0.042524803
000280 41 af 9d 3c c8 ad 1c 3d 16 c7 4a bc f4 0f bb 3c
       0.019248607 0.03825167 -0.012376567 0.022834755
000290 2f e5 4a 3c 2f e4 69 3d f6 2a bd 3b 8b 54 54 3d
       0.012383743 0.05710238 0.0057729436 0.05183844
0002a0 a9 67 56 3d d0 0b 91 b9 98 ef 64 3c 3f bb e9 bc
       0.05234495 -0.00027665356 0.013973139 -0.028531669
0002b0 ea 5e 06 bd 68 b3 68 3c 25 69 06 3d 1e d9 3f 3d
       -0.03280536 0.01420293 0.032815117 0.04683792
0002c0 b0 85 90 3c 7b 1f 87 3c d1 4d 41 bc 7d 8d 0f 3d
       0.017641872 0.016494503 -0.011798338 0.035047043
0002d0 7c 7a e7 3c 9d e8 4a bc 5b 4b 9b 3c 6e bb 4e 3d
       0.028256647 -0.012384561 0.01895683 0.050471716
0002e0 3f 60 ce bc a6 6e 41 bd 0e d3 c5 bc 45 81 02 3d
       -0.025192378 -0.047224663 -0.02414849 0.031861562
0002f0 19 59 98 3c b9 14 1a 3d 09 d5 74 3d 46 ae 55 3d
       0.018597173 0.03761742 0.05977348 0.052168153
000300 c7 66 7a bb ea 08 4f bd f7 6d e9 3c 4d 58 09 bd
       -0.0038208233 -0.05054561 0.028494818 -0.033531476
000310 60 30 72 bd f8 a7 35 bd f9 46 fd 38 1a ca a2 bc
       -0.059128165 -0.04434964 0.000120772 -0.01987176
000320 ab 97 3b 3d d7 f6 38 3c 94 ea e1 3c 98 1c c0 bc
       0.04579894 0.01128932 0.027577676 -0.023451135
000330 ce 4d 51 bc d2 78 d5 bc 01 78 4c bb 51 a1 32 bd
       -0.012774898 -0.026058588 -0.0031199458 -0.043610875
000340 75 38 57 bd 08 d6 be 3c 28 59 61 3d 63 12 3a bd
       -0.052544076 0.023295417 0.055016667 -0.04542769
000350 99 c0 44 3d 37 e4 9a 3b 22 97 31 3d c8 d3 6a 3d
       0.048035238 0.0047269124 0.043357022 0.057330877
000360 4b 3c 4a bd a0 45 37 bd 3b 6f 46 bb 62 6d 18 3d
       -0.049373906 -0.044744134 -0.00302787 0.03721369
000370 be 6e a4 3c 33 83 9f 3a 4e 82 1c bd 13 22 1c 3d
       0.020072337 0.0012169838 -0.038210206 0.038118433
000380 f2 a2 cc 3c fd 23 26 3c 9b 69 57 3b e8 ac 1e 3d
       0.024980042 0.010140416 0.0032869342 0.038739115
000390 b3 8c 9d 3c a4 0b 3d bd 08 9d 6f bd 05 5e 52 3d
       0.01923213 -0.04615368 -0.058499366 0.051359195
0003a0 99 22 07 bd 54 3a fe 3b 98 c2 f3 bc 8b 41 5b 3d
       -0.03299198 0.007758418 -0.029755875 0.053529304
0003b0 cd ad 6e bd 31 aa ba 3c 71 3f 3e 3d 33 f3 61 bd
       -0.058271218 0.022786232 0.04644722 -0.055163573
0003c0 a3 7d 8a bb 0e 7e 38 bd a0 9f 3d 3d 5e 62 0d bd
       -0.004226403 -0.04504209 0.04629481 -0.03451764
0003d0 ae 64 1c bc 02 65 2f 3d 32 f2 1c bd 1f 45 71 bd
       -0.009545488 0.042820938 -0.038316913 -0.05890381
0003e0 a9 6a 24 3d cd 65 d4 bb d6 3e 26 bd fd 08 42 3c
       0.04014078 -0.006481862 -0.04058727 0.011842963
0003f0 3c 2a a5 ba a7 57 08 bd 61 02 8f 3b 5c 1f 5b bd
       -0.0012601088 -0.033286717 0.0043642973 -0.053496704

conv_2.bias f4 [32]
000000 0a d7 23 3c 0a d7 23 3c 0a d7 23 3c 0a d7 23 3c
       0.01 0.01 0.01 0.01
000010 0a d7 23 3c 0a d7 23 3c 0a d7 23 3c 0a d7 23 3c
       0.01 0.01 0.01 0.01
000020 0a d7 23 3c 0a d7 23 3c 0a d7 23 3c 0a d7 23 3c
       0.01 0.01 0.01 0.01
000030 0a d7 23 3c 0a d7 23 3c 0a d7 23 3c 0a d7 23 3c
       0.01 0.01 0.01 0.01
000040 0a d7 23 3c 0a d7 23 3c 0a d7 23 3c 0a d7 23 3c
       0.01 0.01 0.01 0.01
000050 0a d7 23 3c 0a d7 23 3c 0a d7 23 3c 0a d7 23 3c
       0.01 0.01 0.01 0.01
000060 0a d7 23 3c 0a d7 23 3c 0a d7 23 3c 0a d7 23 3c
       0.01 0.01 0.01 0.01
000070 0a d7 23 3c 0a d7 23 3c 0a d7 23 3c 0a d7 23 3c
       0.01 0.01 0.01 0.01

batch_norm_2.weight f4 [32]
000000 00 00 80 3f 00 00 80 3f 00 00 80 3f 00 00 80 3f
       1.0 1.0 1.0 1.0
000010 00 00 80 3f 00 00 80 3f 00 00 80 3f 00 00 80 3f
       1.0 1.0 1.0 1.0
000020 00 00 80 3f 00 00 80 3f 00 00 80 3f 00 00 80 3f
       1.0 1.0 1.0 1.0
000030 00 00 80 3f 00 00 80 3f 00 00 80 3f 00 00 80 3f
       1.0 1.0 1.0 1.0
000040 00 00 80 3f 00 00 80 3f 00 00 80 3f 00 00 80 3f
       1.0 1.0 1.0 1.0
000050 00 00 80 3f 00 00 80 3f 00 00 80 3f 00 00 80 3f
       1.0 1.0 1.0 1.0
000060 00 00 80 3f 00 00 80 3f 00 00 80 3f 00 00 80 3f
       1.0 1.0 1.0 1.0
000070 00 00 80 3f 00 00 80 3f 00 00 80 3f 00 00 80 3f
       1.0 1.0 1.0 1.0

batch_norm_2.bias f4 [32]
000000 00 00 00 00 00 00 00 00 00 00 00 00 00 00 00 00
       0.0 0.0 0.0 0.0
000010 00 00 00 00 00 00 00 00 00 00 00 00 00 00 00 00
       0.0 0.0 0.0 0.0
000020 00 00 00 00 00 00 00 00 00 00 00 00 00 00 00 00
       0.0 0.0 0.0 0.0
000030 00 00 00 00 00 00 00 00 00 00 00 00 00 00 00 00
       0.0 0.0 0.0 0.0
000040 00 00 00 00 00 00 00 00 00 00 00 00 00 00 00 00
       0.0 0.0 0.0 0.0
000050 00 00 00 00 00 00 00 00 00 00 00 00 00 00 00 00
       0.0 0.0 0.0 0.0
000060 00 00 00 00 00 00 00 00 00 00 00 00 00 00 00 00
       0.0 0.0 0.0 0.0
000070 00 00 00 00 00 00 00 00 00 00 00 00 00 00 00 00
       0.0 0.0 0.0 0.0

batch_norm_2.running_mean f4 [32]
000000 d5 48 3f 3f 49 3e 30 3f a6 4c 24 3f 08 50 97 3f
       0.7472051 0.6884504 0.64179456 1.1821299
000010 4b 40 11 3f 22 72 87 3e f9 09 c0 3e f5 be 69 3f
       0.5673873 0.26454264 0.3750761 0.91307
000020 0c 2b dc 3e b8 bc 06 3f 5f c8 20 3f 05 5d 43 3f
       0.43001592 0.5263171 0.6280574 0.7631381
000030 4f f1 5c 3f ef 1f b3 3f cc 26 98 3e 62 f3 25 3f
       0.8630571 1.399412 0.297171 0.648245
000040 55 ec 8c 3e 11 71 f6 3e 1e 10 8b 3e ae c7 04 3f
       0.27524057 0.48133138 0.27160734 0.5186719
000050 90 e1 38 3f 72 6f 72 3f 45 be 1d 3f 0a 1b 9e 3f
       0.7221918 0.947013 0.61618453 1.2352002
000060 0b 08 84 3f 71 4b 66 3f 7a 9d dd 3e 71 cc 87 3f
       1.0314955 0.89958864 0.43284208 1.0609266
000070 fc d8 50 3f 38 e0 f2 3e d7 d2 1e 3f fe 97 90 3e
       0.8158109 0.4743669 0.62040466 0.2824096

batch_norm_2.running_var f4 [32]
000000 a0 02 5c 3f 77 3f 1e 3f 6a e6 f6 3e 68 d6 5a 3f
       0.85941505 0.6181559 0.48222667 0.8548341
000010 db f0 26 3f 43 86 9d 3e ba a8 8c 3e ba 40 92 3f
       0.65211266 0.30766496 0.27472478 1.1426003
000020 c4 61 1d 3f 8a e3 01 3f ae 2f e7 3e 1e 18 39 3f
       0.61477304 0.5073782 0.45153564 0.72302425
000030 72 22 52 3f 8c d8 79 3f 3f 11 de 3e 90 4d bc 3e
       0.8208381 0.9759605 0.43372533 0.36777925
000040 bb ee f6 3e fb 67 1c 3f 6a 34 9e 3e 3d d5 42 3f
       0.48229012 0.6109616 0.30899364 0.76106626
000050 2f c6 6b 3f 43 79 65 3f 0f ec 37 3f d3 94 9e 3f
       0.9209928 0.89638156 0.7184457 1.2389168
000060 df 92 27 3f 63 26 b7 3e ba 61 0d 3f 79 ea 6b 3f
       0.6545848 0.35771474 0.55227244 0.9215465
000070 4e 4c bf 3e f3 53 96 3e 13 04 67 3f f1 df 34 3e
       0.37362903 0.29360923 0.9024059 0.17663552

conv_3.weight f4 [32, 32, 5, 5]
000000 fc 56 85 3b bd 97 e6 3d 4a f8 44 3e 88 08 ae 3b
       0.0040692072 0.112594105 0.1923534 0.0053110756
000010 cf 28 e7 3b 7b 69 f7 3c ea 73 7b bd a9 f1 b0 3d
       0.0070544253 0.030201664 -0.06138984 0.08639843
000020 e9 a7 73 bc 0d 4d 14 be 3d 95 e7 bd cd 3a ea bd
       -0.014871576 -0.14482518 -0.11307762 -0.114369966
000030 16 3a 31 3e 0c 1a 87 3d 8c e5 b1 bb 1c 9f ab bd
       0.17307314 0.06596765 -0.0054289754 -0.08379957
000040 fe 77 8c bd 59 cd f0 3d 6f 5d 94 bd 58 c2 f1 bd
       -0.06858824 0.11757917 -0.072443835 -0.11804646
000050 20 a7 06 bd 75 fa ea 3d 2f b0 98 3e 45 b4 d8 3d
       -0.032874227 0.11473552 0.29821917 0.10581259
000060 25 cf 53 3d ac da 71 3e b1 58 1f 3e 47 76 31 3d
       0.05171122 0.23618573 0.15561177 0.04332569
000070 db c8 eb 3d 10 63 b4 bc 27 93 34 3e c8 93 c7 3d
       0.115129195 -0.022019893 0.17634259 0.09744984
000080 73 97 5c bc 1e ac 4c 3d f8 00 21 3e 87 5d 05 3e
       -0.013463843 0.04996883 0.15723026 0.13023959
000090 e0 dd eb 3d a6 94 f6 bb c3 fc bb 3d 98 8f 4a 3e
       0.11516929 -0.0075250445 0.0917907 0.19781339
0000a0 f5 6a af bd 08 ac cb bd de 98 91 bd 21 f4 77 bb
       -0.08565322 -0.09944922 -0.07109235 -0.003783472
0000b0 66 5e 3e 3e 84 28 38 3c a1 af 10 3e dd 2d df 3c
       0.18590698 0.011240128 0.14129497 0.027243549
0000c0 44 fa f0 3d 48 e3 d3 3e 0e 29 6d bd 76 cd e9 3d
       0.117664844 0.4138434 -0.05790048 0.11416142
0000d0 b3 cc ef 3d 5a 23 f1 3d e5 41 94 bd 62 41 03 be
       0.11708965 0.11774321 -0.07239131 -0.1281791
0000e0 58 fa 46 bd 6e eb cc 3b 1c 46 99 bc 22 ed 8f bd
       -0.04857859 0.0062536513 -0.018710189 -0.07027651
0000f0 f6 fe 35 be 91 81 10 bd cd 86 30 3d 38 e6 77 3c
       -0.17773041 -0.035279814 0.043097306 0.015130572
000100 c2 1c 3f ba 02 fc dd 3c d8 4f 13 3d 07 83 e3 3d
       -0.0007290357 0.027097706 0.035964817 0.11108976
000110 3f 78 c0 3d 83 0b 22 3e 5b c8 45 bd bd 2d b1 3d
       0.09397935 0.15824704 -0.048286777 0.08651302
000120 d8 05 dd 3b 85 91 d3 3d af ba 3c 3e d7 eb d3 bd
       0.0067450814 0.1033049 0.18430589 -0.10347717
000130 b1 30 2b 3e 68 51 d3 3d 52 55 38 3e ad 51 9c 3e
       0.16717793 0.103182614 0.18001297 0.30531064
000140 e6 60 09 be 5f 51 b0 3d c0 48 a0 3d 94 a7 a1 3d
       -0.1341587 0.0860927 0.07826376 0.07893291
000150 f8 68 71 3e b7 0b a0 bc 9d 94 f2 3d ea 5a 61 3d
       0.23575199 -0.019536836 0.11844752 0.055018343
000160 cd c3 c8 3d e5 1c 52 3e 26 a3 98 3d 55 1b 48 3e
       0.09802971 0.20518835 0.07452993 0.19541676
000170 c7 3d 52 3e 40 e7 8b 3d d1 8a 34 3e 76 4f 97 be
       0.20531379 0.06831217 0.1763108 -0.2955281
000180 c6 32 08 be 5b cc 1a be fb c6 54 be 08 07 2e bc
       -0.13300619 -0.15117018 -0.2077903 -0.010621794
000190 9a e0 9e be 33 a2 3e be fb 71 6c bd 53 86 3f bc
       -0.31030732 -0.18616562 -0.057725888 -0.01168974
0001a0 b8 6c 0b bd cc 72 13 be 50 b2 f0 bc 72 1a ba bd
       -0.03403923 -0.1439926 -0.029381901 -0.09087075
0001b0 66 ab 92 3a 25 2f 81 3c a0 c1 90 bd 7e 79 b1 3c
       0.0011189997 0.01576955 -0.07068181 0.021664377
0001c0 71 59 c5 3d cb 2c 3c 3e 46 f3 88 3e 5e 9a 8e bd
       0.096362 0.18376462 0.26748103 -0.06963037
0001d0 75 e5 09 3e 80 16 e3 3d d2 4a 2e 3e a3 c0 9d 3e
       0.13466437 0.11088276 0.17020729 0.30811033
0001e0 64 e9 76 3b fa 8f 06 3e 82 42 66 3e fe e3 0f 3e
       0.0037675733 0.1314086 0.22486308 0.14051816
0001f0 d2 25 dd 3e 2f 11 9e 3d 9b 29 90 bd f4 a1 3c bd
       0.43192917 0.07718121 -0.070391856 -0.046052888
000200 f2 62 3d 3d c8 ee c8 3d 9e 6c 29 3e 49 4e 67 bd
       0.04623694 0.09811169 0.1654534 -0.056471143
000210 40 c4 d6 bd 7e 7f 0f 3c 59 3e 8f 3d 69 4a 67 3e
       -0.104866505 0.008758424 0.06994314 0.22586979
000220 62 17 01 3d 8c 50 18 3d 07 1c c7 3c b8 43 a7 3d
       0.03151644 0.03718619 0.024305357 0.08167213
000230 21 24 a4 3d f7 d5 f9 3c 10 cc 86 bc 92 8c e5 3d
       0.080147035 0.030497534 -0.016454726 0.11208452
000240 46 21 dc 3d b4 9e 7a 3c 06 01 4f be 7f d3 6d be
       0.10748534 0.015296627 -0.20215234 -0.2322521
000250 f5 51 35 be 29 b5 98 3c 36 70 8e 3e 32 02 f7 3c
       -0.17707045 0.018641071 0.27819985 0.030152414
000260 20 ec 0b 3d 4b d9 4f 3d e7 0f 6e 3e 47 07 a3 3d
       0.034160733 0.050744336 0.23248254 0.079603724
000270 28 1e af bd b9 1b 50 bd 6e 75 9d bd e6 9d 25 3e
       -0.08550674 -0.05080769 -0.076884136 0.16173515
000280 64 20 96 be c8 ed 11 bf c8 d5 0f bf 1f 96 04 bf
       -0.29321587 -0.5700345 -0.5618558 -0.51791567
000290 41 3b aa be c9 57 10 3c ae 3c 9f be 38 1f 27 bf
       -0.33248332 0.008809992 -0.31100982 -0.6528201
0002a0 33 00 f4 be 8c 93 b7 bd 88 97 cd 3e 59 21 31 3e
       -0.47656402 -0.08963689 0.40154672 0.17297877
0002b0 54 7a 37 bc 21 96 57 3d de fd c8 3e b8 b7 84 be
       -0.011198599 0.05263341 0.39256185 -0.25921416
0002c0 48 5b 26 bd 8b 59 3b 3c ac 14 1a bd d8 46 3b be
       -0.040614396 0.011434923 -0.03761737 -0.18288743
0002d0 5a db 14 3c 2c 65 c6 3d d1 69 e1 3d 70 05 65 3e
       0.009085501 0.09687266 0.11006511 0.22365355
0002e0 c0 b3 d3 bb e4 89 ca bd 48 fd b6 bc 89 bd 9e 3d
       -0.006460637 -0.09889582 -0.02233757 0.07750995
0002f0 97 93 30 3e 21 17 45 bd b9 b3 a7 3c d3 e5 0f 3d
       0.17243801 -0.04811776 0.02047144 0.035131287
000300 bc 83 99 3d cb 0e 00 3e e4 6d d5 3d 1d b8 8c 3e
       0.074958295 0.12505643 0.104213506 0.27484217
000310 19 30 7f 3e b6 14 94 3e 74 b2 a3 3e 03 82 a1 3e
       0.24920692 0.2892205 0.31972086 0.31544504
000320 8d cf 45 be 39 6a 8d be f4 da d0 bd 4a 5b 87 bd
       -0.19317456 -0.27620104 -0.10198012 -0.06609209
000330 2e 0c e6 3d f1 70 67 be ca fb 34 bd 18 01 e5 bc
       0.11232792 -0.22601677 -0.044185437 -0.027954623
000340 f6 90 62 bc f4 dd ad 3d 65 11 7a be 64 6e 0f be
       -0.013828507 0.084896 -0.24420698 -0.14006954
000350 5a 24 c7 3d 95 ea 52 3c 5c 6c af 3d 40 d8 dd bd
       0.097237304 0.0128733115 0.0856559 -0.10832262
000360 cf bb ef 3c f4 3c 05 3e da 07 1f 3d 33 58 38 bd
       0.029264359 0.13011533 0.038825847 -0.04500599
000370 dc 75 2f 3c cf f6 c9 3a 0f 00 8b bd 83 47 3d 3d
       0.010709252 0.0015408638 -0.067871206 0.046210777
000380 87 e9 35 bd d8 90 4b bb 9f b3 71 bd 28 1f 90 bc
       -0.044412162 -0.0031061675 -0.05900919 -0.017592981
000390 29 28 e6 3d 80 da d3 3d 11 db 11 be 61 70 94 be
       0.11238129 0.1034441 -0.14243723 -0.28991988
0003a0 43 f9 ae be ca 2e 3d be c8 cb 0d be f8 7e 4b be
       -0.34174547 -0.1847488 -0.13847268 -0.19872653
0003b0 7d c7 e2 be 79 34 03 bf 32 7c 8e be 80 e2 8b be
       -0.44292822 -0.5125194 -0.27829129 -0.27321243
0003c0 18 0d 1b bd 07 9c a3 be 4f 2a c8 be 47 c9 6e be
       -0.037854284 -0.31954977 -0.3909478 -0.23318969
0003d0 f8 08 1a bc 81 fb 11 bd 54 b2 17 be c7 b1 75 be
       -0.009401552 -0.035640243 -0.1481412 -0.23993598
0003e0 38 2e 26 be ae 27 d5 3d 3c 50 8f 3d 7d 5e 5b bd
       -0.16228569 0.10407959 0.06997725 -0.053556908
0003f0 7a 91 04 bd ce 3d c0 3c 9e 08 9c 3d c3 fc d3 3d
       -0.0323653 0.02346697 0.07618831 0.10350945

conv_3.bias f4 [32]
000000 d9 19 dc ba 20 25 fd 3a 93 9c 79 ba 6f ca ca bb
       -0.0016792371 0.0019313432 -0.00095219276 -0.0061886827
000010 60 bb 5c bc 8f 95 fe bb 6c 81 b7 3c 12 61 84 3c
       -0.013472408 -0.0077692936 0.02240058 0.016159568
000020 e6 53 4f 3b 47 11 14 bb a0 aa 3d bc eb 32 0a 3c
       0.00316357 -0.0022593306 -0.011576325 0.008434991
000030 0a 1c 6e 3c 27 9e eb 3b d4 c0 2f 3c 1c 8f 3c 3c
       0.014533052 0.007190484 0.010727126 0.011508729
000040 c1 9f df 3a 57 0d 13 3c 74 17 f3 bc ce e1 70 bb
       0.001706116 0.008975348 -0.02967427 -0.0036755684
000050 fe 74 a4 bc a9 ed 75 bc 2b 3e a5 bb 6a de 0d 3c
       -0.020075317 -0.015010276 -0.0050428114 0.008658985
000060 de ea ca 3b ae 08 52 3b 01 84 0b bc 48 70 f8 3b
       0.006192549 0.003204863 -0.008515359 0.0075817443
000070 6f e6 bd 3c 0a 54 00 3c a0 cc 47 3b 53 6c 94 3c
       0.023181168 0.0078325365 0.0030486956 0.01811806

batch_norm_3.weight f4 [32]
000000 2e c1 57 3f 8f d1 47 3f 02 b0 61 3f b7 c7 5f 3f
       0.84279144 0.78054136 0.8815919 0.87414116
000010 08 64 59 3f 02 71 52 3f 36 6f 6d 3f e4 29 3e 3f
       0.8491826 0.82203686 0.9274782 0.7428267
000020 83 9f 5f 3f c3 fd 70 3f dc e0 77 3f 3a 41 65 3f
       0.8735277 0.9413721 0.96827483 0.8955265
000030 3e 2c 4c 3f 54 be 3e 3f 3e b3 63 3f 8b 7b 57 3f
       0.7975501 0.7450917 0.88945377 0.84172887
000040 42 81 4c 3f c7 f6 3c 3f 08 dc 5d 3f 71 82 4f 3f
       0.7988473 0.7381405 0.86663866 0.8105841
000050 be 71 72 3f 2f 12 4c 3f ce c1 62 3f f5 88 74 3f
       0.94704807 0.79715246 0.8857697 0.9552148
000060 b8 31 75 3f e1 bd 5b 3f fe 92 76 3f f5 ad 3a 3f
       0.9577899 0.8583661 0.9631804 0.7292169
000070 ba 8b 45 3f f0 25 44 3f cd 87 3c 3f 80 16 6c 3f
       0.7716633 0.7662039 0.73644716 0.9222183

batch_norm_3.bias f4 [32]
000000 8f 0a d4 bd 60 c9 0e bf 2d 5a 02 bf 03 35 91 be
       -0.103535764 -0.55776024 -0.5091885 -0.28360757
000010 6e 9b 1c bf d1 91 65 bf 3d 91 91 be 79 41 d2 be
       -0.61174667 -0.89675623 -0.2843112 -0.41065577
000020 69 d6 6c be 59 85 27 bf bd 7c 4f bf bc a8 0e bf
       -0.23128666 -0.6543785 -0.8104971 -0.5572622
000030 18 2b fd be 3a 26 3a bf cb 6e 16 bf fd 93 0f bf
       -0.4944694 -0.7271458 -0.58762807 -0.5608519
000040 12 76 19 bf 31 38 05 bf f5 4d 0f bf bf 60 0f bf
       -0.59945786 -0.52038866 -0.5597833 -0.56007
000050 c6 35 f5 be cd dc 2d bf ab 85 d7 be 89 92 19 bf
       -0.47892588 -0.6791504 -0.42094168 -0.5998922
000060 77 7c 27 bf 55 93 c8 be ee a3 2f bf 9e 86 7d be
       -0.65424293 -0.39174905 -0.6860951 -0.24758384
000070 dd 43 0d be cb aa cd be 20 14 36 be 96 a6 05 bf
       -0.13795419 -0.40169367 -0.17781115 -0.52207315

batch_norm_3.running_mean f4 [32]
000000 d0 78 d9 40 6f 43 e0 c0 2b 02 c3 40 c0 b0 2d c1
       6.7959976 -7.0082316 6.0940146 -10.855652
000010 31 39 fd c0 44 b2 32 c1 38 e5 62 bf 9c b2 78 bf
       -7.9132314 -11.168522 -0.8863101 -0.97147536
000020 37 d7 33 c0 2b fd 42 c1 50 7f ed c0 45 0f 66 c1
       -2.8100107 -12.186809 -7.421791 -14.378728
000030 7f 91 08 c1 2c 86 3f c1 d0 a8 99 c0 4b 17 e6 c0
       -8.5355215 -11.970257 -4.801857 -7.1903434
000040 6b 85 33 c1 17 d7 b4 c0 77 86 f7 c0 37 a9 61 40
       -11.220073 -5.651256 -7.735164 3.525953
000050 04 76 d9 c1 eb c8 f8 c0 cf 52 9c c0 2a 34 81 40
       -27.182625 -7.774526 -4.8851085 4.0376177
000060 13 6a e8 c0 57 b8 5c c1 c2 6b 83 c1 ee 6a 29 bf
       -7.2629485 -13.795005 -16.427616 -0.66178787
000070 57 2b e8 c0 4d be 25 c1 d4 41 9e c0 ed f3 8a c1
       -7.2552905 -10.35896 -4.9455357 -17.369104

batch_norm_3.running_var f4 [32]
000000 d1 f2 d1 42 c7 82 ce 42 3e 1e bc 42 07 b0 1a 43
       104.97425 103.255424 94.05907 154.6876
000010 f0 45 f0 42 e4 4e d2 42 dc a6 7d 42 a8 a2 db 42
       120.1366 105.15408 63.41295 109.81769
000020 d1 cb c0 42 5a 09 df 42 e8 9a d9 42 9c 45 45 43
       96.39808 111.518265 108.80255 197.27191
000030 47 8c a1 42 8e bb e2 42 c3 e9 bd 42 b2 ff e9 42
       80.77398 113.36632 94.956566 116.999405
000040 7e 9b ce 42 23 b3 99 42 3c 2e 91 42 2c 95 c5 42
       103.303696 76.84988 72.5903 98.79135
000050 66 c5 64 43 b4 43 96 42 b5 10 8b 42 74 65 25 42
       228.77109 75.13223 69.53263 41.349075
000060 6f 11 06 43 88 3d 30 43 0b 32 07 43 d3 60 9c 42
       134.0681 176.24036 135.19548 78.18911
000070 24 6c 25 43 2d 66 a9 42 0a e6 f2 42 a4 48 18 43
       165.42242 84.69956 121.449295 152.28375

output.weight f4 [10, 512]
000000 54 b8 3a bd b0 ed 0a be ed 6d 26 be 83 fb 47 be
       -0.045585945 -0.13567233 -0.16252871 -0.19529538
000010 06 db b4 bd 2a 06 d1 bd 30 2e 0b be 88 80 22 be
       -0.08830838 -0.10206254 -0.13591838 -0.15869343
000020 44 c5 5c bd 1d 40 63 be 2f 70 20 be f8 76 8a bd
       -0.053899065 -0.22192426 -0.15667795 -0.06760973
000030 80 50 16 be 28 e5 43 be 64 bd 4a be a6 35 6f be
       -0.14679146 -0.19130385 -0.1979881 -0.23360309
000040 5f 87 2f 3e f9 61 14 bd 38 bd 02 3e 0d 55 80 bd
       0.17141484 -0.036226247 0.12767494 -0.06266222
000050 32 f9 d4 3d 80 3a d3 bd b2 bd 75 3c 62 03 99 bd
       0.10399093 -0.10313892 0.01499884 -0.07471348
000060 c5 73 13 3d 4e 9c f4 bc 79 05 80 3c ec 60 11 be
       0.03599908 -0.029859688 0.01562761 -0.14197129
000070 a0 de a4 be bb 8c 5c be 6e 22 31 be 63 e0 c8 be
       -0.322011 -0.2153806 -0.1729829 -0.39233693
000080 46 34 e1 3d 32 85 93 3d dd 49 be 3d 2e 6c 09 3e
       0.109962985 0.07203139 0.09291432 0.13420174
000090 d2 de b2 3d db a6 07 3d d1 80 94 3d 8c 6a 54 3d
       0.08733906 0.03311811 0.07251132 0.051859424
0000a0 ee 74 50 3e ca 8b 9b 3d b5 49 2f bc af 95 25 3c
       0.20357105 0.07595022 -0.0106987255 0.010106488
0000b0 a1 e0 c9 bd 7c 4a de 3d c8 86 33 3d 75 ce a7 3e
       -0.09857298 0.108540505 0.04382971 0.32774702
0000c0 b5 4f 1e be b3 f6 16 bd 14 59 f8 3d 15 05 03 bd
       -0.15460093 -0.036856364 0.12126365 -0.03198727
0000d0 d4 21 2c be 96 90 01 bd d2 c7 0f 3d a1 01 b9 bc
       -0.1680978 -0.03163203 0.035102673 -0.022583785
0000e0 2d a1 17 be 47 ca 42 bd bc bb b8 3d 5e 0b ef 3c
       -0.14807577 -0.047556188 0.090201825 0.029180225
0000f0 6d e0 72 be bb d7 ef bd a4 db 92 3c 3c b3 fa bc
       -0.23718424 -0.11711069 0.017926998 -0.030603044
000100 b6 9e b4 bd a6 53 c2 bd 6f 4e 84 bd 29 71 6e be
       -0.08819334 -0.09488611 -0.064602725 -0.23285355
000110 fe 41 27 bd a2 6e 47 ba db d5 da bb a7 67 3f be
       -0.04083442 -0.0007607733 -0.0066783256 -0.18691884
000120 d0 b2 69 bd 27 e1 b0 3d a4 25 56 3c e1 87 38 be
       -0.057055295 0.086366944 0.013070498 -0.18020584
000130 6f 75 fd be f2 64 37 be 5d 4b 64 be 4e 8c 54 be
       -0.49503657 -0.17909601 -0.22294374 -0.20756647
000140 78 7d 23 be 65 4b c0 bd cb 7a ab bd ea 41 15 be
       -0.15965831 -0.0938938 -0.0837303 -0.14575925
000150 7d d7 67 be 11 da ec bd de 73 90 bd f5 18 2a be
       -0.22640796 -0.1156503 -0.0705335 -0.16611083
000160 2d f1 0c be 05 58 23 be 51 92 2d be d8 1f 40 be
       -0.13763876 -0.15951546 -0.16950347 -0.18762147
000170 60 c0 38 be 70 6e b8 bd f4 1b a1 bd 73 e7 06 be
       -0.18042135 -0.09005439 -0.0786666 -0.13174228
000180 8b 0b 7b 3d 0e c2 47 3e de 44 d1 3d 4f 5d 0a 3e
       0.061290305 0.1950762 0.102182135 0.13512157
000190 23 16 98 bd e8 cc f9 3c ba 4e f8 3c c5 cf 99 bb
       -0.07426097 0.030493215 0.030310977 -0.0046939575
0001a0 e1 17 6d 3d 62 22 ca 3d 10 35 4a bd b3 2d a5 3d
       0.0578841 0.09869839 -0.04936701 0.08065357
0001b0 17 b7 03 ba 89 ec 17 3d 87 a6 53 bd f5 a6 bb 3d
       -0.0005024536 0.037090812 -0.051672485 0.09162704
0001c0 78 3e 13 be 04 c8 0e be 95 98 31 be c5 55 47 be
       -0.14379299 -0.13943487 -0.17343362 -0.19466312
0001d0 51 fa b7 bd 9d af ed bd a0 a3 97 bd 68 b7 de bd
       -0.08983291 -0.11605761 -0.07404256 -0.10874826
0001e0 38 9a 27 be fc ad d9 bd 02 c4 dc bd f5 26 56 be
       -0.16367424 -0.10628888 -0.10779573 -0.20913298
0001f0 aa 2f 0e be ea 33 15 bd 2b c6 8c bd d5 61 01 3d
       -0.1388537 -0.036426462 -0.06873735 0.03158744
000200 df 22 73 be ba b6 55 be ce fe e1 bd 7a 81 8c be
       -0.23743771 -0.20870486 -0.11034928 -0.27442533
000210 c7 b6 fd bc 72 fb 42 3c ca 00 af bd 04 33 31 be
       -0.030970944 0.01190077 -0.085450724 -0.17304617
000220 8f 82 45 bd 53 b0 19 bd af 46 68 bd f3 03 23 be
       -0.048220214 -0.03752167 -0.056708034 -0.15919475
000230 18 81 6b be 4f 9d 52 be a9 53 e7 bd e1 8c d3 be
       -0.22998464 -0.20567821 -0.11295254 -0.4131842
000240 2a 5e cc 3e 29 89 a8 3d a3 1b 94 3d 5b b2 6c be
       0.3991559 0.08229286 0.07231834 -0.23114912
000250 ce d8 4b 3e 2e a5 b4 3c 70 73 ba bd f5 df 0c bc
       0.19906923 0.02205142 -0.09104049 -0.008598317
000260 ac 71 53 3e b7 5f 68 3c 4e 88 24 bd 0f 20 9c bd
       0.20648831 0.014182976 -0.040169053 -0.07623302
000270 15 49 66 3d f1 9f 5e 3d f5 ae 9b 3d 08 fb 80 3e
       0.05622204 0.05435175 0.0760173 0.25191522
000280 33 5f e4 3d ba f8 73 3c e6 b0 fd bb d0 86 06 3e
       0.1115097 0.014890844 -0.007742035 0.13137364
000290 7c 83 ae 3d 87 d2 9a 3a 5c 47 4e bd 55 db 4a 3e
       0.085211724 0.001181201 -0.050361022 0.19810231
0002a0 0b 0a af bc e3 f1 0f bc 0b bf fa bc 49 75 c1 bc
       -0.021367094 -0.008785698 -0.030608675 -0.023615496
0002b0 8c 6a 23 3d c8 a2 ae bd 67 1d a0 bd c4 9b f4 bd
       0.039896533 -0.08527142 -0.07818108 -0.119437724
0002c0 33 f4 e5 3e b3 d0 51 3e de 6d c8 3d 2c 48 04 3f
       0.44912872 0.20489769 0.097865805 0.51672626
0002d0 fe c1 09 3e 1f 17 3f 3d 13 67 17 bd af 5b 2b 3e
       0.13452908 0.04665291 -0.036963534 0.16734193
0002e0 d3 25 4a 3e e8 9c 61 3d 43 00 81 3d 21 06 60 3e
       0.19740991 0.055081278 0.06298878 0.21877338
0002f0 1d 6b 5b 3e 7e dc 9b 3d d3 b5 37 3e c1 82 1a 3e
       0.21427579 0.07610415 0.17940454 0.15088941
000300 2d 26 c9 3d 2e 3c 03 bc f9 30 dd 3c 6e bc 3f 3c
       0.098217346 -0.008009953 0.027000891 0.01170264
000310 9f 4a ad 3b fd b7 25 bd d0 6b ad bc 9b 01 cb 3c
       0.0052884365 -0.040458668 -0.021169573 0.024781039
000320 4f 5b 1c 3d 52 5d 39 bb 34 aa 2b bd 64 38 a1 3d
       0.038173016 -0.0028284383 -0.041910365 0.07872084
000330 73 de 7b be 54 9f b0 bc 51 d5 23 bd 7c e9 a7 bb
       -0.24596576 -0.021560349 -0.039998356 -0.005124269
000340 80 c8 89 be af 70 88 bd b8 de 8a bd d7 94 a6 bd
       -0.26910782 -0.06662118 -0.067807615 -0.08133858
000350 e9 57 59 be de 90 28 be 74 cb 3d be da ec 26 be
       -0.21224941 -0.16461512 -0.18534642 -0.16301289
000360 41 20 3b be ef d6 9d bd 9b 0e 1c be c2 17 42 be
       -0.18274023 -0.07707011 -0.15239947 -0.18954375
000370 2f df 57 be c3 40 82 be e5 36 85 be f2 f3 ed bd
       -0.21081232 -0.25440034 -0.26018444 -0.116187945
000380 bf 73 e6 3d ee be a0 bc e0 13 a8 bd aa 30 1d 3e
       0.112525456 -0.019622292 -0.08206916 0.15350595
000390 74 29 bc bc 46 5a 65 3c 6b 55 ce bd a7 00 bf bc
       -0.022968985 0.013998574 -0.10074886 -0.02331574
0003a0 17 7e 10 3d 04 78 3d 3d 79 fa 0a 3d 31 e2 25 3d
       0.0352765 0.046257034 0.033930276 0.040498916
0003b0 ee 65 89 bd d2 75 9e 3d a3 e8 23 3e 42 bf b4 bd
       -0.06708895 0.07737316 0.16006713 -0.08825542
0003c0 fd 2e 63 be 2c 9d 4f bd 31 a0 84 bc 0d 29 c1 3e
       -0.22185893 -0.050687 -0.016189666 0.37726632
0003d0 9c e3 8d bb 14 d5 80 3c 23 70 6a bd 99 40 04 bc
       -0.0043301117 0.015726604 -0.05723585 -0.008072042
0003e0 c7 f8 0a bd c1 1a e5 bc bb 5a 3a bd 0c e5 bf 3d
       -0.03392866 -0.027966859 -0.045496684 0.09369859
0003f0 48 99 00 3d 98 68 0f bd a1 96 01 bd 89 67 46 3e
       0.03139618 -0.035011858 -0.03163779 0.19375433

output.bias f4 [10]
000000 48 c2 84 bd ae d5 21 be 12 07 9d be fc 95 d5 bd
       -0.06482369 -0.15804169 -0.30669457 -0.10428998
000010 e7 17 3a 3e 3b 89 11 bc e5 9a a8 3e 50 01 e2 3d
       0.1817318 -0.008882816 0.32930675 0.110354066
000020 0d d8 14 3e d2 8a 73 3d
       0.14535542 0.05945856
