runs/0006_NN_1_bsz-128_lr-0.001_ep-60-desc-.pth (torch, 49544 bytes, 4 tensors)

fc_1.weight f4 [107, 107]
-0.77583134 -0.4176342 0.058095794 0.18605286 0.15246044 0.55857235 -0.09299708 0.012670564
0.23652117 0.19560057 -0.0078029353 0.03203186 -0.29100624 0.04573588 -0.02272206 0.21191376
-0.38599426 -0.012468667 0.1572206 0.12819882 -0.2488544 0.009749716 0.112865195 0.014783745
-0.024327384 0.033807013 0.16834497 0.05060709 0.35791612 0.057414148 0.10629545 -0.022869552
0.04408892 0.018100258 0.24902248 0.09224311 0.11661902 -0.15088844 -0.122791655 0.0055923406
0.02013865 -0.1702522 -0.5365634 -0.03585587 0.12842095 -0.09147395 0.3064395 0.23972301
0.24601766 0.14723678 -0.12644745 0.012748599 0.34332663 0.06953646 -0.085957505 0.016423786
0.11831973 -0.14669438 0.09024656 -0.101634696 -0.13902757 0.3167043 0.05311007 -0.20570554
-0.035296224 -0.054598767 0.019971585 0.06997636 -0.12507425 -0.036156293 0.05216724 0.06361332
-0.012877627 -0.06608243 0.17688347 -0.20558305 -0.10341767 -0.10329689 0.16874777 -0.14854793
0.017491374 0.1352137 0.08827587 -0.018345136 0.16757697 -0.0798044 0.07667111 0.056818075
0.07041398 -0.124491215 -0.041763943 -0.11943913 -0.009220156 0.31342772 0.011701465 -0.017961739
0.011624294 0.07195387 0.32184806 0.022364758 0.023176223 0.04971795 0.09335218 -0.020709943
0.12690921 0.03703519 -0.03174696 -0.51792616 0.037512053 -0.08603644 -0.066599466 0.10367333
-0.23720592 0.018147942 0.19796783 -0.035577387 0.20105596 0.11345235 -0.13851005 -0.20810056
0.18901835 0.14154212 0.32305866 0.20697913 0.0108216405 0.065104745 0.090594545 -0.08407037
-0.24907692 -0.09611306 -0.022208046 -0.12918724 -0.050969813 0.1677329 -0.07829737 0.011823204
0.20329995 -0.34668773 0.021605993 -0.052973043 -0.08031237 -0.032070197 0.09536374 -0.05482486
0.21531273 0.110796735 0.059247583 0.02795867 -0.12052762 -0.3213525 0.26862162 0.085707605
-0.1629845 0.086321704 0.013353743 0.1796604 -0.13089746 0.20365423 -0.0800063 -0.11355821
-0.32462978 -0.06770724 0.16127193 0.46674788 -0.35966605 0.27912155 -0.31541365 0.2236832
0.119575486 -0.16480489 -0.1030988 0.27926436 -0.1885477 0.14229415 0.029391548 0.11452806
-0.27953824 0.023910148 -0.052689243 -0.121469125 0.076073416 0.07159089 0.037742008 -0.06553988
-0.15838633 0.101087555 -0.10912495 0.048836708 -0.04455985 -0.10301628 0.06967325 -0.18832059
0.042964995 0.101787716 0.140802 0.13168922 0.12664883 -0.05871954 0.10863403 -0.051607568
0.22470695 0.027688326 0.008492824 -0.051952314 -0.042618886 0.12266488 0.029318292 -0.07096119
0.116076306 0.14444976 0.06335591 -0.06616733 -0.17398757 0.14508171 -0.14182714 -0.11028839
0.049667414 0.4089312 0.33628 -0.265401 0.27223933 0.062553816 0.15941706 -0.059492595
-0.01593825 -0.08052617 0.25975302 0.028522676 -0.15433873 0.26384285 -0.089946166 0.056350954
-0.16052376 0.035788648 -0.05833299 -0.011246429 0.19496886 -0.140712 -0.058566928 0.109973535
0.068142 -0.067508414 -0.013860087 -0.09163089 0.15987635 0.08074997 -0.10766829 0.055671856
-0.24471979 0.1109698 0.08064895 -0.61237407 0.1065135 -0.024571754 -0.11901931 0.18266185
00000000: e29c 46bf 26d4 d5be dbf5 6d3d a484 3e3e
00000010: 971e 1c3e 99fe 0e3f 4175 bebd 3398 4f3c
00000020: 9b32 723e 844b 483e c4af ffbb d733 033d
00000030: c5fe 94be 8c55 3b3d 9d23 babc ecff 583e
00000040: 0aa1 c5be 6149 4cbc 70fe 203e 8d46 033e
00000050: b0d3 7ebe 46bd 1f3c de25 e73d 8537 723c
00000060: 394a c7bc 3979 0a3d a062 2c3e 6149 4f3d
00000070: c840 b73e 192b 6b3d 6eb1 d93d ed58 bbbc
00000080: 9596 343d fe46 943c c0ff 7e3e f5e9 bc3d
00000090: f4d5 ee3d 8082 1abe 317a fbbd f43f b73b
000000a0: cff9 a43c 9856 2ebe 385c 09bf 9bdd 12bd
000000b0: c880 033e b256 bbbd a3e5 9c3e f379 753e
000000c0: 0eec 7b3e 3dc5 163e 717b 01be 80df 503c
000000d0: 82c8 af3e 2269 8e3d 7d0a b0bd 2d8b 863c
000000e0: 9d51 f23d 0d37 16be 30d3 b83d da25 d0bd
000000f0: 3e5d 0ebe 1127 a23e f289 593d 79a4 52be
00000100: c692 10bd f5a2 5fbd 739b a33c c44f 8f3d
00000110: 7713 00be 9f18 14bd 51ad 553d b347 823d
00000120: affc 52bc 3a56 87bd f120 353e 5d84 52be
00000130: a5cc d3bd 528d d3bd 37cc 2c3e f31c 18be
00000140: 124a 8f3c 7675 0a3e fbc9 b43d 8a48 96bc
00000150: 4c99 2b3e 7d70 a3bd be05 9d3d 12ba 683d
00000160: 3435 903d 40f5 febd ab10 2bbd 819c f4bd
00000170: 2310 17bc 9979 a03e 80b7 3f3c 7f24 93bc
00000180: d373 3e3c 8d5c 933d 45c9 a43e 4c36 b73c
00000190: 10dc bd3c 0da5 4b3d 6e2f bf3d e6a7 a9bc
000001a0: 7df4 013e 36b2 173d 1a09 02bd cf96 04bf
000001b0: 3da6 193d e033 b0bd 4d65 88bd af52 d43d
000001c0: 1ce6 72be feaa 943c 14b8 4a3e 98b9 11bd
000001d0: 9de1 4d3e b559 e83d 94d5 0dbe 5018 55be
000001e0: 078e 413e 6bf0 103e f267 a53e 56f2 533e
000001f0: 404d 313c a355 853d a289 b93d 162d acbd
00000200: 050e 7fbe edd6 c4bd a6ed b5bc a949 04be
00000210: b9c5 50bd 2cc2 2b3e 5f5a a0bd 1db6 413c
00000220: dd2d 503e 0e81 b1be 0dff b03c 43fa 58bd
00000230: d07a a4bd 0a5c 03bd 114e c33d 0890 60bd
00000240: f17a 5c3e 66e9 e23d 98ad 723d 9509 e53c
00000250: 2fd7 f6bd 5188 a4be c688 893e 7887 af3d
00000260: 69e5 26be 6fc9 b03d a8c9 5a3c e5f8 373e
00000270: fc09 06be bc8a 503e 58da a3bd 3591 e8bd
00000280: e035 a6be 18aa 8abd 7824 253e 94f9 ee3e
00000290: 2626 b8be 05e9 8e3e e67d a1be 350d 653e
000002a0: fee3 f43d 9dc2 28be 7725 d3bd bdfb 8e3e
000002b0: a612 41be 8fb5 113e 8bc6 f03c b08d ea3d
000002c0: a31f 8fbe 37df c33c add0 57bd cec4 f8bd
000002d0: 61cc 9b3d 3f9e 923d 5d97 1a3d c639 86bd
000002e0: 0730 22be fe06 cf3d e77c dfbd 0009 483d
000002f0: 6484 36bd 33fa d2bd d9b0 8e3d 1dd7 40be
00000300: 10fc 2f3d 1476 d03d 662e 103e 8ad9 063e
00000310: 3bb0 013e e683 70bd 857b de3d 7562 53bd
00000320: 9419 663e a1d2 e23c 7c25 0b3c f3cb 54bd
00000330: 2491 2ebd b937 fb3d ea2c f03c 1a54 91bd
00000340: 6ab9 ed3d a3ea 133e bec0 813d bd82 87bd
00000350: cc29 32be 4d90 143e 223b 11be e1de e1bd
00000360: 0f70 4b3d 6e5f d13e e42c ac3e a4e2 87be
00000370: f462 8b3e 371c 803d 3a3e 233e 82ae 73bd
00000380: ef90 82bc e8ea a4bd 59fe 843e 63a8 e93c
00000390: f90a 1ebe 6916 873e b235 b8bd 42d0 663d
000003a0: 5760 24be 1e97 123d 93ee 6ebd f142 38bc
000003b0: eba5 473e ce16 10be e0e3 6fbd ce39 e13d
000003c0: 088e 8b3d da41 8abd 6b15 63bc faa8 bbbd
000003d0: a0b6 233e 3e60 a53d 3181 dcbd 2c08 643d
000003e0: d397 7abe 2244 e33d 472b a53d 8cc4 1cbf
000003f0: c023 da3d b44a c9bc 65c0 f3bd b50b 3b3e

fc_1.bias f4 [107]
-0.11308698 -0.15013011 0.008445494 -0.07938184 -0.16172749 -0.0752851 -0.26587483 -0.015747007
0.06370796 0.04002088 -0.13691479 -0.32517105 -0.16627882 -0.08747247 -0.26175445 -0.018883158
-0.021351676 -0.20073354 -0.168992 -0.35268623 -0.14108312 -0.25946337 -0.04545528 -0.083134554
-0.11861661 -0.04366531 0.042041887 -0.22619642 -0.027893478 -0.1446325 -0.16091233 -0.19737382
0.019414537 -0.08894347 -0.15966445 -0.0051755747 0.052531954 -0.058809344 0.039736904 0.011213619
-0.24216151 -0.15620632 0.078728236 0.09289243 -0.07308461 -0.0172381 -0.0475204 0.055292405
0.06807806 -0.06309838 -0.15418316 -0.10431981 -0.3592599 -0.19478111 0.015694829 -0.03777105
-0.4558951 -0.11744567 -0.012382323 -0.028088188 -0.21876314 0.055041805 -0.0063711847 -0.06075332
-0.07290998 -0.003336046 0.037485097 -0.12709191 -0.0725934 -0.03597576 -0.05433274 -0.16131115
0.084605716 -0.0475555 -0.2768092 -0.039621845 -0.016010294 0.01894906 0.09285647 -0.06836031
-0.10043858 -0.15528423 0.036438674 -0.020760862 -0.08338264 -0.07019668 0.0030729724 0.06656979
-0.17436545 -0.06796957 -0.24770062 -0.034960747 0.053328965 -0.0113580255 -0.25577384 -0.38598308
-0.15066853 0.040155254 -0.04375736 -0.022655547 -0.28096107 0.055392127 0.07382604 -0.09545606
0.021968596 -0.07633464 0.09091169
00000000: 269a e7bd b5bb 19be f85e 0a3c f292 a2bd
00000010: e49b 25be 132f 9abd bf20 88be deff 80bc
00000020: 5279 823d efec 233d 6433 0cbe d27c a6be
00000030: ff44 2abe c424 b3bd ae04 86be dab0 9abc
00000040: b6e9 aebc 188d 4dbe 3d0c 2dbe 4a93 b4be
00000050: 1878 10be 62d8 84be 512f 3abd 7342 aabd
00000060: 44ed f2bd 65da 32bd 1d34 2c3d 09a0 67be
00000070: dd80 e4bc 8b1a 14be 34c6 24be 5d1c 4abe
00000080: 3c0b 9f3c fe27 b6bd 147f 23be de97 a9bb
00000090: bf2b 573d 11e2 70bd 2ac3 223d 54b9 373c
000000a0: 30f9 77be 8df4 1fbe 453c a13d 633e be3d
000000b0: 62ad 95bd ea36 8dbc c0a4 42bd 4a7a 623d
000000c0: 836c 8b3d b939 81bd 31e2 1dbe a0a5 d5bd
000000d0: eaf0 b7be b374 47be 7192 803c d1b5 1abd
000000e0: 156b e9be 5b87 f0bd 3adf 4abc 3319 e6bc
000000f0: 7203 60be 8473 613d 5fc5 d0bb 79d8 78bd
00000100: d451 95bd 90a1 5abb f989 193d 6224 02be
00000110: d9ab 94bd 525b 13bd 028c 5ebd c02e 25be
00000120: c345 ad3d 8ec9 42bd efb9 8dbe 844a 22bd
00000130: 0528 83bc 0f3b 9b3c 882b be3d 7d00 8cbd
00000140: beb2 cdbd d402 1fbe b840 153d af12 aabc
00000150: 84c4 aabd 47c3 8fbd ec63 493b be55 883d
00000160: db8c 32be a133 8bbd 3ba5 7dbe 0033 0fbd
00000170: 796f 5a3d 0317 3abc caf4 82be 939f c5be
00000180: da48 1abe d679 243d eb3a 33bd 2098 b9bc
00000190: 21da 8fbe dbe2 623d 1b32 973d 777e c3bd
000001a0: 7cf7 b33c 5655 9cbd e82f ba3d

fc_2.weight f4 [2, 107]
0.061678287 0.19157201 -0.19236262 0.057663687 0.30082223 0.07333865 0.30031163 0.2499958
-0.20329419 -0.09452877 0.34217772 0.36987144 -0.05436525 0.059152212 0.17070164 -0.010119075
0.16446449 0.320556 0.17254893 0.101991415 0.28263628 0.27199736 0.24621633 -0.27357414
0.10014377 0.36642638 -0.032337576 -0.12372181 0.15819906 0.23398367 -0.16454622 0.2303801
-0.124968745 0.25355354 0.14924406 -0.14786993 -0.15539733 -0.15907829 -0.039723925 -0.15325153
0.29839525 0.2935923 -0.19664629 -0.25518188 -0.35327873 -0.27551463 -0.1653723 -0.20503478
-0.07643076 -0.19290401 0.07408446 0.1855854 0.28201672 0.1597787 0.31268093 0.0675363
0.38866377 0.35387242 -0.1588008 0.081139244 0.12466047 -0.2786016 -0.1547791 0.15734242
-0.0885918 0.32443687 -0.08568048 0.10523881 -0.23471254 -0.28889146 -0.2262761 0.15884547
-0.23592462 -0.14170855 0.22429241 0.31268376 0.12918805 -0.37190282 -0.25854868 0.12908266
0.2913493 0.0071141254 0.099027544 -0.37801194 0.16639003 0.15020545 -0.2249876 -0.15560853
0.34271902 -0.2527393 0.35069078 0.44995025 -0.32707664 -0.105429865 0.28449914 0.34478673
-0.3186294 -0.21940622 -0.047529075 0.33129054 0.2978141 -0.18766648 -0.08418046 -0.18276057
0.15194558 -0.19103064 0.24212135 -0.44118187 -0.32480732 0.20502892 -0.20427074 -0.17532185
-0.18578388 -0.20517598 -0.187872 0.26988477 0.16434336 -0.12956777 -0.007949561 0.1335243
-0.3334546 -0.31237325 0.28058365 -0.26409042 -0.19088636 -0.14558202 -0.43133682 -0.052734904
-0.17400125 -0.29912415 0.30751827 -0.13567223 -0.1240725 -0.27855167 0.3729071 -0.32844558
-0.36151507 0.21848142 -0.14758521 0.21863642 -0.14455837 -0.19072528 0.039156903 0.13317643
0.10018972 0.2544391 0.18331899 -0.2359447 -0.19293998 0.11608576 0.11279214 -0.031965036
0.084204696 0.23795478 0.029086398 0.2336605 0.18891631 -0.45753127 -0.13182454 -0.26200244
-0.08855125 -0.07304154 -0.29605803 -0.13767895 -0.19317418 0.34566796 -0.1953066 -0.14605522
0.19989088 0.31543577 -0.2549016 -0.30211654 -0.006847899 0.39042956 -0.31448093 0.12786585
0.14908291 0.19500725 -0.16410172 0.23225898 0.13096195 -0.17582645 -0.029629085 -0.179347
0.19745693 0.26841375 -0.26141444 -0.31742278 -0.25238964 -0.11846475 0.17438641 -0.22763005
-0.20810194 0.17260394 0.11517417 -0.08537297 0.16601467 -0.27519232 -0.048441213 0.029131815
0.18359245 -0.17422643 -0.34042454 0.1329827 0.14766309 -0.22298029 -0.014878681 -0.06022104
0.11228924 0.324814 0.3548413 -0.2717792 0.4194463 -0.11212647
00000000: 5fa2 7c3d 742b 443e b5fa 44be c230 6c3d
00000010: 5f05 9a3e 9332 963d 72c2 993e e6fe 7f3e
00000020: 5a2c 50be 4d98 c1bd eb31 af3e ca5f bd3e
00000030: 19ae 5ebd 9749 723d 69cc 2e3e 7aca 25bc
00000040: 6169 283e eb1f a43e abb0 303e e0e0 d03d
00000050: b4b5 903e 3d43 8b3e 2220 7c3e e911 8cbe
00000060: 2d18 cd3d 3d9c bb3e 6874 04bd dc61 fdbd
00000070: effe 213e 6a99 6f3e ce7e 28be c3e8 6b3e
00000080: 9def ffbd c5d1 813e 6fd3 183e 376b 17be
00000090: 7a20 1fbe 6be5 22be 8eb5 22bd f8ed 1cbe
000000a0: 43c7 983e bb51 963e a55d 49be 33a7 82be
000000b0: f3e0 b4be 4110 8dbe 5b57 29be a3f4 51be
000000c0: bb87 9cbd a188 45be 98b9 973d 190a 3e3e
000000d0: 7f64 903e 079d 233e b717 a03e 7950 8a3d
000000e0: f0fe c63e c42e b53e ad9c 22be 552c a63d
000000f0: fd4d ff3d dea4 8ebe 6a7e 1ebe 5f1e 213e
00000100: 9e6f b5bd 971c a63e 3f79 afbd 7287 d73d
00000110: 7c58 70be 95e9 93be ecb4 67be 63a8 223e
00000120: 3996 71be 0c1c 11be e9ac 653e 1618 a03e
00000130: df49 043e 0c6a bebe 7e60 84be 3f2e 043e
00000140: bc2b 953e 9c1d e93b f4ce ca3d c88a c1be
00000150: 2662 2a3e 75cf 193e 2663 66be d857 1fbe
00000160: de78 af3e 0c67 81be be8d b33e e15f e63e
00000170: 9776 a7be 9deb d7bd dfa9 913e e387 b03e
00000180: 6523 a3be 06ac 60be d9ad 42bd ea9e a93e
00000190: 177b 983e a42b 40be ce66 acbd 9625 3bbe
000001a0: 9f97 1b3e 899d 43be a9ee 773e 97e2 e1be
000001b0: 254d a6be 1af3 513e 592c 51be 9287 33be
000001c0: 213e 3ebe a719 52be 8461 40be 562e 8a3e
000001d0: a049 283e 6aad 04be e03e 02bc 98ba 083e
000001e0: 90ba aabe 63ef 9fbe a9a8 8f3e dc36 87be
000001f0: b777 43be 7413 15be 2ed8 dcbe 8e00 58bd
00000200: 622d 32be cd26 99be 0973 9d3e a9ed 0abe
00000210: b919 febd 539e 8ebe aeed be3e 052a a8be
00000220: 8118 b9be 98b9 5f3e 9420 17be 3ae2 5f3e
00000230: 1c07 14be 7d4d 43be fd62 203d 675f 083e
00000240: 4530 cd3d d745 823e f9b7 3b3e 7d9b 71be
00000250: 0f92 45be 5fbe ed3d 91ff e63d c5ed 02bd
00000260: 8373 ac3d 6baa 733e 9946 ee3c b344 6f3e
00000270: 4773 413e 8a41 eabe 03fd 06be 2f25 86be
00000280: 5c5a b5bd ce96 95bd eb94 97be b6fb 0cbe
00000290: 74cf 45be 64fb b03e 74fe 47be 808f 15be
000002a0: 32b0 4c3e cc80 a13e 7682 82be 05af 9abe
000002b0: 5764 e0bb 62e6 c73e a503 a1be 44ef 023e
000002c0: 31a9 183e fbaf 473e 480a 28be 4cd5 6d3e
000002d0: e41a 063e d90b 34be b2b8 f2bc bda6 37be
000002e0: 2632 4a3e 876d 893e 1dd8 85be 3d85 a2be
000002f0: 3739 81be a69d f2bd 5a92 323e da17 69be
00000300: ad18 55be 16bf 303e 6fe0 eb3d 06d8 aebd
00000310: c0ff 293e 02e6 8cbe 4b6a 46bd d8a5 ee3c
00000320: a9ff 3b3e 6a68 32be 204c aebe 9e2c 083e
00000330: fe34 173e f254 64be b6c5 73bc 56aa 76bd
00000340: e7f7 e53d 054e a63e c2ad b53e a526 8bbe
00000350: aac1 d63e 90a2 e5bd

fc_2.bias f4 [2]
-0.06200382 0.082000084
00000000: b8f7 7dbd a9ef a73d
