runs/0007_NN_1_bsz-1024_lr-0.001_ep-60-desc-.pth (torch, 49552 bytes, 4 tensors)

fc_1.weight f4 [107, 107]
00000000: acf1 ccbb 19ea e1bd c9f1 f8bd 6d2c 4e3e
00000010: 4932 263e 1927 37be 225c 8bbe bbab 183e
00000020: 341b 2c3d e229 353d 02ec 863d d085 cabd
00000030: 9d78 22be 71ae 873c 1e87 27bd bf60 1a3d
00000040: a072 f0bd c2e1 fc3d baef b43d 8e7f d53d
00000050: dcbc 87be c678 733d aadf 3dbe 7af6 79bc
00000060: cbce 4bbc e209 763e 6cad a7bc d105 47bd
00000070: 78f9 95bd cda9 b7bd 10cb ffbd 103c 7f3d
00000080: 3ef8 dd3d 8854 273e a4af 283d 0dae aabd
00000090: d5be d03c 5207 823d 4cca 1ebe f1c6 14be
000000a0: ea49 bdbd 3f1e c23d 1b5a 87bd 2e10 e43d
000000b0: ffc7 dc3d 9273 babd a1f2 8ebe 2dfc cabd
000000c0: d0d4 0fbc 8f79 953d bac1 d6bd 6002 42bd
000000d0: ab73 e6bc 5306 a43d d1c0 efbd 9794 133e
000000e0: d267 143d b76c 8ebd 50e5 32be c687 6d3d
000000f0: 2a60 94be 6b45 e8bb c42b 04be 43a6 1cbe
00000100: 11b9 f13d d0e2 db3d 49c3 973c 3f73 943b
00000110: 2c9d 18be de59 4dbd 41ae 24bc 3436 00be
00000120: f2f8 29bd 9ae7 3e3d 445c 1e3e 6d0a 993c
00000130: 1f1f 253d d39a 053e 7557 df3d 7bfb ed3d
00000140: 5890 013e 71a2 3ebd 256b c6bd fadb babd
00000150: b75e 00be a257 043e 45bd 3abd fa67 14be
00000160: 6d97 8a3d 01f2 153d d585 b83d b24f 233d
00000170: 2bff 033e cfad 01bc 434d b13d c6a2 093e
00000180: b12e 083e 16f3 6abd e8ee 4abb b6f5 cb3c
00000190: 8a72 d6bd 89f7 c23d 9fe6 963d af46 703d
000001a0: 9b42 92bc cbe6 1cbd 35a0 7dbd 2f49 1cbf
000001b0: 499f 073e 7f9b 763d a61f a0be 27fa 2a3d
000001c0: ab5a 393e eaad b5bc f092 71be a6ed 823d
000001d0: 2d00 b4bd 4dba 5e3e a045 febd 9453 29be
000001e0: ea79 373c 0777 2b3e cb1c eebd 4a6d ef3c
000001f0: 9dc7 883d f1da db3d b8dc d8bd a100 513e
00000200: 305e dabb a306 363e 4b86 fd3d c019 aabc
00000210: f0d8 f8bd 3d03 b7bd a359 8b3c 028c 143e
00000220: 22ec 8e3d 2c37 003c 028a 2e3e be68 b53d
00000230: e246 153d 3ac9 033e 1fea 2c3d 1312 88bd
00000240: 5589 47be d812 12bc 2c7d 943c 4fca 163e
00000250: f90c 5b3d d81f 85be f1ef 93be c105 0bbe
00000260: 76c7 05be 845b b1bd 4312 323d cb09 833c
00000270: 6eec 473b b58d 11be 6450 aebd 0513 de3d
00000280: 0f04 28bc b9a9 93bd 6b8e ae3d bdcc 403c
00000290: c744 ee3d 4a74 b1bc a044 9fbd de57 2cbd
000002a0: 6743 f2bd 6931 af3d 37ae eebd e2f5 dbbd
000002b0: 849d c7bd e0cd 2abe 114c 80bd 05f2 203e
000002c0: 0f40 2e3d 6b2e 003e 5018 983c 3182 953d
000002d0: 89d4 673d 4c10 4c3d f481 0c3e 19fe cd3d
000002e0: f113 563d 7775 9dbd 1a29 df3c b3da 75bd
000002f0: 4a8a 03bc 9ec7 fe3d e46f efbc 8d4c e4bd
00000300: 371d a3bc 05a1 6ebd f746 043e ad02 1abd
00000310: fb5f bebd 387b 8e3c aa19 813c a668 3cbd
00000320: 70df cc3d 9d15 aebc 643d c9bc 66f3 743d
00000330: 543f 7dbd c2e6 153e c7af f6bd 452b c8bd
00000340: 8b8e 80bd 9f21 003e 4066 15be ae90 cb3d
00000350: e52c c73d 931c df3c 000c 513c e070 c2be
00000360: 360e 53bd aca4 18bd 029c 7a3d 2dd4 63bd
00000370: 490d e33c 4e79 fa3d 72ba 2ebd 4193 e9bc
00000380: e669 a6bd 181b 48bd f596 b03d e345 1ebe
00000390: d33b a53c 7e40 c1bd 7ba1 333e dce3 51bc
000003a0: 1290 e5bd 18b1 6aba 9878 12bd 820d 5e3e
000003b0: 0431 77be 90a9 103e 8673 293e c9de c23d
000003c0: 006a b13c 5fe3 fe3c 4ed7 1cbe f4e9 03be
000003d0: 30c2 86be df3e 683e b443 b9bd 5da0 92bd
000003e0: dd81 4f3d 59bc cebd a338 48be 8108 5d3d
000003f0: 8b6e d53d 3f04 273d 8920 d3bd afcf 223e
-0.0062543955 -0.11030979 -0.12155492 0.20134135 0.1623012 -0.17886008 -0.2721873 0.1490926
0.04201813 0.044229396 0.06587984 -0.09888804 -0.15866323 0.016562672 -0.040900342 0.03768992
-0.11740613 0.123477474 0.08834787 0.1042472 -0.26511276 0.05944135 -0.18542352 -0.0152565185
-0.01243944 0.24027207 -0.020468436 -0.04858953 -0.07322973 -0.08967934 -0.12489903 0.06231314
0.10838364 0.1634084 0.04118313 -0.08333979 0.02548162 0.063490525 -0.15506858 -0.14529015
-0.092426136 0.09478425 -0.06608983 0.111358985 0.10780334 -0.091040745 -0.27919486 -0.0991138
-0.008778766 0.07298576 -0.10486169 -0.047365546 -0.028131327 0.08009019 -0.11706699 0.14412151
0.036231823 -0.069543295 -0.17470288 0.05799081 -0.28979617 -0.0070883534 -0.1290732 -0.15297799
0.11802877 0.107366204 0.018525736 0.00453034 -0.14903706 -0.050134532 -0.010051311 -0.12520677
-0.04149718 0.04660759 0.15464884 0.01868173 0.040312883 0.13047342 0.10905353 0.11620232
0.12652719 -0.046541635 -0.09688405 -0.091239884 -0.12536131 0.12924054 -0.045590658 -0.14492789
0.067671634 0.036607746 0.090099014 0.039870925 0.12890308 -0.007914974 0.08657315 0.13441
0.13299061 -0.05736073 -0.0030965153 0.024897438 -0.10471065 0.0951987 0.07368206 0.05866116
-0.017854026 -0.03830604 -0.061920363 -0.6104917 0.13244356 0.060206886 -0.31274146 0.04174247
0.18100993 -0.022177655 -0.23591208 0.06392984 -0.08789096 0.21750756 -0.12415624 -0.16535789
0.0111985 0.16744624 -0.116265856 0.029226918 0.06678698 0.10735119 -0.10588974 0.20410396
-0.00666406 0.17775969 0.1237913 -0.020764232 -0.121507525 -0.089361645 0.017010516 0.14506534
0.069786325 0.007825654 0.17044833 0.088578686 0.036444552 0.1286973 0.042215463 -0.066440724
-0.19485982 -0.0089156255 0.018126093 0.14725612 0.05347917 -0.26000857 -0.28893998 -0.13576414
-0.1306437 -0.08660033 0.043474447 0.01599588 0.0030505913 -0.14214213 -0.08511427 0.108434714
-0.010254874 -0.072101064 0.08523258 0.011767563 0.11634212 -0.021661896 -0.07776761 -0.042075984
-0.11829262 0.08554346 -0.116543226 -0.10740258 -0.097468406 -0.16680098 -0.062645085 0.15717323
0.04254156 0.12517707 0.01856628 0.07300223 0.056599174 0.04982023 0.13721448 0.10058231
0.05226511 -0.0768842 0.027241278 -0.06002302 -0.008028576 0.12440418 -0.029228158 -0.111474134
-0.019911392 -0.05825903 0.12917696 -0.037600208 -0.092956506 0.01739274 0.015759308 -0.045998238
0.10003555 -0.02125054 -0.024565406 0.059802435 -0.061827973 0.14638808 -0.120452456 -0.09773878
-0.06277188 0.12512825 -0.14589787 0.09939705 0.0972536 0.027235305 0.012759209 -0.37976742
-0.051527224 -0.03726642 0.061183937 -0.05562227 0.027716296 0.12230168 -0.042658277 -0.028512599
-0.08125667 -0.048853964 0.08622543 -0.15456347 0.020170128 -0.09436129 0.17542069 -0.012810674
-0.1120912 -0.00089527806 -0.03575954 0.2168484 -0.24139792 0.14127183 0.16547975 0.09515149
0.02165699 0.031114278 -0.15316507 -0.12882215 -0.26320028 0.22680233 -0.090461165 -0.07159493
0.050660957 -0.10094518 -0.19552855 0.053963188 0.10421475 0.040775534 -0.1030894 0.15899538

fc_1.bias f4 [107]
00000000: f127 bc3b becc b3ba 681e a93c 1d35 bc3c
00000010: b2c3 f13b 8062 173d 8f91 80bc 0e1b 7d3d
00000020: ecdd 8a3c cbe3 043d 0e3a cdbb c11e 993b
00000030: d06d 093c cd38 f3b9 2353 8c3d 94f1 b3bc
00000040: ce78 7abb 907e 4dbd 796f 863c df48 09ba
00000050: aea3 dd3b b734 0bbc 250d 11bd 4368 81bc
00000060: 3780 413d cf03 013c 7a99 6e3d ac9b 633c
00000070: 925d 9c3d f772 8c3d e895 cb3c dfd8 2fbb
00000080: d348 933c e03e 90bd d6f5 f5bc bf22 b23d
00000090: ed51 d9bb 2361 623d a542 a73c f26e a93c
000000a0: 6259 c33c 69bc 60bd 17ae 33bd adeb 583d
000000b0: c507 493c 91dc 2f3d 8946 f1bb d304 463c
000000c0: 1714 e0bb f319 803d 4bcd ed3c 710d 3c3c
000000d0: b649 603d 14f6 15bc 5a0b e5bc 62d9 f23b
000000e0: 7c86 08bc 396b 023c 450a 61bd 6907 7e3d
000000f0: c614 63bb 8d30 80bd 82f2 f03b abea 8fbb
00000100: de52 db3b 3dab ccbc 294a 843c c68f 9abb
00000110: 370e 5f3d 4874 25bd 47b7 cf39 65a2 873c
00000120: ee55 99bd 19b4 603d 467f b83c 4913 94bd
00000130: 8ed4 133d 91f1 47bd 20b6 cbbc c99e 7fbd
00000140: fe02 743c 0f97 7cba 4b52 61bb 36e3 a33d
00000150: 42b2 4bbd 8de3 9b3c 1e04 7ebc c3c8 4839
00000160: 7b11 f03c 1894 ccb9 9bed d73b e379 953b
00000170: f158 bc3c 22f7 a73d 34ad d73c f0bb f9bc
00000180: 3dbe 07bd 7656 1b3d da84 de3c 0f2a d3bd
00000190: 9381 483c dacc f53c 53d5 0d3c 4898 8f3d
000001a0: 34a1 033d 9dbf ab3d 8a11 afbc
0.005742066 -0.0013717634 0.020644382 0.022974545 0.007378065 0.03695917 -0.015694408 0.06179338
0.016951524 0.032443803 -0.006263024 0.0046728556 0.008387998 -0.00046390892 0.068517946 -0.02196578
-0.0038218978 -0.050169528 0.016410576 -0.0005236994 0.006763897 -0.008496455 -0.035412926 -0.015796786
0.047241416 0.007874443 0.058251835 0.013892096 0.076350346 0.06857865 0.024851754 -0.0026832146
0.017979061 -0.070432425 -0.03002445 0.086980335 -0.006632081 0.055268418 0.02041752 0.020682786
0.023846332 -0.054867182 -0.043867197 0.052959133 0.012269919 0.042934958 -0.007363145 0.012086111
-0.0068383324 0.062549494 0.029028555 0.011477814 0.054757796 -0.009152908 -0.027959514 0.007411168
-0.008332845 0.007960134 -0.054941434 0.062018786 -0.0034649833 -0.0625926 0.007353128 -0.0043919883
0.006693228 -0.024983997 0.016148644 -0.004716846 0.054456916 -0.040394098 0.0003961867 0.016556928
-0.07487093 0.054859255 0.022521626 -0.07230241 0.03609138 -0.04881436 -0.024867117 -0.06240729
0.0148932915 -0.00096355466 -0.0034381326 0.080023214 -0.049730547 0.019029403 -0.015503911 0.00019148276
0.02930521 -0.0003902025 0.006589604 0.004561649 0.02299163 0.08201434 0.026327707 -0.030485123
-0.03314041 0.037924252 0.027162958 -0.103107564 0.012237924 0.030004907 0.0086568175 0.07011467
0.032136157 0.08386157 -0.021370668

fc_2.weight f4 [2, 107]
00000000: b8e5 41be ecc2 aa3e 6b23 74be b456 6c3e
00000010: 855b 5f3e 8e8e 2ebe 48fd f1bd bc97 053d
00000020: e34e 523e e972 87be a7ff ecbb 007e 48be
00000030: 189d aa3e 6c14 3f3e ff5c 6ebe 402e 5fbe
00000040: 53ff 7c3e 898e 773d 0f2b 7f3e 238c 523e
00000050: 7357 3abe 9610 b13e 39ae 97bd c24c 34bc
00000060: 8fda 5dbe 590d 453e 4edb bfbd 1c2f 73be
00000070: 9cdd 1abe 43f4 d53b 4585 4ebe 569f 2b3e
00000080: d71e 69be 3b00 7f3e 9cf6 39be 2126 2a3e
00000090: 599e ca3c 0544 953d ef99 5dbe 121e 113e
000000a0: faef 41be 8699 943e e2cb 8b3e 02d9 8b3d
000000b0: 55f6 473e 3d7b d43d d6af 233e 937e 35be
000000c0: d725 61be 8a9f aabd 97d1 5ebe 1f48 64be
000000d0: 734c 113e b579 8d3b aa31 b03e 8b97 e83d
000000e0: d51c 133e d916 8cbe 3081 5fbe 97e8 8ebe
000000f0: af56 1c3e f061 583e 6bba f43d cb02 9e3d
00000100: ad68 053e 0980 8f3e 8dcf 43be eb57 29be
00000110: 4ccd 813e ec6e 7a3e 745c 573e 8c62 26bd
00000120: 1a1e 843d d439 a1be 5fca 3f3e d4d0 6e3e
00000130: 576d 77be f2d1 293d 293c 903e 427e 183e
00000140: 29c3 263e f06f 6ebe 3328 3fbe b542 74be
00000150: 9982 5a3e 4853 24be 753a 47be 1446 9b3c
00000160: f508 ebbd bdc0 52bd 1c74 92bd 58ad 763e
00000170: 9dcc 5e3d 01c7 aebe 9b54 19be f5f3 863d
00000180: 03c2 263e 68b7 803e 1749 67be 8c95 243e
00000190: 42cd 883e 91ea 69bd e70e e73d 5f4c ff3d
000001a0: 939c 843e 99dc c3bd 226a 8d3e 3517 9f3d
000001b0: 551a b9bc 542e cb3d 4ff8 59bd b93b 97bd
000001c0: 83d6 b53d 97f7 893e 5ee8 af3e a774 33be
000001d0: 3157 7b3e be32 833e f6ab 0d3e 072c 30be
000001e0: 785e 61be beea 913d 20f0 e9bc e6e1 9ebe
000001f0: 2375 3bbe 1311 5ebe df21 3abe 60c1 da3d
00000200: ed89 65bd 8a38 713e 39ac a2be e5c1 593e
00000210: 42b5 5fbe f82b 503e cab0 6d3e 9e02 2a3e
00000220: 40e7 2e3e 45da 5f3e 7afb b0be ec00 15bc
00000230: 77f5 54be ac6a 153e 8b17 1cbe 23cf 853e
00000240: a196 3fbe 8528 fb3d 2d56 55be edb1 5f3e
00000250: e7cd 6fbd d9fc 6fbd bd18 96be e4f8 28bd
00000260: 2a0b 38be b423 19be 628c 353e 4d55 f53c
00000270: 463b 033e 3dc4 c73b c666 3d3e 8046 f7bd
00000280: a451 7cbe 30b4 583d 9d28 47be 014d e1bd
00000290: 3454 283e 8421 633e c9d8 b3bb 9764 8cbd
000002a0: 43db 39be e4f6 73bd f6e9 6fbe ac0c 69be
000002b0: badc 89be efae 593e 4b36 523e dce7 e5bc
000002c0: 9a06 f2bc 7143 bf3c 0b09 423e 5e23 a6be
000002d0: 83c9 613e 36ab 35be 6601 9dbe c545 863c
000002e0: efc0 a0bd f994 15be 19de e4bd 0be3 91be
000002f0: 37de ef3d 0001 083e 98b5 5b3e d096 67be
00000300: d9a5 153e 4e5c 513e 6556 abbe b8d1 eb3d
00000310: e54e a2be 930d a3be 9e24 6fbd f3d5 8abe
00000320: 4288 313d 4026 f03d a32d 67be b3fa 99be
00000330: b807 bcbd ae54 bf3c 15f2 27be 4653 8bbd
00000340: 221b 583e 22f0 81be 722e 73be 0db7 aebd
00000350: 68f1 673e 138f 8bbe
-0.18935287 0.3335184 -0.23841636 0.2307995 0.21812256 -0.17046568 -0.11815888 0.03261541
0.20537905 -0.26454857 -0.0072326246 -0.19579315 0.33322978 0.18660134 -0.23277663 -0.21794987
0.24706773 0.060438666 0.2491877 0.2056127 -0.18197422 0.34582967 -0.07406277 -0.011004629
-0.21665405 0.19243373 -0.09368001 -0.2374844 -0.151236 0.0065293624 -0.20168026 0.1676
-0.2276567 0.24902432 -0.1816048 0.16616108 0.02473371 0.07288364 -0.21640752 0.14171627
-0.189392 0.2902338 0.27303988 0.068285 0.19527562 0.10375068 0.15985045 -0.17724065
-0.21987091 -0.08331211 -0.2175964 -0.22293137 0.1418932 0.004317487 0.3441289 0.113570295
0.14366467 -0.2736118 -0.21826625 -0.27911827 0.15267442 0.2113111 0.11949619 0.077153765
0.13028212 0.2802737 -0.19122143 -0.16537444 0.25351942 0.24456376 0.21031362 -0.040621325
0.06451054 -0.31489432 0.18729542 0.23321849 -0.24162804 0.041459985 0.281709 0.14891914
0.16285385 -0.23284888 -0.18667679 -0.23853572 0.21338882 -0.16047394 -0.19455893 0.018954314
-0.11476318 -0.05145334 -0.07151052 0.24089563 0.054394353 -0.34136203 -0.1497368 0.065895
0.16284947 0.25139928 -0.22586475 0.16072673 0.267191 -0.057108466 0.11282139 0.124657385
0.25900707 -0.0956356 0.27620035 0.07768098 -0.022595564 0.09920946 -0.05321532 -0.07384438
0.088788055 0.2694671 0.3435697 -0.17524968 0.2454498 0.2562465 0.13835129 -0.17204295
-0.22008693 0.07124852 -0.028556883 -0.31031722 -0.18306403 -0.21686201 -0.18176983 0.106814146
-0.05603974 0.23556724 -0.3177202 0.21265371 -0.21846488 0.20329273 0.23211971 0.16602561
0.17080402 0.21860607 -0.3456686 -0.009094458 -0.20796762 0.14591473 -0.15243356 0.26134595
-0.18709804 0.12263588 -0.20833655 0.21845217 -0.058545973 -0.058590744 -0.2931575 -0.041252986
-0.17973009 -0.14955026 0.17729333 0.029947901 0.1281558 0.0060963915 0.18496236 -0.12073994
-0.24640518 0.052906215 -0.19449086 -0.110010155 0.16438371 0.22180754 -0.0054884893 -0.068551235
-0.18150048 -0.059561625 -0.23429093 -0.2275874 -0.26926214 0.21258138 0.20528524 -0.02806466
-0.029544163 0.023347588 0.18948762 -0.32448858 0.22049527 -0.17741093 -0.3066513 0.01639069
-0.07849299 -0.1460761 -0.11175174 -0.28493533 0.11712306 0.13281631 0.21455991 -0.22616124
0.14614047 0.20445368 -0.3346435 0.1151461 -0.31700817 -0.31846294 -0.05838453 -0.27116355
0.043342836 0.117260456 -0.22576003 -0.3007408 -0.0918116 0.023355808 -0.1640094 -0.068029925
0.211041 -0.2537852 -0.23748186 -0.08531008 0.22650683 -0.27257594

fc_2.bias f4 [2]
00000000: 0d22 3c3b a951 8c3c
0.002870682 0.017128782
