runs/0008_NN_1_bsz-128_lr-0.01_ep-60-desc-.pth (torch, 49536 bytes, 4 tensors)

fc_1.weight f4 [107, 107]
00000000: 999a 48bd 12fb 6cbf 0e9b a63d 6caa f43f
00000010: 11df 683f f953 c4bf 125d 1c3f ca90 9bbd
00000020: 1680 91be 63e2 d340 3d4e 26bf 30d9 953e
00000030: ca1d 473f 3e09 b63f b07e 9940 dd3c c63e
00000040: bb9a a03e a35e 363f e1e8 17bd 508d dc3e
00000050: e6bc 853f 94e4 253f c61e 983f a0d0 663f
00000060: fab3 23bf c99f ec3e 0925 603f bfbd 1e3e
00000070: 5523 3c40 548b 903f d546 09bf 1d61 b4be
00000080: a374 15be 60f6 4b3e 5705 393f 690d 943f
00000090: 2b5b e53e e016 0cbe f865 e13e 3fea 593f
000000a0: 36ac 7abe 04f8 25bf e13d 84be 96d6 5dbe
000000b0: a2cd 923e bee8 8f3f 4a85 b73e f615 a43f
000000c0: 2a1a c5be 3309 bfbe 1833 0240 51f8 f03e
000000d0: edfc 323e 709e 0abe fceb 84be c693 df3e
000000e0: d701 1d40 589c e3be 9058 0abf a3f5 9d3e
000000f0: 9306 c5be 3120 303e 094e 783f 1035 103f
00000100: 600b a0bc 1076 c33d d208 113f e699 3e3f
00000110: 95c6 813f 6ffc b33e a583 703f e170 1a3f
00000120: be25 8f3f 5295 ba3d 45a0 b23f be56 6a3f
00000130: 890a 513e 5170 c63e 3e13 563e a0d4 a73e
00000140: 5c22 be3e 3bd9 2f3f 386e 2d3e a1b5 993e
00000150: b274 953e 10a1 7d3e ecb9 c93e 426d 9b3f
00000160: 47d6 203f 7547 603f de20 473e e9f1 b33e
00000170: 4ced 803f 9bb1 7840 2a41 803e 4ded 6d3f
00000180: fa10 b63e 71b3 113e ba7c b03d 6532 dd3d
00000190: 4cb7 7d3f d243 943e 1ca6 973e 0d6a d43e
000001a0: 4323 3840 e859 7f3e d000 a43e 5648 5ebf
000001b0: d741 fc3e 8ccb 1a3e 6a8a 0d3f fe4f 233f
000001c0: 179a 06bf 0390 923e 212b c53e 092b 023f
000001d0: f2be c740 1d08 b73e 0c1f d2bd 2a3a dc3c
000001e0: ee0c 723f 2005 8e40 4f79 b93f 178b 8c3f
000001f0: 1ef7 b73e 667e 0b3f f90d 3d3f 9f4f 023f
00000200: 4e92 123f db0e a13f f6ef 6a3e a66e 7d3f
00000210: 792c ca3e a1c9 913f 6a6c f7be b841 9040
00000220: d4f0 b33e 8c35 ea3e 7e49 083f 4ad6 233e
00000230: 97dd 3abe 28cb 893e cef8 6e3f 3529 513f
00000240: fd72 9b3e 5a15 843d 54cc 883f 3f7b 2dbe
00000250: b356 e73e 7d38 bc3e 586e 523f 8b60 793f
00000260: 6d28 523f 2423 8c3f 441f 953f c693 8c3e
00000270: 7e43 813d 92e6 a43f fc3c 953f dccd 553f
00000280: 8b90 e23e e48d c7bd 9533 023f a8b0 973f
00000290: c26c 573f b42e f9be 445a 1c3d 1726 9bbf
000002a0: e776 733f 4449 0ebe de3a 003f e35a b8be
000002b0: 4203 073f 2ab1 953f 8018 943e aded ba3e
000002c0: f59d 323f d712 543f 6845 343f b149 2a3f
000002d0: 40cd 593e 0cd9 633f 7778 2f3f d67f 1c3f
000002e0: 92c3 8c3f 6025 0e3f 7955 aa3e 214b 653e
000002f0: 7f46 363e 42d7 d63e 60bd 3f3c d28a aa3f
00000300: 7048 0a3f 1b98 813e 1e23 0c3f 0c9b 153f
00000310: 5924 0e3f 6d80 263f de80 d63f 0073 683f
00000320: 4315 5840 93d0 813f 1025 493f 148c 003f
00000330: 4131 c53e b734 6f3f ddab e23e 18f8 7d3f
00000340: 1ec5 403f 6277 ec3e d5b3 aa3e 5c4a 7640
00000350: 5a1a 143f 6bab 24bd 1b36 24be 3eed 35bf
00000360: 23ea 48bd 4008 1e40 ef1a 663e d2ea 323f
00000370: defd 09bf 5d68 253f 9815 563f e38b a740
00000380: f1ba 33be 127c cf3e 58be edbf 3609 983e
00000390: a7f1 6c40 4277 9d3e cede 013e c00d 5bbf
000003a0: 090c 443f e15e 06bd c597 5bbf f569 3d3d
000003b0: fb5f 68bf 759c 613f 3a30 95bf bb92 0d3f
000003c0: b3df 3dbe 5b09 c93e dee0 2e40 d7c2 3a3e
000003d0: d6ed 133f 26f1 c13e 4d94 d33e fb06 81be
000003e0: 9f81 3cbf d817 51be 6cae b03f e06a a9bd
000003f0: f438 20bf e7a3 783c 4739 c43e b2fe 0fbf
-0.04897556 -0.925706 0.08135043 1.9114509 0.9096537 -1.5338126 0.61079514 -0.07595976
-0.28418034 6.621385 -0.6496313 0.29267263 0.7777983 1.422157 4.796715 0.3871831
0.3136805 0.71238154 -0.037087325 0.43076563 1.0448272 0.6480191 1.1884391 0.90162086
-0.639465 0.46215656 0.8755651 0.1550207 2.9396565 1.129252 -0.53623706 -0.35230342
-0.14595275 0.19918203 0.7227377 1.1566592 0.44796118 -0.13680601 0.44023108 0.85123056
-0.24479756 -0.64831567 -0.2582846 -0.2166389 0.2867251 1.1242902 0.3584388 1.2819202
-0.38496524 -0.37311706 2.0343685 0.4706445 0.17479296 -0.13537002 -0.25961292 0.4366743
2.4532373 -0.44455218 -0.54041386 0.30851468 -0.38481578 0.1719978 0.9699407 0.56330967
-0.019536674 0.09544003 0.56654084 0.7445358 1.0138727 0.3515353 0.93950874 0.6032849
1.1183393 0.09110512 1.395516 0.9153861 0.20414175 0.38757566 0.20905778 0.32779408
0.3713559 0.6869084 0.16936576 0.30021384 0.29190594 0.24768472 0.3939966 1.2142718
0.6282696 0.87609035 0.19446132 0.351455 1.0072417 3.8858402 0.25049716 0.9294022
0.35559827 0.14228608 0.0861754 0.108006276 0.99107814 0.28957993 0.2961892 0.4148716
2.8771522 0.2493664 0.3203187 -0.86829126 0.49268982 0.1511671 0.5528933 0.63793933
-0.5257887 0.28625497 0.38509467 0.50846916 6.2420588 0.35748377 -0.10259828 0.026883204
0.9455098 4.4381256 1.4490145 1.0979947 0.35930723 0.54489744 0.73849446 0.5090274
0.57254493 1.2582659 0.229431 0.9899696 0.39487055 1.1389657 -0.483249 4.5080223
0.35144675 0.45743978 0.5323714 0.15999714 -0.18248592 0.26912808 0.93348396 0.817035
0.30361167 0.06449385 1.0687356 -0.16941546 0.45183334 0.36761847 0.8219962 0.9741294
0.82092935 1.0948224 1.1650167 0.27456492 0.06311701 1.2882864 1.1659236 0.8351724
0.44250903 -0.0974386 0.5085996 1.1850786 0.84150326 -0.48668444 0.03817202 -1.2120999
0.95103306 -0.13895136 0.50089824 -0.3600684 0.52739346 1.1694691 0.28924942 0.36509457
0.69772273 0.8284125 0.70418406 0.66518694 0.21269703 0.8900306 0.6854319 0.6113256
1.0997183 0.5552578 0.33268335 0.2239194 0.1780033 0.41961104 0.011702865 1.3323615
0.5401678 0.2531136 0.54741085 0.5843971 0.5552421 0.6503971 1.6758077 0.90800476
3.3762977 1.0141777 0.7857218 0.5021374 0.3851414 0.9343981 0.44271746 0.99206686
0.75300777 0.46184832 0.33340326 3.8482885 0.5785271 -0.04020254 -0.16036265 -0.7106513
-0.049051415 2.4692535 0.22471212 0.6988956 -0.53902996 0.6461237 0.836267 5.235826
-0.17551781 0.40524346 -1.8573713 0.29694527 3.7022493 0.3075505 0.1268265 -0.85567856
0.76580864 -0.032805327 -0.85778457 0.046243627 -0.90771455 0.8812936 -1.1655343 0.5530202
-0.18542366 0.3926495 2.7324748 0.18238388 0.57784784 0.37879294 0.41324082 -0.25200638
-0.73635286 -0.20419252 1.3803229 -0.08272338 -0.62586904 0.015175796 0.3832495 -0.5624801

fc_1.bias f4 [107]
00000000: 758b d8c0 ae0f e2c0 22c6 abc0 987b 1ac1
00000010: 163c 02c0 21f1 ecc0 5b73 f2c0 3106 bac0
00000020: bbc6 80c0 1702 99c0 a0fc dbc0 29d7 91c0
00000030: e0e5 d4c0 b2d6 8fc0 f8d9 6ac0 d232 6ac0
00000040: 2d8d dcc0 e21e d6c0 cb4f d9c0 ff45 04c0
00000050: 3e52 04c1 06d1 e5c0 09b3 fbc0 5816 01c1
00000060: 62dd f2c0 50a4 97c0 24fe 09c1 d3b5 a9c0
00000070: 2366 e7c0 d1ac 10c1 b8a0 56c0 f524 bec0
00000080: 89f7 01c1 4df1 a8c0 6fc5 e8c0 bb20 e7c0
00000090: d32c fdc0 147e c0c0 a762 bac0 73f2 c6c0
000000a0: 0bf4 e7c0 6c17 fdc0 6a3d e8c0 0e45 c2c0
000000b0: f44a d7c0 23d5 e8c0 d1dd 93c0 9ce1 1ec1
000000c0: 71a4 15c1 4075 ddc0 e26b f2c0 9ff4 c2c0
000000d0: adcd 85c0 f580 d2c0 4ce3 e9c0 b428 2fc0
000000e0: 9189 f0c0 97bc d3c0 c246 7bc0 9af5 18c1
000000f0: 4dd7 06c1 345a 00c1 fca1 0cc1 2f07 f3c0
00000100: 047d 11c1 fe1d ddc0 e9c7 f8c0 9a29 e7c0
00000110: facc ebc0 33b3 eac0 8a0b 20c0 1f2f c6c0
00000120: adbe dac0 8626 d1c0 a5c1 2dc0 33c1 85c0
00000130: a34f 0cc1 0de1 89c0 0a92 e7c0 5b7e 77c0
00000140: 84a8 fec0 4d6f d4c0 29ca f6c0 6859 ecc0
00000150: bf19 edc0 df41 08c1 07de 0cc1 b4b8 04c1
00000160: e0ab a2c0 efff c8c0 2417 07c1 b72b eac0
00000170: 53d8 d9c0 de04 a8c0 8051 e5c0 3c16 8fc0
00000180: 04eb fac0 73ff 01c1 3465 e2c0 c284 e8c0
00000190: d75c 6fc0 2723 dec0 16c4 d3c0 529e 11c0
000001a0: e756 b9c0 bca5 fcbf 3d54 80c0
-6.7670236 -7.064414 -5.367936 -9.655174 -2.0349174 -7.4044347 -7.5765815 -5.813256
-4.024259 -4.781505 -6.874588 -4.5575147 -6.653061 -4.494958 -3.6695538 -3.6593518
-6.8922334 -6.69127 -6.7909904 -2.0667722 -8.270079 -7.1817656 -7.865605 -8.067955
-7.5895243 -4.7388077 -8.624546 -5.3034453 -7.231218 -9.0421915 -3.3535595 -5.9420114
-8.122933 -5.2794557 -7.274101 -7.2227454 -7.9117217 -6.0153904 -5.8245425 -6.217096
-7.2485404 -7.909109 -7.257497 -6.0709295 -6.7278996 -7.2760177 -4.620827 -9.93008
-9.352647 -6.9205627 -7.5756693 -6.092361 -4.181357 -6.578242 -7.308996 -2.7368593
-7.516793 -6.616771 -3.9261937 -9.559961 -8.427564 -8.022022 -8.789547 -7.594627
-9.093021 -6.909911 -7.774403 -7.2238283 -7.3687716 -7.334375 -2.5007043 -6.193252
-6.835776 -6.5359526 -2.7149441 -4.179834 -8.769443 -4.308722 -7.236577 -3.8670871
-7.9580708 -6.6385865 -7.7121778 -7.385914 -7.409393 -8.516082 -8.804206 -8.295094
-5.083481 -6.281242 -8.44315 -7.3178363 -6.807657 -5.250594 -7.1661987 -4.471464
-7.8411884 -8.124866 -7.074854 -7.266206 -3.7400415 -6.941791 -6.6176863 -2.275288
-5.791858 -1.9738078 -4.010283

fc_2.weight f4 [2, 107]
00000000: ca24 03bd c1a2 9c3d a420 7dbe 4388 623e
00000010: abfe a93c af21 7cbe 0f85 843d 7aae d2bc
00000020: bef2 3dbe c977 413e d83f 9d3e aee3 72bd
00000030: bdcc 393e 51e0 40be 8eda bdbc 1fae d0bd
00000040: 5f84 6d3e 72f1 9c3e b27a 9fbd 37e7 933d
00000050: 0c7b 1fbc ec33 52be 46a9 fabc 675a ef3c
00000060: c0b3 1b3d f23d 2abe f128 b0bd 37ec 8dbc
00000070: 3543 aebe 57c8 aa3e 1c71 583d 4a37 b7ba
00000080: 0f92 37be bfec 813d 84e2 0d3e 4c89 473d
00000090: 05cc b13d 0a2f c13d f710 2fbe 6f43 88be
000000a0: 02ae 67be 443f 44bc 3afb bb3d 6f22 e13d
000000b0: b98a 5dbb 5e3e 543d f693 283e d13f 9f3f
000000c0: f127 303e 702b 6bbd 6bea b2bc 3b6d 60be
000000d0: cfae cebd 7aa1 9ebe a545 5cbe 8631 243e
000000e0: d37f 9fbe fe0d ef3e 73e7 17bf 4390 be3e
000000f0: 17ac 843e 33c7 d63d 2aee cc3e 4f75 67bd
00000100: 03e6 833e cf2b da3c 97eb 47be 46b2 aabe
00000110: 261c 593d 2af6 11be c178 db3d 7072 85bd
00000120: cc4e 8dbe 9ff6 613e ed85 b73d 8f59 8cbb
00000130: 7081 353e 769f 58bb 1eb4 37bd 3ddd 20bd
00000140: 0812 513e c981 02be 2026 f83e 321b 22bd
00000150: 3fbd 7c3e 12b3 113e cbd8 6a3e e307 143e
00000160: 4f90 29be eb9e 4e3e fd70 e83e 3943 d03d
00000170: 069c 0d3e 77e6 a3be 9e62 7abd 4661 81be
00000180: 81dc 453b 6007 c03e fb1f efbd a357 a13c
00000190: d313 b33c 1ba5 3dbe a2de 51be a5a7 613d
000001a0: d372 e33d 7f8e 793d e8da 173e 391e 6f3e
000001b0: 9939 bd3d 8578 4ebd ca84 d1be ed9a 6bbe
000001c0: 00f6 9b3d 94b6 0c3d 34bb 8dbe 8f26 a23d
000001d0: 62d4 2dbe 0131 c9bd 6410 9e3d d792 423e
000001e0: e834 ae3c e42b 64be 42c0 0d3e 5b5d 36b9
000001f0: 4f9a d63c d21c 13bd 5424 50bd 949f 1ebe
00000200: 51aa 813d e7ee da3e 5de3 2b3e b439 c2bd
00000210: 2e7a 0bbd fe70 7e3e f4bc 9d3e 7f97 773d
00000220: b82a e5be 65da 0dbe 9f39 82be dfda c4bd
00000230: dc45 86be 524b 093e baaf 153e 6e42 98be
00000240: 57b2 543d c693 383e 4bdf 4e3e 129e 433e
00000250: b26b 08be cb6c 4dbe 64f4 1dbe 1d97 2dbd
00000260: 290c a43e fd3b 20be 01d0 6abf 42c0 bbbe
00000270: e7be c23e f741 de3d e9c0 6e3e 196c 5fbe
00000280: 4ad2 983e 690f 59bd d970 12bd 139c 9e3e
00000290: 022a 8cbd 9db7 463e 1eb6 3c3d 895c c8be
000002a0: ecdb 17bb 11f4 20be ea1f 2f3e d1a4 d4be
000002b0: 2f97 ecbd 0049 253e dbbd e83d ca0d 39be
000002c0: 62e8 cc3e 725c 7bbd 3701 b13e 3055 793e
000002d0: 2697 18be 8b36 ae3c 6041 67be 4c35 46be
000002e0: b1d8 91be 7579 ae3d 35a7 4fbe 8515 eabd
000002f0: f191 143e a8fc 02be f4da 97be 9fc7 d8be
00000300: 529f 3fbd 620f 0dbf c34b ee3d a8ec 3e3e
00000310: 3018 00be fab4 9cbe df20 7fbe de82 87be
00000320: d169 a33d a17c e6bd f7e2 223e fcdc de3d
00000330: dec9 90bd 0eaa af3e 83c5 aebe be4e dfbd
00000340: 6ab8 003e 260f 0c3e c44f 36bd 28dc 99be
00000350: c623 f1bd 1a99 debd
-0.032017507 0.0764823 -0.24719483 0.22122292 0.020751318 -0.24622224 0.064706914 -0.025717963
-0.1854963 0.1889335 0.3071277 -0.059299164 0.18144508 -0.1883557 -0.023175504 -0.10189461
0.23195027 0.30652958 -0.07787074 0.07221835 -0.0097339265 -0.20527619 -0.030598294 0.029217912
0.03801322 -0.16625193 -0.08601559 -0.01732455 -0.3403565 0.33355972 0.052842245 -0.0013978269
-0.1792681 0.06343984 0.1385594 0.04871492 0.08681492 0.094328 -0.17096315 -0.26613948
-0.22624972 -0.011977974 0.09178777 0.10992896 -0.003380461 0.05181729 0.16462693 1.244135
0.17202736 -0.057414472 -0.021840295 -0.21916668 -0.10091936 -0.30982572 -0.21510942 0.16034517
-0.3115221 0.46690363 -0.5933754 0.37219438 0.25912544 0.10487213 0.40025455 -0.05650836
0.25761423 0.026632218 -0.19523464 -0.33339137 0.05300536 -0.1425406 0.10716391 -0.06515968
-0.2759918 0.22066735 0.08961091 -0.004283137 0.17725158 -0.003305403 -0.044849508 -0.03927349
0.20417035 -0.12744822 0.48466587 -0.039576717 0.24681567 0.14228466 0.22934262 0.14456134
-0.16558956 0.2017781 0.45398703 0.10169072 0.1382905 -0.32011768 -0.061129205 -0.25269526
0.0030191245 0.37505627 -0.11676022 0.019695109 0.021860039 -0.18520014 -0.20495084 0.05509152
0.11105885 0.06092691 0.148296 0.23351373 0.092395015 -0.050407905 -0.40921623 -0.23008318
0.0761528 0.034353808 -0.27681887 0.07917511 -0.16975549 -0.098238 0.0771797 0.19001327
0.021265462 -0.22282368 0.13842872 -0.0001739165 0.026196627 -0.035916157 -0.050815895 -0.15490562
0.063313134 0.42760393 0.16785951 -0.09483662 -0.034052067 0.2484779 0.30808222 0.060447212
-0.44759154 -0.13852842 -0.25434586 -0.09612059 -0.26225173 0.13407639 0.14617816 -0.29738182
0.05192789 0.18025121 0.20202367 0.19103268 -0.13322333 -0.20061032 -0.15425259 -0.04238044
0.32040527 -0.15647884 -0.9172364 -0.3667012 0.38036272 0.108524255 0.23315777 -0.2181858
0.29847938 -0.052993212 -0.03575215 0.3097845 -0.0684395 0.1940598 0.046072118 -0.391331
-0.0023171855 -0.15718104 0.17102018 -0.41531995 -0.115522735 0.16141129 0.11364337 -0.18071666
0.40021044 -0.06136746 0.3457124 0.24348903 -0.14901409 0.021266242 -0.22583532 -0.19356269
-0.28485635 0.0851926 -0.20278628 -0.11429886 0.14508797 -0.12791693 -0.29659235 -0.423398
-0.0467828 -0.551016 0.11635544 0.18644965 -0.12509227 -0.30606824 -0.24914883 -0.2646703
0.07979167 -0.1125424 0.15906893 0.10881993 -0.07069753 0.3430943 -0.34135064 -0.10903691
0.12570348 0.13677654 -0.044509664 -0.30050778 -0.11774401 -0.108690456

fc_2.bias f4 [2]
00000000: a289 d0be 68c3 da3e
-0.40730006 0.42727208
