runs/0009_SkipNN_1_bsz-128_lr-0.001_ep-60-desc-.pth (torch, 49576 bytes, 4 tensors)

fc_1.weight f4 [107, 107]
0	0xbdf08df9	-0.11745829
1	0xbd9c29d2	-0.07625164
2	0x3de7044d	0.11280117
3	0x3d1f457a	0.038884617
4	0x3de57de5	0.11205653
5	0xbdf199f0	-0.117969394
6	0xbe0b1fa0	-0.13586283
7	0x3ba5d556	0.005060832
8	0x3e0d9658	0.13826883
9	0x3ca63b64	0.020291992
10	0x3ba75faa	0.0051078396
11	0x3e19dcb8	0.15025604
12	0x3d34f89c	0.044182405
13	0xbd7782f5	-0.060427625
14	0x3da6a449	0.08136804
15	0xbdc5dfc5	-0.09661821
16	0xbe033668	-0.12813723
17	0xbdcebeae	-0.10094963
18	0x3e276b93	0.1634963
19	0x3dbd6116	0.09247033
20	0xbe133335	-0.14375003
21	0xbdb971b8	-0.09054893
22	0xbda1e33a	-0.07904668
23	0xbdf187f8	-0.11793512
24	0x3dbe9cdb	0.093072616
25	0x3b843ac0	0.004035324
26	0xbe287fc6	-0.16454992
27	0x3df43581	0.119242676
28	0x3d6d89cf	0.057992753
29	0x3e039719	0.12850608
30	0xbdd6f35b	-0.10495635
31	0x3e1a8d63	0.15092997
32	0x3d4e33d0	0.05034238
33	0x3e049228	0.12946379
34	0x3dbeb232	0.09311332
35	0x3d89ae8f	0.067227475
36	0x3d6e20dd	0.05813681
37	0xbe19422a	-0.14966646
38	0xbdcb31ec	-0.09921631
39	0x3d210ecf	0.039320763
40	0x3dcc52c2	0.09976722
41	0x3df1c607	0.11805349
42	0x3df5b11c	0.119966716
43	0x3d82019c	0.06347963
44	0xbdc6b9b2	-0.09703387
45	0xbd7ff36f	-0.062488016
46	0x3e0216bd	0.12703986
47	0x3ddcf798	0.10789412
48	0xbd88ef24	-0.066862375
49	0xbdd358a9	-0.10319645
50	0xbd43efb6	-0.047836028
51	0xbdcad9d4	-0.09904829
52	0x3d8a7ce7	0.067621045
53	0x3dd01701	0.10160638
54	0xbde66903	-0.11250498
55	0x3dcafc2b	0.099113785
56	0xbde6dbf5	-0.11272422
57	0x3deeedd1	0.11666454
58	0xbe0244b0	-0.12721515
59	0xbda83879	-0.08213896
60	0xbe196b16	-0.14982256
61	0xbc29ad31	-0.010356233
62	0x3dad6398	0.084662616
63	0xbdf48003	-0.11938479
64	0x3e0cb249	0.13739885
65	0xbc71582a	-0.014730493
66	0x3c8ce31e	0.017198142
67	0xbe1d99f4	-0.1539076
68	0xbe036564	-0.12831646
69	0x3d1689b5	0.03675242
70	0xbe0b8f88	-0.13628972
71	0xbcf6f0f0	-0.030144185
72	0x3df83dd3	0.12121167
73	0x3df97b85	0.121817626
74	0xbd4c6cd9	-0.049908493
75	0xbe05cdbb	-0.13066761
76	0x3dd7f2d9	0.105443664
77	0x3c8f1914	0.017468013
78	0xbb3b1615	-0.0028547097
79	0xbddf7e25	-0.10912732
80	0xbe1327e9	-0.14370693
81	0x3e21f145	0.15814693
82	0x3d2763fa	0.04086683
83	0x3e29ad2d	0.16569968
84	0xbdec3e13	-0.11535277
85	0xbdfd12ce	-0.12357102
86	0xbe11d520	-0.14241457
87	0x3e159859	0.14608897
88	0xbd0a6e08	-0.03379634
89	0xbd421a1d	-0.047388185
90	0xbda432c2	-0.08017494
91	0x3dc8c53f	0.09803247
92	0xbce70d10	-0.02820447
93	0xbd240ba9	-0.040050182
94	0xbd7a5a28	-0.061121136
95	0x3b205072	0.0024462012
96	0x3bc1a965	0.005910086
97	0x3dcf44ac	0.1012052
98	0x3ce6993b	0.028149238
99	0xbe163edd	-0.14672418
100	0x3db2da60	0.08733058
101	0x3d4e547c	0.05037354
102	0xbdbe9289	-0.09305293
103	0xbdad3291	-0.084569104
104	0x3e1e022d	0.15430517
105	0x3c0f9bc4	0.008765165
106	0xbdc03f09	-0.09387023
107	0x3ddc7846	0.10765128
108	0x3cb9ad08	0.022665516
109	0x3dd279f6	0.102771685
110	0xbcfcf82f	-0.030880062
111	0x3d9b3f5d	0.07580445
112	0xbb561fb4	-0.0032672705
113	0xbddd3062	-0.10800244
114	0xbdc62c27	-0.0967639
115	0xbdc144cd	-0.09436951
116	0x3e1490c6	0.14508352
117	0x3e21d58a	0.15804115
118	0xbdb6fa9d	-0.089345194
119	0x3e064a3d	0.13114257
120	0x3cb0bc74	0.021574236
121	0x3c6984e9	0.01425288
122	0xbcd951aa	-0.026528198
123	0x3c007ed0	0.007842734
124	0x3de39a5a	0.111134246
125	0x3dd52449	0.104073115
126	0x3e294d84	0.16533476
127	0xbd37b47c	-0.044849858
128	0x3d4b612b	0.049653213
129	0x3d81739b	0.06320878
130	0x3da125bf	0.078685276
131	0x3dd18de3	0.10232141
132	0x3c84dc60	0.016218364
133	0x3e100d95	0.14067681
134	0x3e20d2a6	0.15705356
135	0x3cd70014	0.026245154
136	0x3a6ceac7	0.000903767
137	0x3d19d83d	0.037559737
138	0xbd9b61f2	-0.07587041
139	0xbd204e47	-0.03913715
140	0x3c6eb63f	0.014569818
141	0x3cfe318e	0.031029489
142	0x3e147608	0.1449815
143	0xbb8b4406	-0.0042500524
144	0x3e161b6a	0.14658895
145	0x3cd551d4	0.026039995
146	0x3e132f5b	0.14373533
147	0x3e02416a	0.12720266
148	0x3d71e1ee	0.059053354
149	0xbd799943	-0.060937177
150	0x3c9726da	0.018451143
151	0xbddb0f20	-0.10696244
152	0x3dd9ac38	0.10628551
153	0x3bf9d348	0.0076240636
154	0x3ca4c492	0.020113263
155	0x3e0f9715	0.14022477
156	0x3df1074a	0.117689684
157	0x3b40b1ea	0.002940292
158	0xbcc6ceed	-0.024268592
159	0x3e05c10e	0.13061926
160	0x3cf8d01f	0.030372677
161	0x3daa58ca	0.083177164
162	0xbe1937fc	-0.14962763
163	0x3c39198e	0.011297597
164	0x3da408f0	0.08009517
165	0x3d6b0fee	0.05738824
166	0x3d8c947b	0.06864258
167	0x3df1059a	0.117686465
168	0x3d40dd4d	0.04708605
169	0xbdb120a9	-0.086488076
170	0xbd7031ea	-0.05864135
171	0xbdc95368	-0.098303616
172	0x3d980555	0.07422892
173	0xbcb72759	-0.02235763
174	0xbdc4afb7	-0.096038274
175	0x3e14f2ac	0.14545697
176	0x3c0ab9a2	0.00846711
177	0xbb067ac1	-0.0020519944
178	0xbd782a47	-0.060587194
179	0xbcbffc52	-0.023435745
180	0x3e085834	0.13314897
181	0xbde29bf7	-0.11064904
182	0xbe2349b3	-0.15946083
183	0x3d70a7ae	0.05875366
184	0xbdad2007	-0.08453374
185	0xbddb6e63	-0.10714414
186	0xbc6b933a	-0.014378363
187	0xbbc6d185	-0.006067457
188	0x3ccf2003	0.025283819
189	0x3d881258	0.06644124
190	0x3df33a14	0.11876312
191	0xbcbbee66	-0.022940826
192	0xbd3ef592	-0.046620913
193	0xbe010bce	-0.1260216
194	0x3cb5166a	0.022105414
195	0xbd904119	-0.070436664
196	0x3d86f8ef	0.06590449
197	0x3d91e9fc	0.07124707
198	0xbda434ee	-0.08017908
199	0xbdbb6056	-0.09149234
200	0x3e2246ff	0.15847395
201	0xbd9fc109	-0.078004904
202	0xbe099561	-0.1343589
203	0x3cb1135b	0.021615675
204	0xbd5b3b93	-0.05352361
205	0xbd518195	-0.05114897
206	0x3dcdc757	0.10047787
207	0x3d68a6d1	0.056799714
208	0x3e1f618e	0.15564558
209	0x3dbcc191	0.09216607
210	0xbd3790c1	-0.044815782
211	0x3c4ef5b1	0.01263182
212	0xbdf4d3a4	-0.1195443
213	0xbc98dee0	-0.018660963
214	0x3dd22dd9	0.10262651
215	0x3dffb717	0.124860935
216	0xbe0538d6	-0.13009962
217	0xbddf73b7	-0.10910743
218	0x3e022452	0.12709168
219	0x3ce3fa9f	0.027829466
220	0xbb3a03cf	-0.0028383618
221	0xbd4b4014	-0.049621657
222	0xbdf58d51	-0.119898446
223	0xbe241292	-0.16022709
224	0x3c76ea12	0.015070455
225	0x3d7b5b29	0.061366234
226	0xbc057a31	-0.0081468085
227	0x3da43512	0.08017935
228	0xbdf9bc89	-0.12194163
229	0xbdd07910	-0.10179341
230	0xbdf1b37e	-0.118018135
231	0x3c95f1f6	0.018303853
232	0xbe0e8f4b	-0.1392185
233	0xbda8ff0c	-0.08251771
234	0xbd356b6a	-0.04429189
235	0x3e281928	0.16415846
236	0x3dc0585a	0.09391852
237	0x3d354cd5	0.044262726
238	0x3cf9f257	0.030511064
239	0xbe250934	-0.16116792
240	0xbdac9c52	-0.08428253
241	0x3d31aec4	0.04337956
242	0xbd19f10b	-0.037583392
243	0xbbb92299	-0.0056498763
244	0xbdbce05e	-0.09222482
245	0x3d77b5aa	0.060475983
246	0xbdfc6b40	-0.12325144
247	0x3da1dc6b	0.079033695
248	0xbe23726c	-0.15961617
249	0x3e152f27	0.14568768
250	0xbcf2c65d	-0.029635603
251	0xbdaac442	-0.083382145
252	0xbdde79da	-0.10863085
253	0x395921f1	0.00020707377
254	0xbdfa1ef5	-0.12212936
255	0x3de9959f	0.11405491

fc_1.bias f4 [107]
0	0x3c23d70a	0.01
1	0x3c23d70a	0.01
2	0x3c23d70a	0.01
3	0x3c23d70a	0.01
4	0x3c23d70a	0.01
5	0x3c23d70a	0.01
6	0x3c23d70a	0.01
7	0x3c23d70a	0.01
8	0x3c23d70a	0.01
9	0x3c23d70a	0.01
10	0x3c23d70a	0.01
11	0x3c23d70a	0.01
12	0x3c23d70a	0.01
13	0x3c23d70a	0.01
14	0x3c23d70a	0.01
15	0x3c23d70a	0.01
16	0x3c23d70a	0.01
17	0x3c23d70a	0.01
18	0x3c23d70a	0.01
19	0x3c23d70a	0.01
20	0x3c23d70a	0.01
21	0x3c23d70a	0.01
22	0x3c23d70a	0.01
23	0x3c23d70a	0.01
24	0x3c23d70a	0.01
25	0x3c23d70a	0.01
26	0x3c23d70a	0.01
27	0x3c23d70a	0.01
28	0x3c23d70a	0.01
29	0x3c23d70a	0.01
30	0x3c23d70a	0.01
31	0x3c23d70a	0.01
32	0x3c23d70a	0.01
33	0x3c23d70a	0.01
34	0x3c23d70a	0.01
35	0x3c23d70a	0.01
36	0x3c23d70a	0.01
37	0x3c23d70a	0.01
38	0x3c23d70a	0.01
39	0x3c23d70a	0.01
40	0x3c23d70a	0.01
41	0x3c23d70a	0.01
42	0x3c23d70a	0.01
43	0x3c23d70a	0.01
44	0x3c23d70a	0.01
45	0x3c23d70a	0.01
46	0x3c23d70a	0.01
47	0x3c23d70a	0.01
48	0x3c23d70a	0.01
49	0x3c23d70a	0.01
50	0x3c23d70a	0.01
51	0x3c23d70a	0.01
52	0x3c23d70a	0.01
53	0x3c23d70a	0.01
54	0x3c23d70a	0.01
55	0x3c23d70a	0.01
56	0x3c23d70a	0.01
57	0x3c23d70a	0.01
58	0x3c23d70a	0.01
59	0x3c23d70a	0.01
60	0x3c23d70a	0.01
61	0x3c23d70a	0.01
62	0x3c23d70a	0.01
63	0x3c23d70a	0.01
64	0x3c23d70a	0.01
65	0x3c23d70a	0.01
66	0x3c23d70a	0.01
67	0x3c23d70a	0.01
68	0x3c23d70a	0.01
69	0x3c23d70a	0.01
70	0x3c23d70a	0.01
71	0x3c23d70a	0.01
72	0x3c23d70a	0.01
73	0x3c23d70a	0.01
74	0x3c23d70a	0.01
75	0x3c23d70a	0.01
76	0x3c23d70a	0.01
77	0x3c23d70a	0.01
78	0x3c23d70a	0.01
79	0x3c23d70a	0.01
80	0x3c23d70a	0.01
81	0x3c23d70a	0.01
82	0x3c23d70a	0.01
83	0x3c23d70a	0.01
84	0x3c23d70a	0.01
85	0x3c23d70a	0.01
86	0x3c23d70a	0.01
87	0x3c23d70a	0.01
88	0x3c23d70a	0.01
89	0x3c23d70a	0.01
90	0x3c23d70a	0.01
91	0x3c23d70a	0.01
92	0x3c23d70a	0.01
93	0x3c23d70a	0.01
94	0x3c23d70a	0.01
95	0x3c23d70a	0.01
96	0x3c23d70a	0.01
97	0x3c23d70a	0.01
98	0x3c23d70a	0.01
99	0x3c23d70a	0.01
100	0x3c23d70a	0.01
101	0x3c23d70a	0.01
102	0x3c23d70a	0.01
103	0x3c23d70a	0.01
104	0x3c23d70a	0.01
105	0x3c23d70a	0.01
106	0x3c23d70a	0.01

fc_2.weight f4 [2, 107]
0	0xbe2b8a16	-0.16751894
1	0x3d4afb2b	0.04955594
2	0xbe3ae760	-0.18252325
3	0xbf48d01c	-0.7844255
4	0x3d0ac10c	0.03387551
5	0x3dace258	0.08441609
6	0x3e0309ae	0.12796661
7	0x3a6f0435	0.00091177534
8	0x3e8bde9d	0.27318278
9	0xbdd7b2dd	-0.10532162
10	0x3e3723ed	0.17884798
11	0x3df60e3e	0.12014435
12	0x3e25b3a3	0.16181807
13	0x3e26256e	0.16225216
14	0x3e54c9a9	0.20780052
15	0x3e0df467	0.13862763
16	0x3dd8ff31	0.10595549
17	0x3e25e7c1	0.16201688
18	0x3bebeeae	0.0072000837
19	0x3d8677d9	0.06565828
20	0x3dd8737e	0.105689034
21	0xbb15a7f9	-0.0022835715
22	0x3c2c238e	0.010506524
23	0xbdff55a1	-0.12467504
24	0x3e399f2a	0.18127123
25	0xbc9603ca	-0.018312354
26	0x3e614c4a	0.22001758
27	0xbdaf7973	-0.085680865
28	0x3e413362	0.18867257
29	0xbc916bbf	-0.017751573
30	0x3e2d7528	0.16939223
31	0x3e7a6a31	0.24454571
32	0xbdbf59d6	-0.09343307
33	0xbe075603	-0.13216405
34	0x3d608d2f	0.054822143
35	0x3e3692a3	0.17829375
36	0xbdf30c2c	-0.11867556
37	0xbb9be1fb	-0.0047571636
38	0x3e0de338	0.13856208
39	0xbd2e0807	-0.042488124
40	0xbd35e65c	-0.04440914
41	0x3df82db3	0.121180914
42	0xbe797480	-0.24360847
43	0x3dd3f4bd	0.103494145
44	0x3dca644d	0.09882412
45	0x3de2917e	0.11062907
46	0x3de00d0c	0.109399885
47	0xbc103896	-0.008802554
48	0xbc85b4e4	-0.016321607
49	0xbd543ad4	-0.051813915
50	0x3dc5c1ea	0.09656127
51	0xbd1a6f10	-0.037703574
52	0xbd85c739	-0.06532139
53	0x3e9bea40	0.30452156
54	0xbaed4b3f	-0.001810409
55	0x3e71a1a5	0.23596819
56	0x3db90e6c	0.09035954
57	0x3b22ef85	0.0024862003
58	0xbd217575	-0.039418656
59	0x3d8668c4	0.06562951
60	0x3e5118de	0.20419642
61	0x3e9aed95	0.30259386
62	0x3be23852	0.0069036866
63	0x3ea3948b	0.31949267
64	0x3e1e3acb	0.15452115
65	0xbd9f79f7	-0.07786935
66	0x3dd2607b	0.102723084
67	0x3d79588a	0.060875453
68	0x3e09fb82	0.13474849
69	0x3c1f1e75	0.009711851
70	0xbd13886d	-0.036018778
71	0xbdbea99a	-0.09309693
72	0x3c38cbfe	0.011279104
73	0xbe02b0f0	-0.12762809
74	0x3e302ae7	0.17203866
75	0x3d7c85ab	0.061650913
76	0x3db022ff	0.08600425
77	0xbda48eb3	-0.0803503
78	0x3dc0cb66	0.09413795
79	0x3d312bfd	0.04325484
80	0xbd024e9c	-0.03181325
81	0xbaebabaf	-0.0017980243
82	0x3e00e8cb	0.12588803
83	0xbd6825b7	-0.056676593
84	0x3e314f84	0.17315489
85	0xbe1421a4	-0.14465958
86	0x3e1f1871	0.15536667
87	0xbdb27d12	-0.087152615
88	0xbd87bf82	-0.06628324
89	0xbdfb5744	-0.12272504
90	0x3dfa7636	0.12229578
91	0x3c952229	0.018204765
92	0xbda83cc0	-0.08214712
93	0x3d34bd6a	0.04412595
94	0x3d0d368b	0.034475844
95	0xbb7e40f9	-0.003879605
96	0x3cb176f8	0.021663174
97	0x3e321893	0.17392187
98	0x3d454026	0.04815688
99	0xbda53ab1	-0.08067835
100	0xbda89095	-0.08230702
101	0x3dc12146	0.094301745
102	0x3d050004	0.032470718
103	0xbdc59ba6	-0.09648828
104	0xbe237a5a	-0.15964642
105	0xbdccb5e2	-0.09995629
106	0x3c029a18	0.007971309
107	0xbc880cef	-0.01660773
108	0x3daebb08	0.08531767
109	0x3db99f97	0.090636425
110	0x3f08757d	0.5330427
111	0x3e2b0ce7	0.1670414
112	0x3e87b3ce	0.26504368
113	0xbc120689	-0.008912691
114	0xbda03c04	-0.07823947
115	0x3d892ee8	0.066984
116	0xbe32858a	-0.17433754
117	0xbea0d817	-0.31414863
118	0xbbab711b	-0.005231989
119	0xbdce8ccd	-0.10085449
120	0x3bdfe923	0.006833212
121	0x3da7fa50	0.0820204
122	0xba29d93a	-0.00064792077
123	0xbd8ed667	-0.06974488
124	0x3da98ac1	0.08278418
125	0xbd5a0ba2	-0.05323375
126	0xbc85482d	-0.016269768
127	0xbc7d86d2	-0.015474038
128	0xbdd2a0ae	-0.102845535
129	0xbdc76f0c	-0.097379774
130	0xbe60ffeb	-0.21972625
131	0x3c4faae1	0.012675018
132	0xbd2f44bd	-0.042790163
133	0xbdfac970	-0.122454524
134	0xbe1b7b0a	-0.15183654
135	0xbe36bea9	-0.17846169
136	0xbd284996	-0.041085802
137	0xbd4caa65	-0.04996719
138	0x3d0c4f26	0.03425517
139	0xbd9ae3bd	-0.07562969
140	0x3e31a982	0.17349818
141	0xbcbd61a2	-0.023117844
142	0xbea5e43d	-0.32400694
143	0xbe70a243	-0.23499398
144	0xbdcfc3ea	-0.101447895
145	0xbc1a09e5	-0.009401773
146	0xbdce22c6	-0.10065226
147	0xbd2e5fa2	-0.04257167
148	0x3da79e22	0.08184458
149	0xbe1ac11a	-0.15112725
150	0xbb68b58d	-0.0035508603
151	0x3ba2c983	0.0049678697
152	0x3cf39e8d	0.029738689
153	0xbd8c1f33	-0.06841888
154	0xbe27c47d	-0.16383548
155	0x3c6a64d5	0.014306267
156	0xbccdc652	-0.02511898
157	0x3dc466a0	0.09589887
158	0xb886fb3b	-6.436413e-05
159	0xbde8fe82	-0.113766685
160	0x3d555723	0.052085053
161	0xbdb27087	-0.08712869
162	0x3e03e9d6	0.1288217
163	0xbe6aa778	-0.22915447
164	0xbd6f24b1	-0.0583846
165	0x3be7d953	0.0070754676
166	0xbd2896b4	-0.041159347
167	0x3d6e8bb8	0.058238715
168	0xbb1f8596	-0.0024341098
169	0xbdd81179	-0.10550208
170	0xbe447ab4	-0.19187433
171	0xbe219db6	-0.15782818
172	0xbe2800a1	-0.1640649
173	0x3da22aba	0.07918306
174	0x3d937fc1	0.072021015
175	0x3e140ba6	0.14457569
176	0xbb611ee0	-0.0034350678
177	0xbdbe619f	-0.092959635
178	0xbd8f51e4	-0.06998041
179	0xbd216061	-0.039398555
180	0xbe0a1277	-0.13483606
181	0x3e227ac8	0.1586715
182	0x3d92629a	0.07147713
183	0x3dccd43a	0.100014165
184	0xbd868ee5	-0.06570224
185	0x3d9b8f77	0.07595723
186	0x3d184509	0.037175212
187	0xbd3af335	-0.045642097
188	0xbc95ecfa	-0.018301476
189	0x3debbbfc	0.115104645
190	0xbd82da45	-0.06389288
191	0x3e16a1a4	0.14710099
192	0xbe12af97	-0.14324795
193	0x3e18f773	0.14938144
194	0xbd6c78ca	-0.05773238
195	0xbdaa336e	-0.08310591
196	0xbdf8b04d	-0.12143002
197	0x3dd6af37	0.10482638
198	0xbcde29f2	-0.02711961
199	0xbde38435	-0.11109201
200	0xbd5678f4	-0.052361444
201	0x3cb849c4	0.022496112
202	0x3c9fb5db	0.019495895
203	0x3b6bb287	0.0035964565
204	0x3e375880	0.17904854
205	0x3cf51eca	0.029921908
206	0xbda3d7e9	-0.08000166
207	0xbdcdc505	-0.10047344
208	0x3dc8f60a	0.09812553
209	0x3c9a43e9	0.01883121
210	0xbdd28ef2	-0.10281171
211	0xbdf9945c	-0.121865004
212	0xbe0d7268	-0.13813174
213	0x3c16c6f4	0.009202708

fc_2.bias f4 [2]
0	0x3e51ec8a	0.20500389
1	0xbe3d7249	-0.18500628
