runs/0010_SkipNN_1_bsz-128_lr-0.001_ep-60-desc-rot-skip-10.pth (torch, 49792 bytes, 4 tensors)

fc_1.weight f4 [107, 107]
-0.08867109 0.017296428 -0.12178767 -0.08466647 0.11121706 0.015967038 0.10858937 -0.0025388594
0.08264152 -0.14204505 0.12324355 -0.06931107 0.044839855 -0.12243276 -0.024705334 -0.15251628
-0.12807627 -0.106585115 0.1488136 -0.11909673 -0.13393451 -0.06407223 0.14787397 -0.09209463
-0.06646834 0.05691882 0.12759781 0.10993166 -0.019148216 -0.040150426 -0.043509964 -0.014834498
0.11638095 -0.15367986 0.12491607 -0.013043761 0.048733596 -0.04106056 0.08602646 0.109238006
0.16173366 -0.02313671 0.1548332 -0.040649824 0.022630604 0.10382806 0.1152042 -0.15201207
0.02808776 -0.09806552 -0.06015113 -0.0047750226 0.06789259 -0.072897024 0.078037746 0.0025300568
0.12206905 0.032835525 0.1555661 0.06911747 -0.0015693414 -0.016553147 -0.004548956 0.12943126
-0.14742784 -0.070892535 -0.12616885 0.105511434 -0.06861504 0.12951465 0.0073402403 0.005361562
-0.0028417553 -0.15254131 -0.086294524 0.023464208 -0.079631366 -0.13502198 0.0070639024 -0.082623646
-0.05961035 -0.015961817 0.12822114 -0.09705697 0.0480078 0.10563816 -0.1590633 0.104130484
0.0049340604 0.15549636 0.041736644 0.14280036 0.11684792 0.062386554 0.0629439 -0.07020712
0.019739177 0.025912326 0.0089265285 0.11055372 0.034563795 0.11712884 -0.13328347 -0.16085845
-0.0034892051 0.001516545 -0.07318095 -0.15934108 -0.04940358 -0.09451941 -0.12280246 0.097954355
0.039574247 0.06817628 0.121031664 -0.10756071 0.05945285 0.009243846 0.059527542 0.16738765
0.03941941 -0.009175769 -0.029966652 -0.10077698 -0.124625035 0.130204 -0.019208936 0.10095829
-0.14535302 0.08996068 -0.006820869 0.09293662 -0.10637043 -0.047144067 -0.12004201 0.13534522
0.04401172 -0.05080084 -0.100144066 0.028378528 0.08215725 0.08912324 -0.078448564 0.031238817
-0.043345857 -0.14659989 0.015698884 -0.13119347 0.05866234 0.15911168 -0.09242672 0.14368439
0.08295021 0.046106093 -0.117387176 -0.024838153 -0.034745537 -0.16056868 -0.027599476 0.16146322
0.11676719 0.1420579 -0.089124136 -0.030311557 0.073646724 0.033864487 -0.12776707 -0.013659234
0.104562014 0.155807 -0.13668601 -0.004035084 -0.087584086 -0.1564748 0.06577391 -0.09790065
0.123636894 0.0784006 0.08439386 0.07733138 0.16684084 -0.00027647763 0.056229692 -0.108562544
0.055977046 0.06531677 0.1602899 -0.022597829 0.048785675 0.089745805 -0.14481404 -0.16044557
-0.114666566 0.11469696 0.048941787 0.05052468 -0.07903099 -0.16313004 0.0026195212 -0.11915746
-0.070454605 0.046026725 -0.14256221 0.08623431 0.05115199 0.16176064 -0.108892694 0.15192935
0.13550705 0.06400508 0.12027808 -0.051011 0.16477221 0.12472043 0.12829798 -0.1326558
0.037980653 0.040615425 -0.01847853 0.094891004 0.121832654 0.13413961 0.13303022 0.09075099
0.035924107 0.092690304 0.13020904 0.05876863 0.14170429 -0.014437337 -0.01874279 0.12516218
-0.025633963 -0.1537676 -0.07372538 -0.1408207 -0.15462385 0.034043137 -0.027802598 -0.0008421479
0.14457254 0.055826444 0.08357632 0.018466972 0.14134927 0.08005819 0.11857048 -0.07847937
-0.03640979 -0.00086093106 -0.10250519 0.08806817 0.0019233269 0.06334944 0.050463863 -0.10884436
00000000: 3099 b5bd 3db1 8d3c d06b f9bd 9d65 adbd
00000010: c5c5 e33d 4ecd 823c 1b64 de3d fe62 26bb
00000020: f53f a93d 4274 11be 1d67 fc3d f6f2 8dbd
00000030: ffa9 373d 07be fabd d762 cabc 3a2d 1cbe
00000040: 6d26 03be 4c49 dabd 9862 183e fde8 f3bd
00000050: 2126 09be 4d38 83bd 466c 173e 1c9c bcbd
00000060: 8e20 88bd b523 693d 00a9 023e da23 e13d
00000070: b8dc 9cbc c674 24bd 8137 32bd 650c 73bc
00000080: 2359 ee3d 415e 1dbe ffd3 ff3d 80b5 55bc
00000090: e19c 473d 1e2f 28bd a42e b03d 2db8 df3d
000000a0: 829d 253e 3389 bdbc 988c 1e3e 6e80 26bd
000000b0: d163 b93c cea3 d43d 2ef0 eb3d 0da9 1bbe
000000c0: 4d18 e63c 93d6 c8bd 0861 76bd cb77 9cbb
000000d0: 450b 8b3d 094b 95bd 41d2 9f3d 4fcf 253b
000000e0: 57ff f93d 8b7e 063d b84c 1f3e 768d 8d3d
000000f0: 5cb2 cdba 779a 87bc 690f 95bb a189 043e
00000100: 53f7 16be 1b30 91bd 6832 01be 6116 d83d
00000110: 0b86 8cbd 7d9f 043e 6686 f03b 0bb0 af3b
00000120: be3c 3abb ca33 1cbe 2fbb b0bd 0338 c03c
00000130: c515 a3bd 3443 0abe 4f78 e73b 9636 a9bd
00000140: fb29 74bd 5bc2 82bc 674c 033e cec5 c6bd
00000150: d4a3 443d d258 d83d 7de1 22be 5d42 d53d
00000160: e6ad a13b 703a 1f3e 0bf4 2a3d 423a 123e
00000170: f64d ef3d 0b89 7f3d bbe8 803d c0c8 8fbd
00000180: 0eb4 a13c 1646 d43c 9340 123c fd69 e23d
00000190: c492 0d3d 3fe1 ef3d 767b 08be 14b8 24be
000001a0: 26ab 64bb cec6 c63a e5df 95bd 4f2a 23be
000001b0: 695b 4abd 6493 c1bd db7f fbbd 4b9c c83d
000001c0: 9b18 223d 01a0 8b3d 73df f73d ca48 dcbd
000001d0: d584 733d 8073 173c 27d3 733d ab67 2b3e
000001e0: 3f76 213d f755 16bc a07c f5bc 2964 cebd
000001f0: 693b ffbd 3354 053e 0f5c 9dbc 38c3 ce3d
00000200: 6cd7 14be 4e3d b83d 9981 dfbb 8e55 be3d
00000210: bdd8 d9bd 231a 41bd 96d8 f5bd f097 0a3e
00000220: a245 343d 8b14 50bd 5518 cdbd 167a e83c
00000230: 0f42 a83d 3f86 b63d a4a9 a0bd 8ce8 ff3c
00000240: 6d8b 31bd 481e 16be f29a 803c 9557 06be
00000250: ec47 703d 2cee 223e 384a bdbd 0022 133e
00000260: cde1 a93d bed9 3c3d b068 f0bd 6279 cbbc
00000270: 5651 0ebd 1e6c 24be 4c18 e2bc 9d56 253e
00000280: a323 ef3d a077 113e b786 b6bd f14f f8bc
00000290: 18d4 963d 7db5 0a3d 5fd5 02be fbca 5fbc
000002a0: 9c24 d63d df8b 1f3e 6bf7 0bbe bd38 84bb
000002b0: 495f b3bd ee3a 20be 79b4 863d 2380 c8bd
000002c0: 5735 fd3d 7e90 a03d b0d6 ac3d ea5f 9e3d
000002d0: 53d8 2a3e 33f4 90b9 1b51 663d 0a56 debd
000002e0: 3048 653d ccc4 853d 0923 243e 151f b9bc
000002f0: 7dd3 473d a6cc b73d 224a 14be d84b 24be
00000300: 4ed6 eabd 3de6 ea3d 2f77 483d f8f2 4e3d
00000310: 00db a1bd 900b 27be 46ac 2b3b d408 f4bd
00000320: 814a 90bd 8586 3c3d d4fb 11be 9d9b b03d
00000330: c084 513d 95a4 253e 2203 dfbd 5e93 1b3e
00000340: 5cc2 0a3e 1815 833d 5b54 f63d e9f0 50bd
00000350: 0cba 283e 6d6d ff3d 8c60 033e ecd6 07be
00000360: 9a91 1b3d 5c5c 263d 4960 97bc 3756 c23d
00000370: 6683 f93d e55b 093e 1339 083e a8db b93d
00000380: 2825 133d 6ad4 bd3d 8555 053e 60b7 703d
00000390: ee1a 113e 958a 6cbc 7b8a 99bc 842a 003e
000003a0: 51fe d1bc 4175 1dbe 55fd 96bd 4d33 10be
000003b0: b755 1ebe d170 0b3d 46c2 e3bc 97c3 5cba
000003c0: d30a 143e 45aa 643d 102a ab3d 0c48 973c
000003d0: ddbd 103e 8cf5 a33d 14d5 f23d cbb9 a0bd
000003e0: 6f22 15bd 1bb0 61ba 3eee d1bd 165d b43d
000003f0: 2418 fc3a 5abd 813d 32b3 4e3d cbe9 debd

fc_1.bias f4 [107]
0.01 0.01 0.01 0.01 0.01 0.01 0.01 0.01
0.01 0.01 0.01 0.01 0.01 0.01 0.01 0.01
0.01 0.01 0.01 0.01 0.01 0.01 0.01 0.01
0.01 0.01 0.01 0.01 0.01 0.01 0.01 0.01
0.01 0.01 0.01 0.01 0.01 0.01 0.01 0.01
0.01 0.01 0.01 0.01 0.01 0.01 0.01 0.01
0.01 0.01 0.01 0.01 0.01 0.01 0.01 0.01
0.01 0.01 0.01 0.01 0.01 0.01 0.01 0.01
0.01 0.01 0.01 0.01 0.01 0.01 0.01 0.01
0.01 0.01 0.01 0.01 0.01 0.01 0.01 0.01
0.01 0.01 0.01 0.01 0.01 0.01 0.01 0.01
0.01 0.01 0.01 0.01 0.01 0.01 0.01 0.01
0.01 0.01 0.01 0.01 0.01 0.01 0.01 0.01
0.01 0.01 0.01
00000000: 0ad7 233c 0ad7 233c 0ad7 233c 0ad7 233c
00000010: 0ad7 233c 0ad7 233c 0ad7 233c 0ad7 233c
00000020: 0ad7 233c 0ad7 233c 0ad7 233c 0ad7 233c
00000030: 0ad7 233c 0ad7 233c 0ad7 233c 0ad7 233c
00000040: 0ad7 233c 0ad7 233c 0ad7 233c 0ad7 233c
00000050: 0ad7 233c 0ad7 233c 0ad7 233c 0ad7 233c
00000060: 0ad7 233c 0ad7 233c 0ad7 233c 0ad7 233c
00000070: 0ad7 233c 0ad7 233c 0ad7 233c 0ad7 233c
00000080: 0ad7 233c 0ad7 233c 0ad7 233c 0ad7 233c
00000090: 0ad7 233c 0ad7 233c 0ad7 233c 0ad7 233c
000000a0: 0ad7 233c 0ad7 233c 0ad7 233c 0ad7 233c
000000b0: 0ad7 233c 0ad7 233c 0ad7 233c 0ad7 233c
000000c0: 0ad7 233c 0ad7 233c 0ad7 233c 0ad7 233c
000000d0: 0ad7 233c 0ad7 233c 0ad7 233c 0ad7 233c
000000e0: 0ad7 233c 0ad7 233c 0ad7 233c 0ad7 233c
000000f0: 0ad7 233c 0ad7 233c 0ad7 233c 0ad7 233c
00000100: 0ad7 233c 0ad7 233c 0ad7 233c 0ad7 233c
00000110: 0ad7 233c 0ad7 233c 0ad7 233c 0ad7 233c
00000120: 0ad7 233c 0ad7 233c 0ad7 233c 0ad7 233c
00000130: 0ad7 233c 0ad7 233c 0ad7 233c 0ad7 233c
00000140: 0ad7 233c 0ad7 233c 0ad7 233c 0ad7 233c
00000150: 0ad7 233c 0ad7 233c 0ad7 233c 0ad7 233c
00000160: 0ad7 233c 0ad7 233c 0ad7 233c 0ad7 233c
00000170: 0ad7 233c 0ad7 233c 0ad7 233c 0ad7 233c
00000180: 0ad7 233c 0ad7 233c 0ad7 233c 0ad7 233c
00000190: 0ad7 233c 0ad7 233c 0ad7 233c 0ad7 233c
000001a0: 0ad7 233c 0ad7 233c 0ad7 233c

fc_2.weight f4 [2, 107]
0.36861733 0.00589176 0.0820648 -0.4507099 0.04183744 0.21996748 -0.038778752 -0.17602329
-0.13228159 -0.19298637 -0.48067254 -0.20483644 -0.33316645 -0.5660914 -0.20831266 -0.23923478
-0.073861524 -0.07595353 -0.25076678 0.08519244 -0.14547193 -0.0348382 0.18063678 0.45357138
0.46327487 0.3215762 0.17315237 0.08706833 0.09142031 -0.039912347 0.41705844 0.30305424
0.036954354 -0.36767942 -0.1390644 -0.4242952 0.13502437 0.042614322 0.04706444 0.18702675
-0.09831976 -0.10199554 -0.04010235 -0.032509025 0.18919618 0.63778776 -0.10076331 0.2508861
0.16233532 0.0052622613 0.1753884 0.09277627 0.01811529 0.3152805 0.10263291 -0.31824976
0.31927422 -0.1412489 -0.09188462 -0.036055088 0.040173903 -0.079779975 -0.0040445514 0.19820604
0.119185254 0.392975 0.16081323 0.36368993 0.026460422 -0.10075295 -0.35244855 0.17641702
0.07232462 -0.060670268 0.21723774 -0.10589868 -0.06766308 -0.38237792 0.048461962 -0.043920677
0.36947128 -0.006665211 0.0830796 -0.005336497 -0.27464464 0.15363014 -0.076127626 0.31651384
0.093817875 0.111676194 -0.25769708 -0.034569737 -0.088415086 -0.14708322 -0.054434013 -0.08131399
0.09438778 -0.367201 -0.11747688 -0.20836341 0.5209334 0.002261602 -0.00048626668 0.022165824
-0.06369061 0.0064556473 0.005752794 -0.43082514 -0.17539379 -0.03271622 0.4441378 -0.0588294
0.073123954 0.19313459 0.05345504 0.033748113 -0.07554979 0.46101785 -0.012893331 0.2825731
0.7724927 0.13592508 0.19212486 0.120895416 0.0887924 -0.003903779 -0.15813112 0.35642934
0.11868593 -0.033704575 -0.5166331 -0.16438852 -0.32328308 -0.29425907 -0.260153 -0.2138631
0.12988316 -0.27488434 0.004109754 -0.01623487 0.31658834 0.004585316 0.15253666 -0.16169369
0.14449112 -0.019616134 -0.03163545 -0.111236095 -0.21841742 0.080843516 0.19918038 -0.06283204
-0.41757786 0.0034032194 -0.018424043 -0.234889 -0.21393305 0.12648991 -0.21438426 -0.27278373
-0.28612635 -0.054688588 0.26747686 -0.40699467 -0.03698256 -0.03162468 0.07633905 -0.25572574
0.12099082 -0.021427039 -0.12905978 -0.13889539 -0.46506506 0.074285105 -0.06902439 -0.060561113
-0.2130859 0.049922798 0.08236597 0.035149593 0.13270983 0.01840795 0.18710715 0.061143767
0.103752606 0.19736493 0.074143775 -0.32778302 0.12817217 0.14056242 -0.18073395 -0.08487181
-0.07712486 -0.15969591 -0.12261175 -0.06401766 0.01496811 0.50301045 -0.16349082 -0.15176123
0.048920475 -0.24097355 0.17271599 0.21288265 0.15758738 0.07389035 -0.08366433 -0.36250618
0.1296149 0.10014876 -0.20884034 0.116731234 -0.18391111 -0.09292384
00000000: 69bb bc3e aa0f c13b 9711 a83d 73c3 e6be
00000010: bc5d 2b3d 283f 613e 78d6 1ebd 733f 34be
00000020: d374 07be 389e 45be b61a f6be a5c0 51be
00000030: cb94 aabe 5eeb 10bf ea4f 55be f6f9 74be
00000040: b644 97bd 868d 9bbd 8164 80be 6079 ae3d
00000050: 98f6 14be 80b2 0ebd d9f8 383e 823a e83e
00000060: 5d32 ed3e a3a5 a43e db4e 313e e150 b23d
00000070: 923a bb3d 217b 23bd af88 d53e ed29 9b3e
00000080: 735d 173d 7a40 bcbe e666 0ebe 383d d9be
00000090: d443 0a3e 5b8c 2e3d a4c6 403d f183 3f3e
000000a0: df5b c9bd 0ae3 d0bd 5d42 24bd 2f28 05bd
000000b0: a5bc 413e 0f46 233f ff5c cebd 2574 803e
000000c0: 3b3b 263e 0c6f ac3b 0499 333e 7c01 be3d
000000d0: 8466 943c 726c a13e 3431 d23d a2f1 a2be
000000e0: e977 a33e 8da3 10be 012e bcbd 80ae 13bd
000000f0: 648d 243d af63 a3bd 2888 84bb 86f6 4a3e
00000100: 6617 f43d 0534 c93e 39ac 243e 9135 ba3e
00000110: 87c3 d83c 9057 cebd 2374 b4be aaa6 343e
00000120: ee1e 943d 6381 78bd 9273 5e3e 68e1 d8bd
00000130: f192 8abd 0ac7 c3be 0d80 463d 2be6 33bd
00000140: 572b bd3e d867 dabb a325 aa3d c8dd aebb
00000150: 399e 8cbe 3851 1d3e cde8 9bbd 1a0e a23e
00000160: 9623 c03d 7db6 e43d dff0 83be ff98 0dbd
00000170: f812 b5bd fc9c 16be 33f6 5ebd f387 a6bd
00000180: 614e c13d c501 bcbe b897 f0bd 385d 55be
00000190: e45b 053f 6337 143b 9cf1 feb9 1a95 b53c
000001a0: 3970 82bd e589 d33b ef81 bc3b 1d95 dcbe
000001b0: 6e9a 33be 7101 06bd 0866 e33e 19f7 70bd
000001c0: 03c2 953d 13c5 453e acf3 5a3d 763b 0a3d
000001d0: d9b9 9abd 880a ec3e 8d3e 53bc 6cad 903e
000001e0: 15c2 453f f22f 0b3e 61bc 443e 0498 f73d
000001f0: cad8 b53d 8bd6 7fbb 20ed 21be e87d b63e
00000200: 9c11 f33d cf0d 0abd 1142 04bf 7755 28be
00000210: 5c85 a5be 20a9 96be c632 85be eefe 5abe
00000220: 1700 053e a4bd 8cbe 1eab 863b fdfe 84bc
00000230: de17 a23e 6b40 963b 9232 1c3e 0893 25be
00000240: 7bf5 133e 04b2 a0bc 2c94 01bd c0cf e3bd
00000250: d1a8 5fbe 4991 a53d f1f5 4b3e 16ae 80bd
00000260: c4cc d5be 8c08 5f3b 05ee 96bc be86 70be
00000270: 4411 5bbe 9286 013e 8c87 5bbe 4faa 8bbe
00000280: 277f 92be 2401 60bd baf2 883e 9b61 d0be
00000290: 067b 17bd e188 01bd a657 9c3d 7cee 82be
000002a0: 09ca f73d c287 afbc 3f28 04be 983a 0ebe
000002b0: 021d eebe ca22 983d a95c 8dbd ee0e 78bd
000002c0: 3133 5abe d97b 4c3d 7daf a83d 05f9 0f3d
000002d0: 16e5 073e 45cc 963c 0499 3f3e e371 7a3d
000002e0: 3f7c d43d 081a 4a3e b1d8 973d 2dd3 a7be
000002f0: 913f 033e 98ef 0f3e 5212 39be 46d1 adbd
00000300: a3f3 9dbd 5387 23be df1b fbbd b11b 83bd
00000310: ce3c 753c 4bc5 003f 236a 27be 4c67 1bbe
00000320: d660 483d c5c1 76be 76dc 303e e9fd 593e
00000330: 965e 213e d353 973d 3458 abbd 699a b9be
00000340: c5b9 043e cb1a cd3d 3eda 55be c910 ef3d
00000350: 3253 3cbe db4e bebd

fc_2.bias f4 [2]
0.33970487 -0.31970713
00000000: cced ad3e a7b0 a3be
