runs/0011_SkipNN_1_bsz-128_lr-0.001_ep-200-desc-rot-skip-10.pth (torch, 49864 bytes, 4 tensors)

fc_1.weight f4 [107, 107]
-0.031802602 0.0787651 0.12367596 0.121338904 -0.008035995 0.022362031 -0.12310341 0.092364505
0.03548908 0.12130659 -0.010324745 -0.038814716 0.08345612 -0.06328469 -0.12769102 -0.02110903
-0.11765235 -0.15861218 0.033334967 0.1347473 0.051224172 -0.08878742 0.13183315 -0.0028062249
-0.08610524 0.0208077 -0.11190426 -0.06120492 -0.017386332 -0.052510258 0.06737764 -0.07966392
0.14323309 0.045490358 -0.0980856 -0.020026214 -0.104822055 0.15136799 -0.0088768955 0.058276754
0.07973953 -0.10157617 0.16079172 -0.107138194 0.112478785 -0.037075646 -0.048830237 -0.11916967
0.06947433 0.121848606 -0.10134012 -0.16426744 0.04633111 0.017324574 -0.0075334413 0.023078965
0.0614874 0.15816908 -0.057837646 -0.08432499 0.03469733 0.13955875 -0.03369474 0.035297215
-0.090534836 -0.12109279 -0.10568543 0.14429463 0.08934838 -0.05267136 -0.099363066 -0.14698392
0.08646935 -0.0752824 0.023051199 0.118188344 -0.1419934 -0.032196797 -0.033361465 0.08486526
0.016465858 -0.16002935 0.061285354 -0.050371014 -0.12638465 -0.058875322 0.16350104 -0.029313713
0.16702206 0.0078609185 -0.07669744 0.117891245 0.052838404 0.017055681 0.14905974 0.12785718
-0.06331662 0.035501495 -0.13290863 -0.055908024 0.03397493 -0.07386215 -0.13361855 0.14061138
0.09606189 -0.037794586 -0.122412466 0.07588707 0.15396409 0.1215127 0.09469507 -0.1382393
-0.083884165 -0.107471764 -0.09573436 0.0459595 0.0034192721 0.16521585 -0.038662303 0.027158761
-0.022671105 0.10844226 -0.0672489 0.116831005 0.14774612 -0.15002376 -0.07333042 0.06720051
0.10782621 -0.12808576 0.15627411 -0.040920604 -0.106493615 -0.11873048 -0.009382733 -0.14763723
-0.1602331 0.042307742 0.12142328 0.07185983 -0.08515859 0.15412872 -0.102623425 -0.025465494
-0.060815208 -7.696901e-05 -0.054801255 -0.01894768 -0.06540669 0.15853287 -0.13763356 -0.065939896
0.16398074 -0.005412382 -0.13279556 -0.058158208 0.08539478 -0.1234064 -0.028342968 0.08522201
0.057869773 0.072301984 0.059917856 0.1198146 -0.023289941 0.059521634 -0.15979101 0.11668615
0.006139436 0.011007686 0.05999798 -0.12307524 -0.08389097 0.16681756 -0.038290184 -0.014542381
0.048649482 -0.059255667 0.16103885 0.14631748 0.13303632 0.11857259 -0.12775013 0.08546099
-0.014676688 -0.07066844 -0.16025698 -0.045664877 -0.15708825 0.050507795 -0.16514987 0.16667235
-0.11091007 -0.16459034 0.015493066 -0.05847248 0.114184 -0.0773612 -0.15304357 0.06729275
0.081649944 -0.15914482 0.01864624 0.103094354 -0.15406395 -0.16673581 -0.01171892 -0.020872494
-0.14276934 -0.011494341 -0.05418011 -0.13846974 0.08176328 0.141577 -0.052036826 0.040187262
-0.119737044 -0.0042035435 -0.123166755 0.114008546 0.15605259 -0.1060592 -0.06540572 -0.11799507
-0.0778361 0.14949204 0.011196376 0.012403787 -0.023787256 -0.025016354 0.1196987 0.048712697
-0.0063730576 -0.107228056 -0.05018403 0.12920849 0.049551792 -0.01537436 -0.017857837 0.10465865
-0.16370736 0.09369322 0.1053155 0.012999238 -0.086843096 0.07556101 0.01548127 0.052985694
0.07927698 -0.099218674 0.040493343 0.023694418 -0.005122411 0.15741599 -0.16059507 -0.13069347
00000000: 7243 02bd 994f a13d d249 fd3d 8880 f83d
00000010: 68a9 03bc 9430 b73c a41d fcbd 9a29 bd3d
00000020: ff5c 113d 976f f83d 1f29 29bc 2efc 1ebd
00000030: 0beb aa3d 679b 81bd 6fc1 02be d8ec acbc
00000040: b7f3 f0bd 3b6b 22be 3f8a 083d 32fb 093e
00000050: 70d0 513d 2ed6 b5bd 45ff 063e a4e8 37bb
00000060: f257 b0bd e974 aa3c 102e e5bd 03b2 7abd
00000070: c86d 8ebc ff14 57bd 4afd 893d d626 a3bd
00000080: b2ab 123e 1954 3a3d 1ae1 c8bd 040e a4bc
00000090: f2ac d6bd 3600 1b3e 6670 11bc 9bb3 6e3d
000000a0: 7b4e a33d 2b07 d0bd 96a6 243e 456b dbbd
000000b0: 475b e63d a2dc 17bd 3702 48bd 3a0f f4bd
000000c0: 8f48 8e3d c38b f93d 698b cfbd b935 28be
000000d0: b1c5 3d3d 44ec 8d3c 16db f6bb 1910 bd3c
000000e0: 36da 7b3d 13f7 213e 2be7 6cbd 95b2 acbd
000000f0: ca1e 0e3d 7de8 0e3e 7f03 0abd d093 103d
00000100: 546a b9bd 7fff f7bd 9a71 d8bd f9c1 133e
00000110: 49fc b63d edbd 57bd dd7e cbbd f482 16be
00000120: d816 b13d a92d 9abd ded5 bc3c bb0c f23d
00000130: b866 11be cae0 03bd 08a6 08bd d6cd ad3d
00000140: 68e3 863c bcde 23be 5a06 7b3d d651 4ebd
00000150: fa6a 01be 4027 71bd d16c 273e 5023 f0bc
00000160: d507 2b3e 15cb 003c 8c13 9dbd f770 f13d
00000170: 156d 583d 5bb8 8b3c 1ea3 183e feec 023e
00000180: 25ac 81bd 046a 113d 3319 08be d0ff 64bd
00000190: 4c29 0b3d 0a45 97bd 4dd3 08be 6efc 0f3e
000001a0: 19bc c43d 7fce 1abd 63b3 fabd ae6a 9b3d
000001b0: c3a8 1d3e a7db f83d 7def c13d 9a8e 0dbe
000001c0: 76cb abbd 281a dcbd 6010 c4bd 0740 3c3d
000001d0: de15 603b 582e 293e 5d5c 1ebd 0d7c de3c
000001e0: c1b8 b9bc fa16 de3d cbb9 89bd 1845 ef3d
000001f0: c24a 173e d49f 19be 422e 96bd 6ca0 893d
00000200: fdd3 dc3d ea28 03be 5206 203e 5d9c 27bd
00000210: 5319 dabd f728 f3bd 09ba 19bc 372e 17be
00000220: 2514 24be e24a 2d3d c5ac f83d 3f2b 933d
00000230: a067 aebd ebd3 1d3e 3b2c d2bd 039d d0bc
00000240: 5e19 79bd 6c6a a1b8 4877 60bd 2a38 9bbc
00000250: f1f3 85bd 7156 223e d0ef 0cbe 7f0b 87bd
00000260: 91ea 273e 5a5a b1bb 8ffb 07be 4d37 6ebd
00000270: 75e3 ae3d 7fbc fcbd 832f e8bc e188 ae3d
00000280: db08 6d3d 1013 943d 6d6c 753d 5b61 f53d
00000290: 8cca bebc f5cc 733d 41a0 23be 26f9 ee3d
000002a0: 522d c93b 9559 343c 71c0 753d df0e fcbd
000002b0: 07cf abbd 39d2 2a3e 2bd6 1cbd 2b43 6ebc
000002c0: ae44 473d 12b6 72bd 5ee7 243e 40d4 153e
000002d0: ac3a 083e 30d6 f23d eed0 02be 2c06 af3d
000002e0: 7e76 70bc 9dba 90bd 681a 24be 180b 3bbd
000002f0: bedb 20be 43e1 4e3d 0c1d 29be 28ac 2a3e
00000300: d224 e3bd 5f8a 28be a1d6 7d3c d780 6fbd
00000310: 4dd9 e93d 8c6f 9ebd 74b7 1cbe c8d0 893d
00000320: 1638 a73d dcf6 22be 00c0 983c 2223 d33d
00000330: f1c2 1dbe cbbc 2abe b700 40bc cbfc aabc
00000340: 2032 12be c352 3cbc f7eb 5dbd 03cb 0dbe
00000350: 8273 a73d 90f9 103e 9124 55bd 669b 243d
00000360: b238 f5bd e1bd 89bb da3e fcbd 507d e93d
00000370: 40cc 1f3e 9135 d9bd 6ff3 85bd 66a7 f1bd
00000380: 8868 9fbd 7114 193e 0171 373c 4139 4b3c
00000390: 7edd c2bc 19ef ccbc 9824 f53d f786 473d
000003a0: 15d5 d0bb 629a dbbd c58d 4dbd 3b4f 043e
000003b0: d2f6 4a3d bde4 7bbc 994a 92bc 4657 d63d
000003c0: e7a2 27be 3be2 bf3d a7af d73d c2fa 543c
000003d0: cbda b1bd bbbf 9a3d 27a5 7d3c 8707 593d
000003e0: f85b a23d 2933 cbbd 59dc 253d cc1a c23c
000003f0: e6d9 a7bb a831 213e 0973 24be 82d4 05be

fc_1.bias f4 [107]
0.01 0.01 0.01 0.01 0.01 0.01 0.01 0.01
0.01 0.01 0.01 0.01 0.01 0.01 0.01 0.01
0.01 0.01 0.01 0.01 0.01 0.01 0.01 0.01
0.01 0.01 0.01 0.01 0.01 0.01 0.01 0.01
0.01 0.01 0.01 0.01 0.01 0.01 0.01 0.01
0.01 0.01 0.01 0.01 0.01 0.01 0.01 0.01
0.01 0.01 0.01 0.01 0.01 0.01 0.01 0.01
0.01 0.01 0.01 0.01 0.01 0.01 0.01 0.01
0.01 0.01 0.01 0.01 0.01 0.01 0.01 0.01
0.01 0.01 0.01 0.01 0.01 0.01 0.01 0.01
0.01 0.01 0.01 0.01 0.01 0.01 0.01 0.01
0.01 0.01 0.01 0.01 0.01 0.01 0.01 0.01
0.01 0.01 0.01 0.01 0.01 0.01 0.01 0.01
0.01 0.01 0.01
00000000: 0ad7 233c 0ad7 233c 0ad7 233c 0ad7 233c
00000010: 0ad7 233c 0ad7 233c 0ad7 233c 0ad7 233c
00000020: 0ad7 233c 0ad7 233c 0ad7 233c 0ad7 233c
00000030: 0ad7 233c 0ad7 233c 0ad7 233c 0ad7 233c
00000040: 0ad7 233c 0ad7 233c 0ad7 233c 0ad7 233c
00000050: 0ad7 233c 0ad7 233c 0ad7 233c 0ad7 233c
00000060: 0ad7 233c 0ad7 233c 0ad7 233c 0ad7 233c
00000070: 0ad7 233c 0ad7 233c 0ad7 233c 0ad7 233c
00000080: 0ad7 233c 0ad7 233c 0ad7 233c 0ad7 233c
00000090: 0ad7 233c 0ad7 233c 0ad7 233c 0ad7 233c
000000a0: 0ad7 233c 0ad7 233c 0ad7 233c 0ad7 233c
000000b0: 0ad7 233c 0ad7 233c 0ad7 233c 0ad7 233c
000000c0: 0ad7 233c 0ad7 233c 0ad7 233c 0ad7 233c
000000d0: 0ad7 233c 0ad7 233c 0ad7 233c 0ad7 233c
000000e0: 0ad7 233c 0ad7 233c 0ad7 233c 0ad7 233c
000000f0: 0ad7 233c 0ad7 233c 0ad7 233c 0ad7 233c
00000100: 0ad7 233c 0ad7 233c 0ad7 233c 0ad7 233c
00000110: 0ad7 233c 0ad7 233c 0ad7 233c 0ad7 233c
00000120: 0ad7 233c 0ad7 233c 0ad7 233c 0ad7 233c
00000130: 0ad7 233c 0ad7 233c 0ad7 233c 0ad7 233c
00000140: 0ad7 233c 0ad7 233c 0ad7 233c 0ad7 233c
00000150: 0ad7 233c 0ad7 233c 0ad7 233c 0ad7 233c
00000160: 0ad7 233c 0ad7 233c 0ad7 233c 0ad7 233c
00000170: 0ad7 233c 0ad7 233c 0ad7 233c 0ad7 233c
00000180: 0ad7 233c 0ad7 233c 0ad7 233c 0ad7 233c
00000190: 0ad7 233c 0ad7 233c 0ad7 233c 0ad7 233c
000001a0: 0ad7 233c 0ad7 233c 0ad7 233c

fc_2.weight f4 [2, 107]
0.5202985 0.17958157 0.03927076 -0.30012798 0.20107745 0.111260794 0.009128766 0.18120109
0.015472227 -0.20899816 -0.55653125 -0.2563837 0.108106785 -0.93234825 -0.24280496 -0.10632655
0.15874486 -0.15568247 -0.16367564 0.28958052 -0.2972652 -0.06858206 -0.009466872 0.57335955
0.07391997 0.43612328 0.3836424 0.2957997 0.21335512 -0.26117232 0.45388874 0.29486004
0.24579677 -0.48795587 0.10313267 -0.45096204 0.26251912 -0.2741927 0.15632966 0.097520456
0.15785713 -0.05986603 -0.3147425 -0.10411519 -0.00076471537 0.44633287 -0.12434547 0.11705149
0.082283854 0.121767126 -0.09910258 0.16004792 0.4217165 0.2035326 0.05614519 -0.33714488
0.64687353 -0.30580002 0.05388481 0.08964525 0.14943254 -0.2757197 -0.12657744 0.43820634
0.11281449 0.46633244 0.110577725 0.61687815 -0.098132364 0.059048057 -0.24336044 0.07342756
0.31340262 -0.023655158 -0.10803054 -0.15780109 -0.0870045 -0.51344895 -0.20798413 0.047241807
0.1910657 -0.13623597 -0.30263638 0.24300295 -0.23679397 0.0937857 0.0704833 0.514047
0.15522863 0.0025244683 -0.18845765 -0.013293463 0.12921377 -0.15346944 0.1860281 -0.06042058
-0.10984123 -0.57658106 -0.00027758448 0.06500053 0.37775934 -0.0026214868 -0.07127544 0.1956614
-0.09889774 -0.06300808 0.23402032 -0.63047016 0.0076440773 -0.027755713 0.35425043 0.008975264
-0.18293461 0.31906912 0.01402257 0.043869674 -0.04724834 0.6304526 -0.057576373 0.24932694
0.83815557 0.19768599 0.43633205 0.2775448 0.3123898 0.0692533 -0.26818103 -0.05209492
0.019944552 0.08231233 -0.9555313 -0.39956123 -0.4972017 -0.20373671 -0.42767385 -0.23343514
0.026358172 -0.17260695 -0.119272836 -0.14431562 0.6397188 0.14995018 0.48535433 -0.26027808
0.2528954 -0.14878082 -0.20647696 -0.055094115 0.041062832 0.124147676 -0.027918354 -0.12342219
-0.6508954 0.23405279 -0.48052606 -0.18807435 -0.07887 0.07201685 -0.40768045 -0.2131727
-0.2906611 -0.27662385 0.2771592 -0.3593324 0.088570304 -0.020073192 0.16873805 -0.38110784
0.1432688 0.14239363 -0.45494902 -0.4937634 -0.59209657 -0.14184122 -0.43653175 -0.23974468
-0.038014095 0.3487174 -0.26092395 0.021145247 0.22859487 -0.35748854 -0.06846437 0.04338928
0.5251959 -0.09673971 0.079097345 -0.53983957 0.18612729 -0.06612679 -0.02195659 -0.06508333
-0.015686758 -0.057289664 -0.55945945 -0.010688091 -0.06324807 0.5092097 -0.3598611 -0.13647668
0.09774476 -0.05978627 0.033817448 0.010991522 0.51902986 0.13221447 0.110027015 -0.35807294
0.1635422 0.15685137 -0.15955192 0.09514713 -0.18596481 0.08703918
00000000: 4832 053f 3be4 373e 60da 203d 60aa 99be
00000010: 3fe7 4d3e b3dc e33d d290 153c c78c 393e
00000020: 397f 7d3c 9d03 56be d578 0ebf b944 83be
00000030: 1767 dd3d 60ae 6ebf dda1 78be bcc1 d9bd
00000040: 038e 223e 3a6b 1fbe 969a 27be e643 943e
00000050: 2533 98be c074 8cbd f01a 1bbc b1c7 123f
00000060: 5a63 973d 8d4b df3e c76c c43e 0f73 973e
00000070: c479 5a3e 61b8 85be 1b64 e83e e5f7 963e
00000080: 26b2 7b3e 5ad5 f9be 3937 d33d 7fe4 e6be
00000090: e868 863e fc62 8cbe e214 203e ceb8 c73d
000000a0: 4da5 213e 1536 75bd ee25 a1be 583a d5bd
000000b0: 2e77 48ba be85 e43e d6a8 febd b1b8 ef3d
000000c0: 7084 a83d 0b61 f93d 4bf6 cabd 9ae3 233e
000000d0: 3aeb d73e da6a 503e 80f8 653d 419e acbe
000000e0: 8199 253f d291 9cbe 52b6 5c3d ee97 b73d
000000f0: d804 193e 222b 8dbe 849d 01be 955c e03e
00000100: 490b e73d 20c3 ee3e 9376 e23d baeb 1d3f
00000110: 9ff9 c8bd 60dc 713d 7b33 79be 3061 963d
00000120: 4f76 a03e 76c8 c1bc 1e3f ddbd 9c96 21be
00000130: 6a2f b2bd 6471 03bf cbf9 54be a080 413d
00000140: baa6 433e 7181 0bbe 28f3 9abe c4d5 783e
00000150: 1e7a 72be b812 c03d 8c59 903d 9698 033f
00000160: 41f4 1e3e 8d71 253b 0bfb 40be d3cc 59bc
00000170: 9d50 043e 1827 1dbe 267e 3e3e 927b 77bd
00000180: 70f4 e0bd d19a 13bf c288 91b9 ff1e 853d
00000190: ac69 c13e 40cd 2bbb dcf8 91bd 765b 483e
000001a0: e68a cabd 610a 81bd 06a3 6f3e 7e66 21bf
000001b0: 2b7b fa3b f35f e3bc 5060 b53e fc0c 133c
000001c0: 3653 3bbe 075d a33e ecbe 653c b0b0 333d
000001d0: 7a87 41bd 5765 213f 34d5 6bbd 904f 7f3e
000001e0: 5d91 563f 326e 4a3e ea66 df3e 5a1a 8e3e
000001f0: 8ef1 9f3e add4 8d3d 064f 89be 7c61 55bd
00000200: c262 a33c 5e93 a83d b39d 74bf 4a93 ccbe
00000210: 3991 febe 5ba0 50be 11f8 dabe 9f09 6fbe
00000220: 18ed d73c e0bf 30be 5145 f4bd 79c7 13be
00000230: 9cc4 233f 8a8c 193e 5d80 f83e 2b43 85be
00000240: 827b 813e 005a 18be b26e 53be 5eaa 61bd
00000250: 8031 283d 2341 fe3d 08b5 e4bc c6c4 fcbd
00000260: 15a1 26bf 89ab 6f3e 8307 f6be 9096 40be
00000270: 9886 a1bd 927d 933d 7ebb d0be f249 5abe
00000280: 88d1 94be a4a1 8dbe d0e7 8d3e 6bfa b7be
00000290: 5964 b53d 8970 a4bc abc9 2c3e 9120 c3be
000002a0: 0eb5 123e a3cf 113e 14ef e8be 8ece fcbe
000002b0: a493 17bf d33e 11be 1781 dfbe a17f 75be
000002c0: abb4 1bbd 168b b23e d397 85be cc38 ad3c
000002d0: c614 6a3e bd08 b7be 0c37 8cbd f5b8 313d
000002e0: 3d73 063f 781f c6bd cafd a13d ed32 0abf
000002f0: 2798 3e3e 7c6d 87bd 4ede b3bc 694a 85bd
00000300: 8481 80bc 91a8 6abd bc38 0fbf 1a1d 2fbc
00000310: 3488 81bd 915b 023f b73f b8be 8bc0 0bbe
00000320: 682e c83d 73e2 74bd 2a84 0a3d c915 343c
00000330: 24df 043f 3b63 073e d855 e13d 5655 b7be
00000340: 9b77 273e a59d 203e 9461 23be 80dc c23d
00000350: 8f6d 3ebe 9941 b23d

fc_2.bias f4 [2]
0.14097604 -0.1209851
00000000: 065c 103e 09c7 f7bd
