runs/0012_SkipNN_1_bsz-128_lr-0.001_ep-200-desc-rot-skip-52.pth (torch, 49864 bytes, 4 tensors)

fc_1.weight f4 [107, 107]
000000 98 18 e1 bd 5f 36 91 bd 22 3b 73 3d 19 82 c0 3d
       -0.10991019 -0.070904486 0.059382565 0.09399814
000010 e8 30 9e bd 25 9a d9 bc ce 40 2b be 8d 41 12 be
       -0.07724172 -0.02656276 -0.1672394 -0.14282818
000020 23 4c 3f bd f5 d5 9b bd 37 8b 15 be 64 f5 93 bd
       -0.04670347 -0.076091684 -0.14603887 -0.07224539
000030 6c 5f 66 3d f7 a3 33 3d bc 0f 19 3e 47 cf 28 3e
       0.056243345 0.04385754 0.14947408 0.1648532
000040 df fc cd 3b 14 e6 9f 3c 5f 1d f6 3b a9 67 b5 bd
       0.006286248 0.01951889 0.0075108255 -0.08857662
000050 dc e5 3a bb 17 2d c7 bd 82 97 99 bd 6b dc b7 3c
       -0.0028518355 -0.09725397 -0.07499601 0.02244397
000060 59 04 19 3e 54 ef f8 3d 43 96 6d 3d 15 90 86 3d
       0.14943065 0.12155023 0.05800463 0.0657045
000070 df 6c 0b 3e 7a d8 ca bd 62 ab 81 bd 37 6b d5 bd
       0.1361575 -0.09904571 -0.06331517 -0.1042084
000080 0d 62 eb bd f9 f7 ce 3d b2 f3 d4 3d 1d c4 1c be
       -0.11493311 0.10105891 0.10398044 -0.15309186
000090 7b 3c 8d 3d 11 f3 0d 3d e4 0a b7 bd a4 dc d7 3d
       0.06896301 0.034655634 -0.08937624 0.10540131
0000a0 d1 09 a1 3d 91 56 28 be 3e d8 88 bd f1 70 bd bc
       0.078632005 -0.16439272 -0.0668187 -0.023125144
0000b0 14 25 cf bb 3f e9 06 3e 34 b7 80 bd 09 89 b3 bd
       -0.0063215587 0.13174914 -0.06284943 -0.08766372
0000c0 90 2b f7 3d b9 49 13 3e 6b 43 d2 3d 35 50 21 3e
       0.12068856 0.14383592 0.10266765 0.15753253
0000d0 de 95 81 3d bf b1 a9 3d b0 a8 20 3d c1 88 1d 3e
       0.06327413 0.082858555 0.039223373 0.15384199
0000e0 98 e2 09 3d c6 ad 26 3e ba 86 26 be 65 17 d8 bd
       0.033663362 0.16277227 -0.16262332 -0.10551337
0000f0 2a 77 0c be 68 b8 2a be c8 b1 04 3e 7a 01 95 bd
       -0.13717332 -0.16671908 0.12958443 -0.07275672
000100 0c fc 3e bb d5 f3 ef 3d 6c 9c 50 3d c8 47 1e 3e
       -0.002914193 0.11716429 0.050930426 0.1545707
000110 c6 da 91 bd 1d 4e 16 3e 83 59 0a be e1 1c 01 3e
       -0.07121806 0.14678235 -0.13510709 0.12608673
000120 94 ac 1d bd ec c4 9d 3d d2 3c cc 3d 93 a2 b3 3d
       -0.03849466 0.077035755 0.09972538 0.08771243
000130 a3 c2 70 3d 84 aa 00 3b 27 75 da 3d 41 d6 65 bd
       0.05877937 0.0019632885 0.10666876 -0.05611253
000140 36 52 01 3c 44 63 2a bd fc ca ba 3d 1a c4 f0 3c
       0.007893136 -0.041598573 0.091207474 0.029390384
000150 cd 25 f1 bd 85 5a bb bd 59 cc d4 3d e9 31 0a 3e
       -0.11774788 -0.091481246 0.10390539 0.13495602
000160 f5 2d cc bd f1 e9 26 be a8 73 8e bd 35 ba 8c 3d
       -0.09969703 -0.16300179 -0.069556534 0.06871454
000170 17 b3 ce 3d e3 84 18 be ea 75 24 be ad 28 f9 3d
       0.100927524 -0.14894442 -0.16060606 0.121659614
000180 ad 14 e3 3d 54 52 7b 3d df ce 46 bd dd 0a a3 bd
       0.11087928 0.06135781 -0.04853713 -0.079610564
000190 4c 84 ae bc 98 97 e8 bd 8b e5 68 bd dc 86 45 bc
       -0.021303318 -0.11357039 -0.056859534 -0.012056079
0001a0 d0 e1 c3 3d fc 55 0d 3d c5 0a 27 3c a1 12 0c bd
       0.09564555 0.03450583 0.010195439 -0.034197453
0001b0 f5 45 4a bc 03 e6 b2 3d 08 79 ca bd 50 dd d6 bc
       -0.012345781 0.087352775 -0.09886366 -0.026228577
0001c0 21 f5 24 3e 8e 74 aa bc 5e 42 84 3c 4b 6f af 3d
       0.16109134 -0.02080753 0.016144928 0.08566149
0001d0 cd 1d 05 3e ca 7b fe bd 30 0a 40 bd be b5 ee bb
       0.1299965 -0.12425955 -0.046884716 -0.007284849
0001e0 37 db fe 3c 85 f5 81 3d 90 fc 0e be 21 3a 74 b9
       0.03111039 0.06345657 -0.13963532 -0.00023291308
0001f0 e2 57 85 3d c0 4d f0 3d f9 57 6c bc 17 69 d9 bd
       0.06510903 0.1173358 -0.014425271 -0.106157474
000200 6d e2 bc 3c 25 37 da 3d e0 55 e2 3d 7f f6 1a be
       0.023057187 0.10655049 0.110515356 -0.15133093
000210 b7 22 da bd 36 fc 89 3d 35 7f 53 3d e1 4b 76 3d
       -0.106511526 0.067375585 0.051634986 0.060130958
000220 bd 14 2b be 10 fe b4 bd 39 72 c0 3d 54 13 4e 3d
       -0.1670713 -0.08837521 0.09396786 0.0503114
000230 dc b4 15 3e b9 15 9e 3d 3e 3c ef bc ab 4e 7d 3c
       0.14619774 0.07718987 -0.02920353 0.01546065
000240 d8 87 ee 3d 16 1f 93 3d 9d 9b 01 3e 10 0f 2a 3d
       0.11647004 0.071836635 0.12657018 0.04151827
000250 1a 1a a4 bd e5 6d 8a 3d d1 19 fb bd d6 c8 fd bd
       -0.08012791 0.06759242 -0.122607835 -0.12391822
000260 05 3c b7 bd c8 67 02 be 47 b2 26 3c 23 72 09 3e
       -0.08946995 -0.12734902 0.010174341 0.13422446
000270 be ac 6d bd 08 d7 ef bd e5 4c dd 3d 17 e8 a7 bc
       -0.058026068 -0.11710936 0.10805682 -0.020496411
000280 82 3d 13 be 4a ad eb bd 3e 97 13 3e 8d 04 f1 bd
       -0.14378932 -0.11507662 0.14413163 -0.11768446
000290 ef 6a a4 3d 8c f3 0d 3d 66 d8 cf 3d c8 55 85 bd
       0.080282085 0.034656093 0.101486966 -0.06510502
0002a0 49 c2 04 bd aa 5b e9 3d 0f d5 9c bd 41 7a 29 be
       -0.032411847 0.11394437 -0.07657825 -0.16550542
0002b0 24 84 79 bd 4a f1 8e 3d ae d6 e0 3c 39 39 4d bd
       -0.060917035 0.06979616 0.027446117 -0.0501034
0002c0 fb 7f 26 3d 20 4b f6 3d ee 07 07 be d5 9d 27 3e
       0.040649395 0.12026048 -0.13186619 0.16368802
0002d0 11 59 0a be 4a cf 28 be af 74 81 3d be 70 88 3d
       -0.13510539 -0.16485325 0.06321084 0.06662129
0002e0 30 96 0d bd 6c c5 13 be d5 86 61 3c d0 cc e0 3d
       -0.034567058 -0.14430779 0.013765057 0.10976565
0002f0 e6 b9 01 be ca 64 1e bc a6 ce 0b 3d ec c7 a9 bd
       -0.12668571 -0.009667585 0.034132622 -0.08290085
000300 9b 7c a4 bd 94 9b 12 3e d9 7d f0 3d e2 35 02 be
       -0.08031579 0.14317161 0.117427535 -0.12715867
000310 73 1d 1b be c1 24 0f bc 6b bd 18 bd 9c 33 2f bd
       -0.15147953 -0.00873679 -0.037290018 -0.042773828
000320 b0 94 05 be 3b 6e 93 bd 55 e6 0d bd a5 b2 12 bd
       -0.13045001 -0.07198759 -0.03464349 -0.0358149
000330 24 05 53 3d ec 7c cc 3d 38 7a 81 3d 5c cf bb bb
       0.051518574 0.099847645 0.063221395 -0.0057315063
000340 6c 63 9b bd 08 32 00 bd 76 b1 0c be 20 9f 24 3d
       -0.075873226 -0.031297714 -0.13739571 0.040190816
000350 7b bc fc bd 9f ca 12 3e a8 8b d4 bd 84 5a 25 3c
       -0.12340637 0.14335106 -0.103782 0.010092381
000360 c4 62 20 be c9 52 19 3e d4 d7 21 3e 42 8b 11 be
       -0.15662676 0.14972986 0.15804988 -0.14213279
000370 01 92 84 bd 24 e3 bd bc 49 a9 15 3e c1 b3 91 3c
       -0.064731605 -0.023179598 0.14615358 0.017785909
000380 0d 06 1c 3e d3 5e 87 3d 9e cd 1c be 33 e8 b5 3d
       0.15236683 0.06609883 -0.15312812 0.08882179
000390 2f 2b c0 bc 89 69 11 3d ce 93 20 3e 71 8f d9 3d
       -0.023458092 0.035501037 0.15681383 0.106230624
0003a0 24 03 ea 3d ae 6a c8 3d fc aa cc bd 63 c6 9f bd
       0.1142638 0.097859725 -0.0999355 -0.07801511
0003b0 94 ce dd bd 91 63 68 3c 6f 4a 16 be 54 ce 05 3e
       -0.10830417 0.014183895 -0.14676832 0.13066989
0003c0 98 f4 e9 3d a4 c9 01 3d 08 5c 69 bd d7 74 c8 3c
       0.11423606 0.03168644 -0.056972533 0.024469776
0003d0 7d be 14 3e 76 a5 14 bd 97 1f 74 3c 6a 47 17 3e
       0.1452579 -0.03629061 0.01490011 0.14773336
0003e0 ca 5a 1f 3e 32 a3 1b 3e 98 b1 17 3e c7 2e cb 3d
       0.15561977 0.15198973 0.1481384 0.099210314
0003f0 a9 17 20 3d 3b 23 08 3e 8d 6c af 3d 75 80 d4 bd
       0.039085064 0.1329469 0.08565626 -0.10376064

fc_1.bias f4 [107]
000000 0a d7 23 3c 0a d7 23 3c 0a d7 23 3c 0a d7 23 3c
       0.01 0.01 0.01 0.01
000010 0a d7 23 3c 0a d7 23 3c 0a d7 23 3c 0a d7 23 3c
       0.01 0.01 0.01 0.01
000020 0a d7 23 3c 0a d7 23 3c 0a d7 23 3c 0a d7 23 3c
       0.01 0.01 0.01 0.01
000030 0a d7 23 3c 0a d7 23 3c 0a d7 23 3c 0a d7 23 3c
       0.01 0.01 0.01 0.01
000040 0a d7 23 3c 0a d7 23 3c 0a d7 23 3c 0a d7 23 3c
       0.01 0.01 0.01 0.01
000050 0a d7 23 3c 0a d7 23 3c 0a d7 23 3c 0a d7 23 3c
       0.01 0.01 0.01 0.01
000060 0a d7 23 3c 0a d7 23 3c 0a d7 23 3c 0a d7 23 3c
       0.01 0.01 0.01 0.01
000070 0a d7 23 3c 0a d7 23 3c 0a d7 23 3c 0a d7 23 3c
       0.01 0.01 0.01 0.01
000080 0a d7 23 3c 0a d7 23 3c 0a d7 23 3c 0a d7 23 3c
       0.01 0.01 0.01 0.01
000090 0a d7 23 3c 0a d7 23 3c 0a d7 23 3c 0a d7 23 3c
       0.01 0.01 0.01 0.01
0000a0 0a d7 23 3c 0a d7 23 3c 0a d7 23 3c 0a d7 23 3c
       0.01 0.01 0.01 0.01
0000b0 0a d7 23 3c 0a d7 23 3c 0a d7 23 3c 0a d7 23 3c
       0.01 0.01 0.01 0.01
0000c0 0a d7 23 3c 0a d7 23 3c 0a d7 23 3c 0a d7 23 3c
       0.01 0.01 0.01 0.01
0000d0 0a d7 23 3c 0a d7 23 3c 0a d7 23 3c 0a d7 23 3c
       0.01 0.01 0.01 0.01
0000e0 0a d7 23 3c 0a d7 23 3c 0a d7 23 3c 0a d7 23 3c
       0.01 0.01 0.01 0.01
0000f0 0a d7 23 3c 0a d7 23 3c 0a d7 23 3c 0a d7 23 3c
       0.01 0.01 0.01 0.01
000100 0a d7 23 3c 0a d7 23 3c 0a d7 23 3c 0a d7 23 3c
       0.01 0.01 0.01 0.01
000110 0a d7 23 3c 0a d7 23 3c 0a d7 23 3c 0a d7 23 3c
       0.01 0.01 0.01 0.01
000120 0a d7 23 3c 0a d7 23 3c 0a d7 23 3c 0a d7 23 3c
       0.01 0.01 0.01 0.01
000130 0a d7 23 3c 0a d7 23 3c 0a d7 23 3c 0a d7 23 3c
       0.01 0.01 0.01 0.01
000140 0a d7 23 3c 0a d7 23 3c 0a d7 23 3c 0a d7 23 3c
       0.01 0.01 0.01 0.01
000150 0a d7 23 3c 0a d7 23 3c 0a d7 23 3c 0a d7 23 3c
       0.01 0.01 0.01 0.01
000160 0a d7 23 3c 0a d7 23 3c 0a d7 23 3c 0a d7 23 3c
       0.01 0.01 0.01 0.01
000170 0a d7 23 3c 0a d7 23 3c 0a d7 23 3c 0a d7 23 3c
       0.01 0.01 0.01 0.01
000180 0a d7 23 3c 0a d7 23 3c 0a d7 23 3c 0a d7 23 3c
       0.01 0.01 0.01 0.01
000190 0a d7 23 3c 0a d7 23 3c 0a d7 23 3c 0a d7 23 3c
       0.01 0.01 0.01 0.01
0001a0 0a d7 23 3c 0a d7 23 3c 0a d7 23 3c
       0.01 0.01 0.01

fc_2.weight f4 [2, 107]
000000 27 55 62 3f 29 b2 ce bc 91 ed 5e 3e e4 1b ea be
       0.8841118 -0.025231438 0.21770312 -0.45724404
000010 d9 4f b7 3c 63 7e c7 3e ba 38 75 3e fd 34 5f be
       0.022376942 0.38963613 0.2394742 -0.21797557
000020 05 15 9b 3e 52 ae b9 3d bf b9 aa bd 5a c2 ae 3d
       0.30289474 0.09066452 -0.083362095 0.08533163
000030 54 eb 71 3e 59 bf a2 3c e9 89 b4 bd f9 e6 02 3e
       0.23624927 0.019866632 -0.08815367 0.12783422
000040 1c a8 9e 3d 7a b6 88 3d 59 d6 cb bd 4e ce a4 3c
       0.07746908 0.0667543 -0.09952993 0.020117905
000050 09 39 68 be e2 9f 3d 3e 9d 2c ae bd 4f 30 88 bd
       -0.22678007 0.18518022 -0.08504603 -0.06649839
000060 85 ed af 3c 77 29 5f bc e7 58 c5 3c 15 1d 89 bd
       0.021475563 -0.013620726 0.024090244 -0.06695
000070 01 20 26 be 87 35 c4 3d 9e 92 3b 3e 1a cc 18 3d
       -0.16223146 0.09580522 0.18317649 0.03730402
000080 b7 ec f7 3d fc f3 fe 3c 89 78 21 3e 3c 18 69 3e
       0.12105697 0.0311222 0.15768637 0.22763151
000090 e9 ce 79 3e 4c 5f c1 bc da 31 56 bd 38 1a 81 3d
       0.24395336 -0.023605011 -0.052293636 0.06303829
0000a0 ff 9c 21 3e d6 6b 9f 3d 37 30 99 bd 73 a1 1e 3d
       0.15782546 0.0778424 -0.074798994 0.03872819
0000b0 7d 18 20 bd 9c 0e bb bc 9e 7f 7a 3e 5d e7 d3 3e
       -0.039085854 -0.022834115 0.24462745 0.41387454
0000c0 17 51 f9 3d d6 73 bb 3e 6f 48 18 3e a2 72 0d bb
       0.1217367 0.36611813 0.14871381 -0.002158322
0000d0 25 49 50 bf 63 83 c1 bd c3 fa d1 be d1 45 73 bf
       -0.8136161 -0.09448888 -0.41011629 -0.95028406
0000e0 52 db d1 bd 2e ae cc be 1c 52 60 3e 24 d1 a6 3d
       -0.1024691 -0.3997664 0.21906322 0.08145359
0000f0 ce 2e 87 be 1b b5 8f bd cc 41 2c 3e e9 bb 40 3c
       -0.26402897 -0.07016965 0.16821975 0.011763551
000100 6e 8e 66 bc 11 c3 6b 3e b6 e7 8f 3d 63 f4 06 bd
       -0.014072044 0.2302363 0.07026617 -0.03294791
000110 8a 84 88 3d a1 55 73 3d 1e 83 0f be dd 0a f9 bd
       0.06665905 0.059407834 -0.14014861 -0.12160275
000120 a9 b4 24 3d ad f8 be ba b4 c5 3f bb af e7 97 bd
       0.040211353 -0.0014569961 -0.0029262127 -0.07417237
000130 b8 51 c8 3d 66 35 66 3e c8 83 70 3c 32 c5 50 be
       0.097812116 0.22481307 0.014679857 -0.20387724
000140 e8 e2 8e 3e 59 3f 69 bd 00 1a d8 bd 8e 8e 13 3d
       0.2790749 -0.05694518 -0.10551834 0.036024623
000150 77 d9 73 3d 10 3a 7a be 46 c1 73 3d bb 0e 14 3e
       0.059533563 -0.24436212 0.05951049 0.14458744
000160 fb 8e 94 3c 06 33 91 bc 21 ba 32 be b4 0a 8e 3e
       0.018134585 -0.017724525 -0.17453815 0.2774254
000170 3a 35 c6 3d 58 05 e2 3d 51 68 2a be 54 33 ab bc
       0.09678121 0.110361755 -0.16641356 -0.020898499
000180 29 99 33 bd f5 64 45 3e e0 dd db 3c 3e 5b 91 3c
       -0.043847237 0.19276793 0.026839197 0.017743703
000190 ce 85 79 3e 03 cc 28 be 57 22 e8 bd 7e 4d df 3d
       0.24367449 -0.16484074 -0.11334675 0.10903452
0001a0 28 56 61 3f 9e 48 81 bd 38 66 6b 3d 09 d5 2f bf
       0.8802209 -0.06312679 0.05747053 -0.6868444
0001b0 7f 95 0c be 50 6f 1d be 92 0a ed 3e 9d ab 35 3e
       -0.13728903 -0.15374494 0.46297127 0.17741247
0001c0 c3 c5 49 bd 5f a8 28 be 0f 0f ac 3d b9 43 5c be
       -0.049260866 -0.16470478 0.0840131 -0.21510209
0001d0 0a ba f8 bd 8e 4d e0 3d 77 a1 da bd af e2 c5 bc
       -0.12144859 0.109522924 -0.10675328 -0.024155943
0001e0 c3 5a e0 3c 3c 12 c6 bd f4 64 63 be 3a 51 17 3d
       0.027387029 -0.09671447 -0.2220648 0.036942698
0001f0 1b 7e cb 3d 98 c6 9f be b8 1f 7a 3d d0 57 a0 bd
       0.09936162 -0.31206203 0.061065406 -0.07829249
000200 fb e8 9e bc ec ea f8 3b ed ce 4e 3d b7 08 a3 be
       -0.019398203 0.0075963642 0.05049031 -0.31842586
000210 a0 13 7e 3e c8 4a 4e be 86 82 a2 be de b9 d8 bd
       0.24812174 -0.20145714 -0.31740206 -0.10582326
000220 ff 33 93 ba 60 81 e5 be f3 3d 13 be 68 c2 69 3e
       -0.0011230706 -0.44825268 -0.143791 0.22828066
000230 4f d3 ce bd 76 c5 0b bd 53 36 62 be 67 a1 7a 3d
       -0.10098898 -0.03412386 -0.22091036 0.06118908
000240 f3 f3 2b be b9 7c 62 bd 11 35 52 3d 6e c8 9a 3d
       -0.16792278 -0.055294726 0.05132014 0.0755776
000250 03 7e 01 3e 0f fc 19 3d be 7a 3c be 5b 12 3a be
       0.12645726 0.037593897 -0.18406197 -0.18171065
000260 57 95 dd bd 9d 1b a0 be 42 d9 11 3d b6 5c 03 3e
       -0.108195 -0.31271067 0.035607584 0.12828335
000270 e4 64 01 be 20 b8 b8 be 58 bf 7c 3d d5 68 2d 3f
       -0.12636143 -0.36077976 0.061705917 0.67738086
000280 b5 ce 74 3d 54 94 75 3e 12 3a 32 3f f2 ce 60 bb
       0.059767444 0.23982364 0.6961986 -0.0034303037
000290 bc 18 6e 3e 1b 52 73 be 50 01 90 be 4b 03 79 bd
       0.23251623 -0.2376179 -0.28126 -0.060794156
0002a0 97 17 25 be 1c bc 94 be f6 3e a5 3d ca 3e 18 be
       -0.1612228 -0.29049766 0.080686495 -0.14867702
0002b0 3f fa 9b bc c1 21 a6 bd 4f 10 2d 3e b4 2c 6f bd
       -0.019040225 -0.08111907 0.16900752 -0.05839224
0002c0 9e ef 9f bd 7f 9b bd 3c a4 83 41 be 95 6f 4b be
       -0.07809375 0.023145435 -0.18897873 -0.19866784
0002d0 ef e4 e5 3d 38 31 5b be 60 d7 ad be 3b 55 88 3e
       0.11225306 -0.21405494 -0.3395338 0.26627526
0002e0 f6 d9 9d 3c 66 29 54 be d1 68 d3 3b 3e 99 cb bd
       0.019268971 -0.20718917 0.006451704 -0.09941338
0002f0 4d 69 bb 3d d4 89 d6 3d 42 b8 92 bd 24 3e e5 3c
       0.09150944 0.104755074 -0.07164051 0.027983733
000300 79 2d 9b 3e 05 0d 2d 3e b5 b7 d9 bc 6c e6 e9 3c
       0.3030813 0.16899498 -0.026576856 0.028552257
000310 4c 64 ce 3d 77 34 3c 3e ad b5 65 3d 70 09 15 3e
       0.10077724 0.18379389 0.056081463 0.14554381
000320 bb 05 30 be 16 23 7c be a4 fc ed bd 48 c2 37 be
       -0.17189686 -0.24622759 -0.11620453 -0.17945206
000330 4e d5 69 3c 36 f6 65 3d 75 e0 e2 3d 59 da 12 3e
       0.014272047 0.05614301 0.11077968 0.14341106
000340 4e 1e 9b 3e 86 ff 64 3e a6 8f 88 3c c7 96 36 bf
       0.30296558 0.223631 0.01667006 -0.7132382
000350 aa e7 8d 3e b2 4b 5c bd
       0.27715808 -0.053783126

fc_2.bias f4 [2]
000000 11 8e 9b 3d cf 39 65 bd
       0.075954564 -0.055963334
