runs/0013_SkipNN_1_bsz-128_lr-0.001_ep-200-desc-perm.pth (torch, 49616 bytes, 4 tensors)

fc_1.weight f4 [107, 107]
000000 b7 62 17 bd 9c 0e bb bd ed ce 24 be c9 ed 18 3e
       -0.036959376 -0.09133646 -0.16094561 0.14934458
000010 c7 ae 07 3e b0 90 2e bd 0e ff a4 bd 96 e1 b0 3c
       0.13250266 -0.042618454 -0.0805646 0.021591943
000020 8b f1 13 bd 69 b0 a9 bd 82 a7 0c 3e b4 a4 d6 3d
       -0.036119025 -0.08285601 0.13735774 0.104806334
000030 ec c1 bd 3c 14 07 f3 bd d6 a0 f3 3c ab 02 0c 3e
       0.023163758 -0.118665844 0.029739778 0.13672893
000040 0b 4c 92 bc f0 13 a1 3d 4c 10 14 3e f8 1c be 3c
       -0.017858526 0.07865131 0.14459342 0.023207173
000050 96 e8 5f bd 06 72 2b 3d 6d c7 16 be eb cf 08 3e
       -0.05466517 0.041856788 -0.14724512 0.13360564
000060 c4 76 c6 3d 10 ee ba bb 0d 95 c2 bd b4 1d da bd
       0.096906215 -0.005704649 -0.095010854 -0.10650197
000070 f6 42 c3 bb ca fa 50 bd d8 12 f7 b9 46 aa f3 bc
       -0.00595891 -0.05102042 -0.0004712555 -0.029744279
000080 00 13 03 3e 38 75 9f 3c f4 6f 03 3d f2 fb 98 3d
       0.12800217 0.019465074 0.03208919 0.0746993
000090 db 79 e2 3d 95 0b c9 3d 2e 4a 13 3d bb b6 ad bd
       0.11058398 0.09816662 0.035959415 -0.08482119
0000a0 d0 50 d3 3d e4 55 0c be be 58 ff bd 12 4a 05 3d
       0.10318148 -0.1370464 -0.12468098 0.032541342
0000b0 f3 82 01 be 96 e5 37 3d 93 cc 9e 3d 5b 69 04 be
       -0.1264761 0.044896685 0.07753863 -0.12930815
0000c0 a7 5b c0 bd 4a 6c c7 3d 41 2b 56 bd 5b 96 22 be
       -0.09392481 0.097374514 -0.052287344 -0.15877669
0000d0 ba 79 14 be 82 54 55 bd 7f 0d e0 3c d3 c0 26 3d
       -0.1449956 -0.052082546 0.027350185 0.040711235
0000e0 1d 1b cb bb d4 a1 c6 bd 99 08 ac 3d 35 f9 86 3d
       -0.0061983005 -0.09698835 0.084000774 0.06590501
0000f0 ac 67 1d be 77 7d 1f 3b 07 30 ef bd 62 3d ed 3d
       -0.15371579 0.0024336257 -0.11679082 0.115839735
000100 7a 40 7e bd d8 18 64 bd 7c 70 13 be 71 b0 11 be
       -0.06207321 -0.055687755 -0.14398378 -0.14227463
000110 95 f0 10 be 1e 6e ec 3c 5e 9a 6e 3c 5e 01 49 3d
       -0.14154275 0.028861102 0.014563171 0.04907357
000120 4e ff 0d 3e e6 b7 11 3d 24 7f 9d bd 6a b6 17 be
       0.13866922 0.03557577 -0.07690266 -0.14815679
000130 24 b3 20 be 5b 79 09 3d 4d 61 db bd af 73 94 bd
       -0.15693337 0.033563 -0.10711918 -0.072486274
000140 5a dd de bd cf c6 b6 3d 1e a7 23 be f8 87 1a be
       -0.10882063 0.089246385 -0.15981719 -0.1509093
000150 a7 d7 2e bd a3 20 f2 3b ff d9 5b bd 90 46 05 be
       -0.04268613 0.0073891445 -0.053674694 -0.13015199
000160 7d 93 56 3d ea 5c f0 3d 96 d6 28 3e 5d 69 b6 bd
       0.05238675 0.11736472 0.16488108 -0.08906815
000170 8a 59 17 be 8c 9e 84 3b 7d bf 01 be 48 0c 04 bd
       -0.1478025 0.0040472206 -0.12670703 -0.032238275
000180 4c 62 06 bd 91 41 1a be d9 61 26 3e 9c 36 cc bd
       -0.032808587 -0.15064074 0.16248263 -0.099713534
000190 40 13 91 3d 14 72 07 3e f4 c3 be bb de 87 f6 3b
       0.0708375 0.13227111 -0.0058216993 0.007523521
0001a0 ba 20 3e bd b5 e4 0c bd 0d 3e 16 be dd 61 ed bd
       -0.04641793 -0.0343978 -0.14672108 -0.115909316
0001b0 55 d4 2c 3d 9a da 08 3e e2 11 be bd 1a 28 b4 3d
       0.042194683 0.1336464 -0.092807546 0.08796711
0001c0 7e ab f8 3c 2c c2 0e be c7 63 a2 3d 24 96 a6 bd
       0.030355211 -0.13941258 0.07929187 -0.08134106
0001d0 fe 17 49 bd 8f 8d 08 3e 18 fd 8e 3d d1 98 25 be
       -0.049095146 0.1333525 0.069818676 -0.16171576
0001e0 a5 e6 01 3e 86 a8 aa 3d 9e 38 6a bc ef b5 29 be
       0.1268564 0.083329245 -0.014295725 -0.16573308
0001f0 e0 b9 93 3d 21 19 aa bc 5e d4 09 be f6 43 0d 3e
       0.07213187 -0.020763936 -0.13459918 0.13795456
000200 d5 27 e8 3c 83 d1 f8 3d e4 45 f2 bd 56 c0 42 bd
       0.028339306 0.12149336 -0.11829737 -0.047546707
000210 11 d7 2a be db ad 07 3e e3 92 cb bd 88 24 14 3e
       -0.16683604 0.13249914 -0.09940126 0.1446706
000220 5b f5 f9 3d 52 16 f8 bc 76 c7 fa bd 40 7a 1f 3e
       0.12205001 -0.03028408 -0.122450754 0.15573978
000230 34 be 10 3e 23 81 25 3e 2b f2 a5 bd 9d 0b 03 be
       0.14135057 0.16162543 -0.081028305 -0.12797399
000240 ad 0c 59 3c 0d 66 e9 bd 25 77 e1 3d fe 00 e2 3d
       0.013247651 -0.11396418 0.11009053 0.110353455
000250 ec 42 ce bd 36 88 df b9 4d 70 a2 3c 69 d3 9b bd
       -0.10071358 -0.0004263536 0.01982894 -0.07608683
000260 f5 ca 2c 3d 3b 67 22 3e 7d 07 0f be 61 b4 bc 3c
       0.042185742 0.15859692 -0.139677 0.02303523
000270 5d 02 e4 3d 5d 74 e7 3d 96 e3 26 be 9b f0 fa 3b
       0.11133263 0.113014914 -0.16297755 0.007658077
000280 0a 13 53 3d 56 21 1f 3e 36 f5 a0 3b a2 9d fc bd
       0.05153183 0.1554006 0.004912044 -0.123347536
000290 1a 2a fb bc a4 fd fc bd 92 b3 a4 bd 63 3a 0e 3e
       -0.030659724 -0.123530656 -0.08042063 0.1388946
0002a0 43 7a 1b 3d 4d 69 3b 39 47 81 f9 bd 40 de fd 3d
       0.037958395 0.00017872937 -0.12182861 0.123959064
0002b0 2e 98 ad 3d 66 6b 01 3e eb 96 c4 bd 13 8d 9c bd
       0.084762916 0.12638626 -0.09599098 -0.07644095
0002c0 4b e0 91 3c 37 00 f7 3d 8f a3 22 be cc d6 c2 bd
       0.017807147 0.12060588 -0.15882705 -0.095136255
0002d0 44 37 ff bd 02 9a a1 bd a7 72 30 bd 64 74 06 3b
       -0.12461713 -0.07890703 -0.04307809 0.0020516152
0002e0 7f 9d 29 3a 26 cc a6 bd e9 4d 87 bd f4 dc a7 3c
       0.0006470307 -0.08144407 -0.06606657 0.0204911
0002f0 d5 3f 0e be 55 21 c1 bd c9 09 a5 bd e8 d8 5a bd
       -0.13891537 -0.09430186 -0.08058507 -0.053429514
000300 f2 01 ae bd 41 84 97 bd c8 5e c8 3c 40 6b 42 3d
       -0.08496465 -0.07398272 0.024459258 0.047465563
000310 1d 56 98 3d d4 7a 4e bc 8e 0b ed bd 9d 36 15 3e
       0.074383 -0.012602527 -0.115744695 0.14571615
000320 85 cf 91 bd 49 8b 28 be 9e a1 6a bd 90 c8 dc bd
       -0.07119659 -0.16459383 -0.057283036 -0.10780442
000330 4b 9a ed 3d 22 6f 69 bd 2c 91 03 be 92 fd a8 bd
       0.11601695 -0.05699075 -0.12848347 -0.0825149
000340 d6 15 45 3d 03 23 ac 3d 08 0c 75 bd e2 b1 b0 bc
       0.048116527 0.084051155 -0.059825927 -0.021569196
000350 49 cc 95 3c a9 59 07 3e 3c 06 03 3c 84 bc af bc
       0.018285887 0.13217796 0.007997092 -0.021452196
000360 91 a5 c4 3c 4e 3f 97 bd f3 97 94 3d c5 01 65 bd
       0.02400473 -0.07385121 0.072555445 -0.05590989
000370 2b c9 83 bd 2c d8 13 3d 82 b1 35 3c 78 3a 7c 3d
       -0.06434854 0.03609483 0.011089684 0.061579198
000380 b2 f8 d5 bd 69 20 a4 3d 08 82 fd bc 90 ed 9d bd
       -0.104478255 0.08013994 -0.030945793 -0.07711327
000390 f7 31 3f 3c 08 aa b7 bd bb 75 13 3e b4 02 ef 3d
       0.011669627 -0.08967978 0.1440038 0.116704375
0003a0 1f 77 77 3d b9 15 f9 3d 68 3a 25 3e 9d 1f ca 3b
       0.060416337 0.121623464 0.16135561 0.0061683194
0003b0 7d 52 02 3e c2 95 23 be d4 11 30 bc 25 f7 df bd
       0.1272678 -0.15975097 -0.010746438 -0.10935811
0003c0 e7 fb 72 3d 96 7a dc 3c 8c d5 01 be 5c 88 18 be
       0.059322264 0.026913922 -0.12679118 -0.14895767
0003d0 5c 04 f3 3d 3c fb 18 bc e1 6e 07 be 12 f3 f3 3d
       0.11866066 -0.009337243 -0.1322589 0.11911596
0003e0 85 c1 9c bd d4 78 fd bd ff d7 95 3d 3c 43 2a be
       -0.076540984 -0.12376562 0.073165886 -0.1662721
0003f0 b5 70 35 3c 0f e0 e2 3c 3d 90 96 bd 1a 28 b8 3c
       0.011074235 0.02769473 -0.0735173 0.02248006

fc_1.bias f4 [107]
000000 0a d7 23 3c 0a d7 23 3c 0a d7 23 3c 0a d7 23 3c
       0.01 0.01 0.01 0.01
000010 0a d7 23 3c 0a d7 23 3c 0a d7 23 3c 0a d7 23 3c
       0.01 0.01 0.01 0.01
000020 0a d7 23 3c 0a d7 23 3c 0a d7 23 3c 0a d7 23 3c
       0.01 0.01 0.01 0.01
000030 0a d7 23 3c 0a d7 23 3c 0a d7 23 3c 0a d7 23 3c
       0.01 0.01 0.01 0.01
000040 0a d7 23 3c 0a d7 23 3c 0a d7 23 3c 0a d7 23 3c
       0.01 0.01 0.01 0.01
000050 0a d7 23 3c 0a d7 23 3c 0a d7 23 3c 0a d7 23 3c
       0.01 0.01 0.01 0.01
000060 0a d7 23 3c 0a d7 23 3c 0a d7 23 3c 0a d7 23 3c
       0.01 0.01 0.01 0.01
000070 0a d7 23 3c 0a d7 23 3c 0a d7 23 3c 0a d7 23 3c
       0.01 0.01 0.01 0.01
000080 0a d7 23 3c 0a d7 23 3c 0a d7 23 3c 0a d7 23 3c
       0.01 0.01 0.01 0.01
000090 0a d7 23 3c 0a d7 23 3c 0a d7 23 3c 0a d7 23 3c
       0.01 0.01 0.01 0.01
0000a0 0a d7 23 3c 0a d7 23 3c 0a d7 23 3c 0a d7 23 3c
       0.01 0.01 0.01 0.01
0000b0 0a d7 23 3c 0a d7 23 3c 0a d7 23 3c 0a d7 23 3c
       0.01 0.01 0.01 0.01
0000c0 0a d7 23 3c 0a d7 23 3c 0a d7 23 3c 0a d7 23 3c
       0.01 0.01 0.01 0.01
0000d0 0a d7 23 3c 0a d7 23 3c 0a d7 23 3c 0a d7 23 3c
       0.01 0.01 0.01 0.01
0000e0 0a d7 23 3c 0a d7 23 3c 0a d7 23 3c 0a d7 23 3c
       0.01 0.01 0.01 0.01
0000f0 0a d7 23 3c 0a d7 23 3c 0a d7 23 3c 0a d7 23 3c
       0.01 0.01 0.01 0.01
000100 0a d7 23 3c 0a d7 23 3c 0a d7 23 3c 0a d7 23 3c
       0.01 0.01 0.01 0.01
000110 0a d7 23 3c 0a d7 23 3c 0a d7 23 3c 0a d7 23 3c
       0.01 0.01 0.01 0.01
000120 0a d7 23 3c 0a d7 23 3c 0a d7 23 3c 0a d7 23 3c
       0.01 0.01 0.01 0.01
000130 0a d7 23 3c 0a d7 23 3c 0a d7 23 3c 0a d7 23 3c
       0.01 0.01 0.01 0.01
000140 0a d7 23 3c 0a d7 23 3c 0a d7 23 3c 0a d7 23 3c
       0.01 0.01 0.01 0.01
000150 0a d7 23 3c 0a d7 23 3c 0a d7 23 3c 0a d7 23 3c
       0.01 0.01 0.01 0.01
000160 0a d7 23 3c 0a d7 23 3c 0a d7 23 3c 0a d7 23 3c
       0.01 0.01 0.01 0.01
000170 0a d7 23 3c 0a d7 23 3c 0a d7 23 3c 0a d7 23 3c
       0.01 0.01 0.01 0.01
000180 0a d7 23 3c 0a d7 23 3c 0a d7 23 3c 0a d7 23 3c
       0.01 0.01 0.01 0.01
000190 0a d7 23 3c 0a d7 23 3c 0a d7 23 3c 0a d7 23 3c
       0.01 0.01 0.01 0.01
0001a0 0a d7 23 3c 0a d7 23 3c 0a d7 23 3c
       0.01 0.01 0.01

fc_2.weight f4 [2, 107]
000000 4d f8 32 3f 01 10 8c 3d 95 6b c9 be 79 95 67 be
       0.69910127 0.0683899 -0.3933989 -0.22615613
000010 00 4a 01 bd 5c 70 b0 3d b4 45 5a bd 00 03 2e bd
       -0.031564713 0.08615181 -0.05328913 -0.04248333
000020 b4 a2 ce be fb cb b8 be 1a a9 61 3e 67 f9 f9 3d
       -0.40358508 -0.36093125 0.22037163 0.12205773
000030 8a 8c 52 bf 3a 20 96 3e 91 ca b8 be ee 77 3b be
       -0.82245696 0.29321462 -0.36092046 -0.18307468
000040 3d 76 f0 bd 49 9d 87 3e b8 66 3a 3e ea 0d 60 3e
       -0.11741302 0.26487187 0.18203247 0.21880308
000050 50 b0 9e bd fa 9a 79 bd 07 c3 74 3e 4c da b2 3b
       -0.07748473 -0.060938813 0.23902522 0.005458152
000060 f5 33 38 3e a3 e8 3c 3d fe 51 b5 3e ab 12 af bd
       0.1798857 0.046120297 0.35414118 -0.085484825
000070 3d d2 23 3e 72 7e 83 be 94 c1 61 3e 00 8c 80 3d
       0.15998168 -0.25682408 0.220465 0.06276703
000080 c1 81 75 3e e6 8a c0 be 6d 66 c6 be d9 e4 41 3e
       0.23975278 -0.3760597 -0.3875002 0.18934955
000090 6f e0 80 bd 8c 74 80 3d 0f 1b 6a be ab eb fd 3e
       -0.06292807 0.062722296 -0.22861885 0.49593863
0000a0 f7 43 2b be 27 7c 00 bd 0c e7 b6 3c 74 27 b9 be
       -0.16725145 -0.0313684 0.022326969 -0.36162913
0000b0 68 84 b8 3d 41 ba 42 be e7 c0 9b 3d 06 9d e0 3d
       0.090096295 -0.19016363 0.076051526 0.1096745
0000c0 a6 ef 02 3d bd a0 92 bd 4b 09 98 be 4d 6d 4a bd
       0.031966828 -0.07159565 -0.2969459 -0.049420644
0000d0 6e 7a 89 3d 0f 83 f4 3e 55 bb 0d be fc 11 f8 bd
       0.06712805 0.4775624 -0.13840993 -0.12112805
0000e0 54 36 7c be 54 34 ef 3d 6d ed 70 be 8b 4b 75 3b
       -0.246301 0.11679903 -0.23528071 0.003742906
0000f0 8c aa c7 be 04 06 82 be 44 24 6f bc 49 7a 7c 3c
       -0.38997304 -0.25395215 -0.014596049 0.015410014
000100 79 ee 39 bd ed 93 f5 bd 17 fb b0 be 8a 5d 3b bd
       -0.04539344 -0.11991105 -0.34566566 -0.045743503
000110 6d a6 77 3e 19 e5 54 3d 48 e6 cd 3d 5b 61 7f be
       0.2418458 0.051976297 0.10053688 -0.24939482
000120 55 2a 74 3b b6 1c 9d bc b6 74 02 3c cc a4 80 be
       0.0037256677 -0.01917873 0.007962396 -0.2512573
000130 8d 4e 88 be c1 69 dc 3d d1 79 15 3e e6 7e 49 3f
       -0.2662243 0.107623585 0.1459725 0.78709257
000140 dc df ea 3d cd 4e 29 3d b3 d6 47 be db 7b 18 be
       0.11468479 0.041334916 -0.19515495 -0.14890997
000150 5d f4 c7 bd 7e 7c de be 3f 1e f6 3e 38 6a 1d be
       -0.097634055 -0.43454355 0.4806995 -0.1537255
000160 20 66 e9 3c d4 82 e3 3d 89 f5 4a 3e fd 7e a6 3b
       0.02849108 0.11108938 0.19820227 0.005081056
000170 a5 01 61 bd 7d 24 14 3c 09 16 e5 3e 3d f6 ca 3b
       -0.05493321 0.009041903 0.44743374 0.0061939047
000180 01 57 b9 bd 5f 75 00 be a8 2f b3 3e 9f 63 af bd
       -0.09049798 -0.12544774 0.34997296 -0.08563923
000190 0a 4b 3d 3e 79 dd 3f 3e 22 7c df be 96 dc 6c bc
       0.18485656 0.18736829 -0.43649393 -0.014456889
0001a0 7a eb 41 bf 81 05 91 be 10 41 8d 3e b6 d3 7c bf
       -0.75749934 -0.28324512 0.275887 -0.98760545
0001b0 f9 49 8f bd 37 0c e9 3b 92 7b 9a 3e 4f 0e 4d be
       -0.06996531 0.007112052 0.30172402 -0.2002499
0001c0 f4 ed c3 be 8b ed 3a bd 3a 4a ea 3d ac 42 7f 3e
       -0.3826748 -0.045636695 0.11439939 0.24927777
0001d0 ab 76 bf bc 00 c2 29 3d 8f 96 5a 3d 0e f2 50 3f
       -0.023372015 0.04144478 0.05336624 0.81619346
0001e0 2c 12 88 be c5 84 98 bd c4 11 0e 3f 5b f3 8a be
       -0.26576364 -0.07447199 0.5549586 -0.2713879
0001f0 89 78 a1 be 36 4a d4 bd a7 c5 63 be bd 08 89 bd
       -0.31537274 -0.10365717 -0.22243367 -0.0669112
000200 a7 1b 12 3d cf d3 15 be 44 71 12 bd ee 69 f5 3c
       0.035670903 -0.1463158 -0.03575255 0.029957738
000210 03 26 98 3d 51 62 b0 be 53 39 c4 3d 27 fc f1 ba
       0.07429125 -0.3445001 0.09581246 -0.0018461988
000220 46 20 9c 3c 08 fc 8e be 9d 1d 19 be 55 09 3b be
       0.019058358 -0.2792666 -0.14952703 -0.18265279
000230 fd 0a 3b bd e2 bf d7 3e 3d 06 25 be 49 44 83 be
       -0.045664776 0.42138582 -0.16115661 -0.25638035
000240 d8 c0 cc be 50 6d 9b 3e df 5d a9 be fa 9a e4 3d
       -0.39990878 0.30356836 -0.3307943 0.11162372
000250 08 b3 73 3e 51 cd 98 bd 08 5d 9d 3e 05 4c 11 3e
       0.23798764 -0.07461036 0.3073504 0.14189155
000260 ef 79 35 3e f8 4b 46 be 5c d7 6f bd 7c 1f 1d 3e
       0.17722295 -0.19364917 -0.058554992 0.15344042
000270 fc 5a 3b 3d 2e 3c 58 ba 47 a2 02 bb 49 eb c8 3c
       0.045741066 -0.00082487136 -0.001993315 0.024526255
000280 d1 ab 97 be 82 c7 93 be 7e a0 17 bc e6 68 43 3e
       -0.29623273 -0.2886315 -0.009254573 0.19082984
000290 a8 0a a0 be e7 99 4b 3e 58 96 8b 3e a0 2d 87 3e
       -0.3125813 0.19882928 0.2726314 0.26401997
0002a0 45 55 04 bd 9d f9 ea bd 6f 99 89 3e 88 2a 05 3e
       -0.03230788 -0.11473391 0.26874873 0.13004506
0002b0 1a f4 e3 3e 78 2b b1 3d 1f 0c 03 be 62 91 ab be
       0.44522172 0.08650869 -0.12797593 -0.33509356
0002c0 66 4e fc bd bd c3 08 be 90 10 2d 3d ca 71 f9 3c
       -0.12319641 -0.13355918 0.042252123 0.030449767
0002d0 94 ee 0c be 2b b7 e9 3d e4 f2 e7 3e b4 43 33 3e
       -0.13762885 0.1141189 0.45302498 0.17506295
0002e0 50 a4 4c be 07 f3 ea 3d 05 52 04 bf da 3c cc bd
       -0.19984555 0.11472135 -0.5168765 -0.09972544
0002f0 97 f4 86 be 75 10 90 3e 8a 5e ad 3e 26 ad 90 3e
       -0.26358482 0.28137556 0.3386119 0.28257102
000300 15 53 06 3e a9 d3 9f be 8a 8a 46 be 0b 79 1a 3e
       0.13117631 -0.3121617 -0.19388786 0.15085237
000310 f3 dd 4b 3e 4f dc 91 bc 8b 02 6f be 00 0a a5 3b
       0.19908886 -0.017805247 -0.23340814 0.0050365925
000320 f0 9b cc 3d 93 a0 b8 bd 93 41 e3 ba a9 4a b1 3e
       0.0999068 -0.09015002 -0.0017338268 0.34627274
000330 9b 6c 4e 3e 47 8c 71 bc 02 fb 64 3e 5f e6 99 be
       0.20158617 -0.014742917 0.22361377 -0.30058572
000340 0d e0 20 be 9b 5f f6 3d ab d8 d7 bd 16 38 51 3f
       -0.15710469 0.12029954 -0.10539373 0.81726205
000350 ee 77 0d 3d f2 60 2d bd
       0.034538202 -0.042328782

fc_2.bias f4 [2]
000000 65 32 93 3f 4f a3 90 bf
       1.1499754 -1.1299838
