runs/0014_SkipNN_1_bsz-128_lr-0.001_ep-200-desc-.pth (torch, 49584 bytes, 4 tensors)

fc_1.weight f4 [107, 107]
00000000: 108e b63d 8a01 0dbd b85a 0e3e 7838 60bd
00000010: a982 d83d c7b5 633d a042 cfbd 73a9 dfbb
00000020: bce1 003e b147 43bd b3da 313c c12c bdbd
00000030: 603b a6bd 7dc8 c6bd 4a87 0dbe 4941 923c
00000040: 7860 8e3d 6b12 adbd 48bd 2ebd a2a2 be3c
00000050: 7323 143e a8cb 21be 7686 f1bc 308a 97bd
00000060: 772d 09be c85a 003e 1af7 323c 89a4 b93d
00000070: 50d3 2abe 5b8c 49bd ff31 12be 83d9 033e
00000080: 4455 cdbd 694e 1fbe 68d4 6dbc 37da bf3d
00000090: cb89 9abc a49e 7a3d 9f38 a7bd 35a5 ebbd
000000a0: b7f2 2cbd 98a5 18be 7505 953d 7fbb 8f3d
000000b0: 887a 403d f34b d33d dc0f adbc a0a4 823d
000000c0: acc0 49bd 48cc 6b3d 157d 50bd bc51 e53d
000000d0: 44e6 4c3d 47d1 dd3d 9566 02be 16fa 043e
000000e0: 31b5 99bd 4dd2 09be f218 853c 6a57 8a3d
000000f0: e9db db3d 0149 b93d a757 003d 8034 20be
00000100: f5a8 b03d 868d a93d 3d7f 8f3d 05ea 343d
00000110: 9d3d 2c3d 6c61 0fbe 7208 d1bc a071 d83b
00000120: ceb1 e43c af4a 00be 35b1 11be 84a8 b1bd
00000130: 49d1 253e 844b 873c 1c7f 8a3c 3f1f 23be
00000140: 63ab c83d 5166 7b3b b948 1a3e ae05 ca3d
00000150: c6a7 f5bd 5f32 10be 9800 993b 0943 19be
00000160: 09b3 03be 25c6 2e3d d0ba e4bd f4c6 4bbc
00000170: bd2a 83bc e6e9 bb3d b7a6 13bd 87bb fe3d
00000180: 7614 183e adbd e2bd cb58 f5bb 9ba2 f33d
00000190: dc3b cebd f470 293d 963b 15be c1b7 14be
000001a0: f3fa 593b 2b68 31bd 6fe3 1d3e c097 153d
000001b0: 648b 923d cf9a cbbd 863f 9ebd 6bf0 143e
000001c0: 8421 103e f9f8 a3bd 40ad 90bd 7518 bebd
000001d0: 74d6 e9bb 72de e23d 98cd da3d 5f45 793c
000001e0: 060d 0cbe 5f31 b3bd 59aa afba 06f7 16be
000001f0: bde4 e5bd 1d2f a33d 809c aa3d ecc3 18be
00000200: e886 9c3c d9b5 0cbe 8779 15be 6f79 073e
00000210: d53f 0ebe 1b58 cbbc 580d 24bd d7b2 0bbe
00000220: 5c9c fbbc d97d 18be 4701 cd3d cd72 04bc
00000230: 6e09 273e a545 e6bd 9ad5 743d 2fd5 1cbe
00000240: 6b87 09bc afaf d93d f725 34bc 938c c2bc
00000250: 279c 0fbe f882 f33d dff4 f6bb 6c85 a33c
00000260: 3245 10be 26d8 373d 4885 b23d 1ba8 f03d
00000270: 6079 1bbe 3670 83bd 4601 f8bd b6d2 053e
00000280: 9fe5 1fbe b869 1fbd 88d4 123e 89d1 e73d
00000290: 0784 86bc ad70 b43d 0218 2abe bbae 8d3c
000002a0: 0947 4cbd b726 563d bfdf 013e b4ff f2bd
000002b0: a1e6 45bd f986 92bd 5f15 243e 527a 6bbc
000002c0: bbed a6bd 9ea9 853d 84f5 6c3d 6805 77bc
000002d0: 86f6 06be d769 5ebc e5bf 133e 3032 b4bc
000002e0: fbf1 3d3b af0d 5fbc bf2b b93d 6715 273c
000002f0: 8adf 0bbc c2db 1f3d 9727 8bbd 0d8c 00be
00000300: 2a6f 0c3e 7509 73bd 19a0 cf3d b3be 683d
00000310: 7b65 ff3d d937 c43c 6e97 1dbd 7b4b 08be
00000320: 00b2 9a3d b74d 663d b530 293e 9ad7 33bc
00000330: 86aa fbbd 1716 283e d2c3 2abe 6571 943d
00000340: 8afb df3d 031a 18bd c13b 623c 130d 0ebd
00000350: 0747 233d 16de 1abe f527 103e 0711 193e
00000360: 6577 1dbc 4cc1 433c bff7 d93d 64f4 90bd
00000370: 5584 7c3d bfe6 153e c007 c43c 5c1d b4bd
00000380: ee7f b5bd 9d05 afbd 5dc3 1d3e fd4b 0abe
00000390: 30dd f63d 8cb0 05be 8879 e3bd 533d b8bc
000003a0: 5e22 853c 61fd aa3c 338f a63b cac5 b4bd
000003b0: b3ce 1bbe da69 213e 64ba db3d d105 1e3e
000003c0: bdd0 053e 1dc8 0ebe ccda 0e3e 25cd d7bd
000003d0: e1f9 7dbd d3e8 07be 28dd 2cbd a026 483d
000003e0: ad8f 783d 6a7f a4bd a228 aebd c6e6 13bd
000003f0: 98d3 2abe 0bc3 fcbd 1e6c a13d 8404 12bd
0.08913815 -0.034425296 0.13901794 -0.054741353 0.105717964 0.05559328 -0.101201296 -0.00682562
0.12586111 -0.047675792 0.010855365 -0.09237052 -0.08116794 -0.09706209 -0.1382114 0.017853396
0.06951994 -0.084507786 -0.04266098 0.023270909 0.14466648 -0.15800345 -0.029483061 -0.07399404
-0.1339625 0.1253463 0.010923171 0.09064586 -0.16682172 -0.04920612 -0.14276884 0.12875943
-0.10026029 -0.15557255 -0.014515974 0.09367793 -0.018864533 0.061186448 -0.081650965 -0.1150612
-0.04222366 -0.14906919 0.072764315 0.07018184 0.046991855 0.103172205 -0.021125726 0.06379056
-0.04925601 0.057567865 -0.050900538 0.1119723 0.050024286 0.10830932 -0.12734444 0.12986025
-0.07505263 -0.1345913 0.016247246 0.06754954 0.10735304 0.090471275 0.03133359 -0.15645027
0.08625976 0.082789466 0.07006691 0.04416849 0.042050947 -0.14002007 -0.025516722 0.006605342
0.027916815 -0.1252849 -0.14227755 -0.0867472 0.16193117 0.0165155 0.016906314 -0.15929888
0.097983144 0.0038360546 0.15066804 0.098643646 -0.11994891 -0.14081715 0.0046692602 -0.14966978
-0.12861265 0.042669434 -0.11168444 -0.012437571 -0.01601159 0.09175472 -0.036047664 0.12438112
0.14851555 -0.11071334 -0.0074873916 0.11896249 -0.10070011 0.041367486 -0.14573511 -0.14523222
0.003326115 -0.043312233 0.1541879 0.036521673 0.07155493 -0.09941637 -0.0772696 0.14544837
0.14075285 -0.08006472 -0.07064295 -0.092820086 -0.0071361605 0.11077584 0.10683745 0.015214293
-0.13676843 -0.08749651 -0.0013402208 -0.1474267 -0.11225269 0.079679705 0.08330631 -0.14918488
0.019107297 -0.13741244 -0.1459714 0.13229917 -0.13891537 -0.024822285 -0.040051788 -0.1364244
-0.030714206 -0.14891757 0.10010009 -0.008084011 0.16312191 -0.112437524 0.05977402 -0.15315698
-0.008394103 0.10629212 -0.01099538 -0.023748672 -0.14024411 0.11890215 -0.007536515 0.019961081
-0.14088896 0.04488387 0.08716828 0.117508136 -0.1518302 -0.06417887 -0.12109618 0.13068661
-0.15614937 -0.03891918 0.14338887 0.113192625 -0.016420377 0.08810554 -0.16610721 0.017295232
-0.049872432 0.052283015 0.12683009 -0.11865178 -0.048315648 -0.0715465 0.16023777 -0.014372425
-0.08150812 0.065264925 0.05785133 -0.015076973 -0.13179979 -0.013575039 0.1442867 -0.021996588
0.0028983343 -0.013614102 0.09041547 0.010197974 -0.008537183 0.039027937 -0.067946605 -0.12553425
0.1371428 -0.05933519 0.10137958 0.05682249 0.12470528 0.023952411 -0.038474493 -0.13310044
0.07553482 0.05622646 0.16522487 -0.010976696 -0.12288384 0.16414677 -0.16676262 0.07248191
0.10936649 -0.03713418 0.013808192 -0.034680437 0.03986266 -0.15123782 0.14077742 0.14947902
-0.009610985 0.011947941 0.10642957 -0.07077864 0.06164964 0.14638804 0.023929477 -0.08794662
-0.08862291 -0.085459925 0.15406556 -0.1350555 0.12053907 -0.13055629 -0.111071646 -0.02249018
0.01625174 0.020872774 0.0050829886 -0.08826788 -0.15215568 0.15763035 0.107289106 0.15431906
0.13067909 -0.13943525 0.13950652 -0.10537175 -0.06200588 -0.13272409 -0.0422031 0.04886496
0.060683895 -0.08032115 -0.08503844 -0.036108755 -0.16682279 -0.12341889 0.0788195 -0.035648838

fc_1.bias f4 [107]
00000000: 0ad7 233c 0ad7 233c 0ad7 233c 0ad7 233c
00000010: 0ad7 233c 0ad7 233c 0ad7 233c 0ad7 233c
00000020: 0ad7 233c 0ad7 233c 0ad7 233c 0ad7 233c
00000030: 0ad7 233c 0ad7 233c 0ad7 233c 0ad7 233c
00000040: 0ad7 233c 0ad7 233c 0ad7 233c 0ad7 233c
00000050: 0ad7 233c 0ad7 233c 0ad7 233c 0ad7 233c
00000060: 0ad7 233c 0ad7 233c 0ad7 233c 0ad7 233c
00000070: 0ad7 233c 0ad7 233c 0ad7 233c 0ad7 233c
00000080: 0ad7 233c 0ad7 233c 0ad7 233c 0ad7 233c
00000090: 0ad7 233c 0ad7 233c 0ad7 233c 0ad7 233c
000000a0: 0ad7 233c 0ad7 233c 0ad7 233c 0ad7 233c
000000b0: 0ad7 233c 0ad7 233c 0ad7 233c 0ad7 233c
000000c0: 0ad7 233c 0ad7 233c 0ad7 233c 0ad7 233c
000000d0: 0ad7 233c 0ad7 233c 0ad7 233c 0ad7 233c
000000e0: 0ad7 233c 0ad7 233c 0ad7 233c 0ad7 233c
000000f0: 0ad7 233c 0ad7 233c 0ad7 233c 0ad7 233c
00000100: 0ad7 233c 0ad7 233c 0ad7 233c 0ad7 233c
00000110: 0ad7 233c 0ad7 233c 0ad7 233c 0ad7 233c
00000120: 0ad7 233c 0ad7 233c 0ad7 233c 0ad7 233c
00000130: 0ad7 233c 0ad7 233c 0ad7 233c 0ad7 233c
00000140: 0ad7 233c 0ad7 233c 0ad7 233c 0ad7 233c
00000150: 0ad7 233c 0ad7 233c 0ad7 233c 0ad7 233c
00000160: 0ad7 233c 0ad7 233c 0ad7 233c 0ad7 233c
00000170: 0ad7 233c 0ad7 233c 0ad7 233c 0ad7 233c
00000180: 0ad7 233c 0ad7 233c 0ad7 233c 0ad7 233c
00000190: 0ad7 233c 0ad7 233c 0ad7 233c 0ad7 233c
000001a0: 0ad7 233c 0ad7 233c 0ad7 233c
0.01 0.01 0.01 0.01 0.01 0.01 0.01 0.01
0.01 0.01 0.01 0.01 0.01 0.01 0.01 0.01
0.01 0.01 0.01 0.01 0.01 0.01 0.01 0.01
0.01 0.01 0.01 0.01 0.01 0.01 0.01 0.01
0.01 0.01 0.01 0.01 0.01 0.01 0.01 0.01
0.01 0.01 0.01 0.01 0.01 0.01 0.01 0.01
0.01 0.01 0.01 0.01 0.01 0.01 0.01 0.01
0.01 0.01 0.01 0.01 0.01 0.01 0.01 0.01
0.01 0.01 0.01 0.01 0.01 0.01 0.01 0.01
0.01 0.01 0.01 0.01 0.01 0.01 0.01 0.01
0.01 0.01 0.01 0.01 0.01 0.01 0.01 0.01
0.01 0.01 0.01 0.01 0.01 0.01 0.01 0.01
0.01 0.01 0.01 0.01 0.01 0.01 0.01 0.01
0.01 0.01 0.01

fc_2.weight f4 [2, 107]
00000000: 3c11 37bd b4f8 b3bd b255 0f3d 3867 20bf
00000010: fb75 9f3c 7861 d2bd 5682 fdbc 794e 143e
00000020: f509 0b3e 49f3 e23d d04b 723e e865 7e3e
00000030: d134 183e 7c39 603d 0d73 b3bc 40ae 443e
00000040: ac5b 5d3d b346 693d afb2 903d 50c4 373e
00000050: ebe9 6e3d 85a6 6ebb bda3 5b3d 8438 343d
00000060: cc6e 123e bbcb 85bd 2567 613e b905 39bc
00000070: 7ce6 2c3e 0c0f 8e3c c1b3 5c3e 740b 433e
00000080: 4491 913c 5f2e aebd dd17 063d 6bfc b43e
00000090: 9351 db3d 9283 323e 170c 2a3e e45a 683e
000000a0: 0124 59be 0f60 1b3e fd4e d83c b7f9 623e
000000b0: cc35 b33d 0df9 873d 5035 b73d e98e 183e
000000c0: 29e1 e7bc 79f4 8dbc 8038 093d 7b49 f63d
000000d0: 4f4a 7ebd 77f0 053d cc82 7fbd 4169 5e3d
000000e0: f77f 733e 3ecf 45be 0ce8 f4bd f5e5 37bc
000000f0: 656d e2bd 351d a43c db33 aebb 0327 ce3c
00000100: 70e1 813e 5548 b13d 4dcd d13d e3af f53d
00000110: b6b9 c83d 9b7b 383e b811 003e 088a 30bd
00000120: 4f8b b13d 10a8 c2bd 4842 db3d 3a18 6a3d
00000130: 13f1 973c 2ebb afbd d0e3 8ebd 414e 313d
00000140: 8b7b c7bd c0d6 dabc 8265 d73d 44c8 47be
00000150: 4057 c0bd c076 d03d b348 c23d 3796 05be
00000160: 0b4f ce3d 62bd 273d 25cb 21be 1a7c b83d
00000170: a5fe 47bd 7dcc e5bd de53 83bb ec0e 053d
00000180: d6a7 33bc 8870 903d cb89 91bd 91b0 d33c
00000190: be84 bcbd 5f3f 0d3c 10bf 0a3e bb05 343e
000001a0: e4b0 903d 564f f83c bd8b 47bd 7c12 c83d
000001b0: f2f3 34bd 5c86 e13b 06a6 303f fee7 163e
000001c0: eefd a93d 3c04 f53c 48d9 913d ebdc 82bd
000001d0: 69f1 d93c d18f 7bbe 6d00 0e3e 045b d4bd
000001e0: a674 cebd 3df4 33be 1124 1c3d 5d25 d7bd
000001f0: 73e5 a5bc 5e66 cdbc b7da 963d 1a09 c6bd
00000200: 6383 04be c135 083d 22b0 a33b 79e4 4f3e
00000210: a91f 293c cad2 95bc d565 ab3d b9bc 7ebe
00000220: 1c62 c93d 5a54 ad3d 9f26 07be 7804 0a3d
00000230: 91d4 113d 0b1e 8bbd c78c a0be 47a6 99bd
00000240: ac9f 173d 7952 82be 4771 c23d f8eb 6bbe
00000250: 37ac bb3c be8e cb3c 6971 9a3d f778 86bd
00000260: 8a14 a1bd 7645 1cbe 536d 14bd 497b a8bd
00000270: a0c1 07bd 8b25 5abd dd9d dc3d abfd 27be
00000280: b347 53bd 8b8a 153c 9e93 9dba 11c9 a73c
00000290: 3d47 37be b795 4abb a9e8 00bd 61e0 fbbd
000002a0: d261 3dbd e965 08bd a932 a2bd 5422 f4bd
000002b0: cbf7 b3bd b5aa 923d 56f0 073e c94e c23d
000002c0: 6245 1b3e dc95 853d 1329 40bd abfc 0a3d
000002d0: bb9e dcbd c064 943d 55ab 263d bcf7 953c
000002e0: 63ff a3bd 8ecd 99bd 180f af3c 3902 d5bd
000002f0: 73cd 1abd 801f ed3d 2096 4fbe a523 dfbd
00000300: 2f50 c33d 28d0 b83d 5a80 0abe fbd2 b53d
00000310: d507 393d 221e 2fbe 88b6 ad3c 5166 9bbd
00000320: 4dff 7dbe 4fcd 00bd 3efd 0a3d 6884 70bc
00000330: 1503 853d 0e9b c5bd af0d 6d3c 9212 10be
00000340: 49ca 903b 0f50 fa3d 9fa6 253e da11 3fbc
00000350: 2f4d 4ebc 8513 44bd
-0.04469417 -0.08787671 0.034993835 -0.626575 0.019465437 -0.10272497 -0.030945938 0.1448306
0.13578017 0.11081559 0.23661733 0.24843562 0.14863898 0.05474232 -0.021905446 0.19207096
0.054042503 0.05695219 0.07065331 0.17945981 0.05832855 -0.0036415171 0.05362295 0.04399921
0.14300078 -0.06532999 0.22012003 -0.011292868 0.16884798 0.01734116 0.21552946 0.19047338
0.017769463 -0.08504938 0.0327376 0.3534883 0.107089184 0.17433003 0.16606174 0.22690922
-0.2120514 0.15173362 0.026404852 0.22165571 0.08750495 0.066392995 0.089457154 0.14898266
-0.028305607 -0.017328488 0.03350115 0.12025734 -0.062082585 0.03270003 -0.062380597 0.054299597
0.23779283 -0.19317338 -0.11958322 -0.01122426 -0.110560216 0.020033458 -0.0053162402 0.025165087
0.25367308 0.08656374 0.10244236 0.11996438 0.098010466 0.18015902 0.12506759 -0.043100387
0.08669149 -0.09504712 0.107060015 0.05715201 0.01854757 -0.085806236 -0.069770455 0.04328752
-0.09740361 -0.026713729 0.10517408 -0.19509989 -0.093916416 0.101789 0.094865225 -0.13045584
0.1007367 0.040952094 -0.1580015 0.090080455 -0.048826832 -0.11220644 -0.0040078005 0.032484934
-0.010965308 0.07052714 -0.0710636 0.02584103 -0.09205006 0.008621066 0.13549447 0.17580311
0.07064989 0.030311268 -0.04871725 0.097691506 -0.044177957 0.006882472 0.6900333 0.14736935
0.08300386 0.029909246 0.07121521 -0.06389793 0.026604371 -0.2456658 0.1386735 -0.10368922
-0.10080843 -0.17573638 0.038120333 -0.10505173 -0.020251011 -0.025073227 0.07365935 -0.09669705
-0.12940745 0.03325439 0.004995362 0.20301999 0.01032249 -0.018288989 0.08369032 -0.2487668
0.09833166 0.084633544 -0.13198327 0.033695668 0.03560311 -0.067928396 -0.31357405 -0.07502418
0.03701751 -0.25453547 0.09494262 -0.23039234 0.022909267 0.024848338 0.075411625 -0.06566041
-0.07865246 -0.15260872 -0.036237072 -0.0822664 -0.03314364 -0.05325846 0.107722975 -0.1640536
-0.05158205 0.0091272695 -0.0012022143 0.020481618 -0.17898269 -0.003091199 -0.031471882 -0.12298656
-0.046235867 -0.033300314 -0.07919819 -0.1192061 -0.08787497 0.07161466 0.13275275 0.09487683
0.15163186 0.06522724 -0.04691417 0.03393237 -0.10772463 0.07245779 0.04069074 0.018306606
-0.080076955 -0.075099096 0.021369502 -0.104008146 -0.037793588 0.11578274 -0.20272112 -0.108954705
0.09536778 0.09024078 -0.13525525 0.08878132 0.045173485 -0.17101339 0.021205202 -0.07587875
-0.24804421 -0.031445798 0.033932917 -0.014680006 0.064947285 -0.09648715 0.014468594 -0.14069584
0.0044186455 0.12222301 0.16176842 -0.011661971 -0.012591644 -0.047870178

fc_2.bias f4 [2]
00000000: 609f 683e a426 54be
0.22717047 -0.20717865
