runs/0015_SkipNN_1_bsz-1024_lr-0.001_ep-200-desc-.pth (torch, 49592 bytes, 4 tensors)

fc_1.weight f4 [107, 107]
-0.00828356 0.06467764 0.08219188 0.076216705 -0.01962996 0.038049098 0.13159645 -0.12754598
0.05295346 0.12073579 -0.09366414 0.1660351 -0.12220445 -0.14455126 0.0067069028 -0.03218513
-0.068516724 0.08249846 -0.082331695 -0.15722786 -0.07892994 0.043804526 0.13373697 -0.096719444
-0.09374414 -0.13071361 -0.10879976 -0.096031 -0.13596687 0.14834274 0.09904324 0.09271534
0.09658155 -0.07807858 0.14993556 -0.13637535 0.041382037 0.05552094 0.09019544 -0.039295234
0.09227688 -0.075913884 0.15675198 -0.008016084 -0.017181464 0.06812927 -0.15744288 -0.15681857
-0.0087519605 -0.15695769 0.018342176 0.15528297 -0.1099542 0.1224301 -0.057288155 0.0692134
0.08315641 0.16613016 -0.09112376 -0.15252738 0.123716496 -0.05260759 -0.07044011 0.05442695
0.16221206 -0.031357367 0.06608232 -0.01953899 -0.164372 -0.05669437 -0.12091842 -0.16584483
-0.0763988 0.057546288 -0.03196738 -0.0065713287 -0.041480415 0.044351533 -0.13115293 0.13869236
0.01032764 -0.08901896 0.062415116 -0.031770434 -0.020435141 0.039635185 -0.021364987 0.0811717
-0.08639727 -0.12833881 -0.1639255 0.071253635 -0.10249118 -0.01820349 0.008167418 -0.011505
0.101146534 -0.006369934 0.074816465 -0.0287396 0.018698419 -0.16663209 -0.1130657 -0.029425863
0.1275207 0.0032168094 -0.045029484 0.051830184 0.061560795 0.046013195 0.13697064 0.0117874555
0.07279074 -0.05911101 -0.088965215 0.1295985 0.12485423 0.029951522 0.08712197 0.1266512
-0.09003517 0.07094738 0.10739819 -0.0135235805 0.10563671 0.14591976 0.14285593 -0.030942429
0.022338219 -0.12153354 0.044848 0.054336786 -0.087818496 0.030487033 0.0326043 0.09076081
0.11467805 -0.15046526 0.1489045 0.11361482 0.16199508 -0.017077029 0.076068915 0.017267505
-0.16026023 0.10070869 0.10649991 0.10458054 0.09030407 -0.120013416 -0.08647631 0.112679034
-0.15836717 0.13322774 -0.06420709 -0.05216891 0.108605824 0.11166644 -0.01770893 0.101778574
0.11625077 0.08276695 0.09304505 0.044245023 -0.09755333 -0.15841872 0.16459876 0.09214376
-0.09503489 -0.11366269 0.077942 0.16556841 0.0499351 0.054775503 0.1378281 0.12792227
0.037837293 0.14695203 -0.15036753 0.016949948 -0.024512492 0.16347736 -0.13428943 -0.08757478
0.13402967 -0.09307984 -0.14657107 -0.12165298 0.033397663 0.022139488 0.060071755 -0.11856131
-0.018876689 0.0897952 -0.043892186 0.10605004 0.165104 0.060433965 -0.09895122 0.034659788
0.02871419 0.1479526 -0.004123311 -0.14755043 0.0017097259 0.14871232 0.06445262 -0.036449537
-0.06660096 0.08070228 -0.07954145 0.15976568 -0.10700452 -0.04185169 -0.11634922 0.16417198
0.091547504 -0.08214455 0.11632865 -0.12813622 -0.02383575 -0.10623186 0.08060681 0.03902594
0.031593144 -0.110911414 0.0075220037 -0.0014357334 -0.0053004916 -0.09432289 0.032352634 0.13170731
-0.10508871 0.07634337 -0.024990365 -0.034175206 0.032227278 0.110523544 -0.07787045 -0.16187423
-0.04710084 0.16443725 -0.14310585 -0.019502252 -0.013980943 -0.08750402 -0.13183363 0.11084177
-0.052214596 0.16343762 -0.044406258 0.1618779 0.012944367 -0.16564389 -0.11217091 0.112575956
00000000: c5b7 07bc b675 843d 3754 a83d 8117 9c3d
00000010: 03cf a0bc 5fd9 1b3d 38c1 063e 6a9b 02be
00000020: bae5 583d 5344 f73d fcd2 bfbd 1b05 2a3e
00000030: 5446 fabd 3f05 14be 94c5 db3b 8ed4 03bd
00000040: 7f52 8cbd f4f4 a83d 859d a8bd 5700 21be
00000050: 05a6 a1bd 606c 333d 58f2 083e d814 c6bd
00000060: edfc bfbd cad9 05be 69d2 debd e7ab c4bd
00000070: e63a 0bbe 29e7 173e 2fd7 ca3d 8ae1 bd3d
00000080: 8ccc c53d aae7 9fbd b588 193e fba5 0bbe
00000090: 3680 293d ed69 633d 63b8 b83d 0af4 20bd
000000a0: a9fb bc3d bd78 9bbd 9783 203e e555 03bc
000000b0: 24c0 8cbc 5c87 8b3d b538 21be 0c95 20be
000000c0: 6264 0fbc 84b9 20be 5542 963c 8002 1f3e
000000d0: ab2f e1bd a2bc fa3d fca6 6abd c1bf 8d3d
000000e0: e84d aa3d 061e 2a3e 189f babd 2330 1cbe
000000f0: 135f fd3d 0e7b 57bd e842 90bd cbee 5e3d
00000100: eb1a 263e 9570 00bd 2b56 873d 3b10 a0bc
00000110: 2251 28be 5b38 68bd 14a4 f7bd 3ad3 29be
00000120: f976 9cbd a8b5 6b3d 3af0 02bd 4d54 d7bb
00000130: 5ee7 29bd f4a9 353d f44c 06be 5f05 0e3e
00000140: 4335 293c 934f b6bd fea6 7f3d b721 02bd
00000150: 9967 a7bc 8158 223d a005 afbc 593d a63d
00000160: 0df1 b0bd 406b 03be 16dc 27be 6ded 913d
00000170: e5e6 d1bd 7c1f 95bc a2d0 053c 787f 3cbc
00000180: ea25 cf3d e1ba d0bb 6039 993d 4f6f ebbc
00000190: 6d2d 993c 9aa1 2abe fd8e e7bd 820e f1bc
000001a0: c994 023e 1bd1 523b d670 38bd e34b 543d
000001b0: 2c27 7c3d 5578 3c3d 0842 0c3e 2c20 413c
000001c0: 5013 953d 631e 72bd 6533 b6bd 78b5 043e
000001d0: 93b3 ff3d e55c f53c 016d b23d dab0 013e
000001e0: 5c64 b8bd dc4c 913d 95f3 db3d 0292 5dbc
000001f0: 0f58 d83d fd6b 153e d348 123e fa7a fdbc
00000200: a4fe b63c 94e6 f8bd 89b2 373d 4090 5e3d
00000210: 2fda b3bd f1bf f93c 168c 053d cee0 b93d
00000220: 53dc ea3d 9113 1abe 6c7a 183e e3ae e83d
00000230: 0ae2 253e 20e5 8bbc 05ca 9b3d 9574 8d3c
00000240: 421b 24be 5c40 ce3d a01c da3d 522e d63d
00000250: 57f1 b83d 98c9 f5bd 7e1a b1bd 44c4 e63d
00000260: 012b 22be da6c 083e 027f 83bd 11af 55bd
00000270: bb6c de3d 60b1 e43d 5112 91bc 4971 d03d
00000280: e214 ee3d b881 a93d 678e be3d 453a 353d
00000290: 0aca c7bd 8438 22be 948c 283e deb5 bc3d
000002a0: a7a1 c2bd fcc7 e8bd 0ea0 9f3d c48a 293e
000002b0: bf88 4c3d 475c 603d cf22 0d3e 0efe 023e
000002c0: 47fb 1a3d 987a 163e f2f9 19be 9eda 8a3c
000002d0: 6cce c8bc 9c66 273e 2b83 09be 685a b3bd
000002e0: 133f 093e a5a0 bebd ba16 16be 3325 f9bd
000002f0: fdcb 083d df5d b53c cd0d 763d 46d0 f2bd
00000300: 49a3 9abc 8ce6 b73d 4bc8 33bd c330 d93d
00000310: 0611 293e 9b89 773d f0a6 cabd 6cf7 0d3d
00000320: 053a eb3c e380 173e d71c 87bb 7617 17be
00000330: e218 e03a 0b48 183e bcff 833d 1c4c 15bd
00000340: 1666 88bd 3d47 a53d a1e6 a2bd 9d99 233e
00000350: 3025 dbbd ad6c 2bbd 8048 eebd b31c 283e
00000360: 427d bb3d 673b a8bd b73d ee3d 2436 03be
00000370: 3143 c3bc 1790 d9bd 2f15 a53d aad9 1f3d
00000380: d067 013d 8625 e3bd 247b f63b 382f bcba
00000390: bfaf adbb 5c2c c1bd 3284 043d 48de 063e
000003a0: c038 d7bd ea59 9c3d 98b8 ccbc 4dfb 0bbd
000003b0: c000 043d 2b5a e23d 8b7a 9fbd 5cc2 25be
000003c0: cfec 40bd 3d62 283e 578a 12be 30c3 9fbc
000003d0: 5310 65bc 4f35 b3bd 65ff 06be 0301 e33d
000003e0: f9de 55bd 315c 273e 56e3 35bd 52c3 253e
000003f0: 9c14 543c 8d9e 29be ddb9 e5bd 398e e63d

fc_1.bias f4 [107]
0.01 0.01 0.01 0.01 0.01 0.01 0.01 0.01
0.01 0.01 0.01 0.01 0.01 0.01 0.01 0.01
0.01 0.01 0.01 0.01 0.01 0.01 0.01 0.01
0.01 0.01 0.01 0.01 0.01 0.01 0.01 0.01
0.01 0.01 0.01 0.01 0.01 0.01 0.01 0.01
0.01 0.01 0.01 0.01 0.01 0.01 0.01 0.01
0.01 0.01 0.01 0.01 0.01 0.01 0.01 0.01
0.01 0.01 0.01 0.01 0.01 0.01 0.01 0.01
0.01 0.01 0.01 0.01 0.01 0.01 0.01 0.01
0.01 0.01 0.01 0.01 0.01 0.01 0.01 0.01
0.01 0.01 0.01 0.01 0.01 0.01 0.01 0.01
0.01 0.01 0.01 0.01 0.01 0.01 0.01 0.01
0.01 0.01 0.01 0.01 0.01 0.01 0.01 0.01
0.01 0.01 0.01
00000000: 0ad7 233c 0ad7 233c 0ad7 233c 0ad7 233c
00000010: 0ad7 233c 0ad7 233c 0ad7 233c 0ad7 233c
00000020: 0ad7 233c 0ad7 233c 0ad7 233c 0ad7 233c
00000030: 0ad7 233c 0ad7 233c 0ad7 233c 0ad7 233c
00000040: 0ad7 233c 0ad7 233c 0ad7 233c 0ad7 233c
00000050: 0ad7 233c 0ad7 233c 0ad7 233c 0ad7 233c
00000060: 0ad7 233c 0ad7 233c 0ad7 233c 0ad7 233c
00000070: 0ad7 233c 0ad7 233c 0ad7 233c 0ad7 233c
00000080: 0ad7 233c 0ad7 233c 0ad7 233c 0ad7 233c
00000090: 0ad7 233c 0ad7 233c 0ad7 233c 0ad7 233c
000000a0: 0ad7 233c 0ad7 233c 0ad7 233c 0ad7 233c
000000b0: 0ad7 233c 0ad7 233c 0ad7 233c 0ad7 233c
000000c0: 0ad7 233c 0ad7 233c 0ad7 233c 0ad7 233c
000000d0: 0ad7 233c 0ad7 233c 0ad7 233c 0ad7 233c
000000e0: 0ad7 233c 0ad7 233c 0ad7 233c 0ad7 233c
000000f0: 0ad7 233c 0ad7 233c 0ad7 233c 0ad7 233c
00000100: 0ad7 233c 0ad7 233c 0ad7 233c 0ad7 233c
00000110: 0ad7 233c 0ad7 233c 0ad7 233c 0ad7 233c
00000120: 0ad7 233c 0ad7 233c 0ad7 233c 0ad7 233c
00000130: 0ad7 233c 0ad7 233c 0ad7 233c 0ad7 233c
00000140: 0ad7 233c 0ad7 233c 0ad7 233c 0ad7 233c
00000150: 0ad7 233c 0ad7 233c 0ad7 233c 0ad7 233c
00000160: 0ad7 233c 0ad7 233c 0ad7 233c 0ad7 233c
00000170: 0ad7 233c 0ad7 233c 0ad7 233c 0ad7 233c
00000180: 0ad7 233c 0ad7 233c 0ad7 233c 0ad7 233c
00000190: 0ad7 233c 0ad7 233c 0ad7 233c 0ad7 233c
000001a0: 0ad7 233c 0ad7 233c 0ad7 233c

fc_2.weight f4 [2, 107]
-0.05023772 0.100229315 -0.18903348 -0.799531 -0.2368301 -0.069147415 0.062962994 0.16678149
-0.022590207 -0.0634068 0.22123635 -0.123663545 -0.0064849583 0.105198145 -0.054675367 -0.078471676
0.02558819 0.108321756 -0.024157852 0.05731921 0.010265514 0.02580842 -0.04150543 -0.12183462
-0.21795572 -0.12831292 0.042295747 -0.038474433 0.11445612 -0.11823576 -0.10847859 0.12347137
0.08676578 -0.15080996 0.06656704 0.18448068 -0.070048444 -0.03723065 0.3079917 0.116779655
0.05746041 0.15684566 0.05086175 0.17601542 0.15462661 0.1348293 0.0890718 0.05976833
-0.08611812 -0.019467391 -0.03610583 -0.11440236 0.22607426 0.2880958 0.012628078 0.18645331
0.14010674 -0.06837485 -0.18017854 0.055212256 -0.12567176 0.00063988793 0.061807785 0.087056406
0.26782405 0.001067546 0.061802328 -0.084162384 0.089285634 0.049641892 0.14935143 -0.08920909
0.0702117 -0.07712913 0.05628291 0.0062465933 0.0063536176 0.16101342 -0.11519607 0.03396556
0.008313901 -0.120556615 0.0793299 -0.14321731 0.13819057 0.030279368 0.06816681 -0.07326039
0.07197497 0.088195905 0.09459061 0.006857744 0.0957019 -0.11042808 0.2066797 -0.07291237
0.09529575 0.11398754 -0.10529579 0.055581804 -0.13215564 -0.093497865 -0.20069414 0.037254795
0.32029045 -0.07086005 -0.10450007 0.09843676 0.13600063 -0.032539953 0.5138867 -0.10384015
0.10699827 -0.03878119 0.17305855 -0.10179559 -0.12642184 0.061565816 -0.14493187 -0.13963215
0.028215816 -0.14506553 -0.14133425 -0.041650478 0.084406175 -0.060796056 0.021011235 -0.064318515
-0.022607664 -0.033890802 -0.09328865 -0.10293957 -0.057482466 0.014046989 0.056428593 -0.22055905
-0.039368235 -0.07086715 -0.0042570215 0.11423 0.26906326 0.025605012 -0.1768149 -0.14804874
-0.08393203 0.122005425 -0.08727341 0.03919564 -0.043764595 -0.020871684 -0.012296991 -0.041612823
-0.04935527 -0.23704115 -0.12775864 -0.21386191 -0.06413468 -0.19565728 -0.16540153 0.078449056
-0.1091092 -0.2109354 0.02780599 -0.2957209 -0.23330927 -0.17868528 -0.03649512 -0.23390235
-0.22101091 -0.0145133305 -0.2972229 -0.2014362 -0.28322744 -0.05591127 -0.08731904 0.054064117
-0.0057429243 0.07537183 -0.11794805 -0.009043086 -0.102475695 -0.0023982443 -0.025109624 -0.00876313
0.12700315 -0.15191673 -0.00977883 -0.022476586 -0.1498804 0.057808507 -0.16310954 0.08481801
0.0019091908 0.05412097 -0.09235241 0.03094112 0.06548265 0.07076491 -0.14303215 0.057980336
-0.21826866 0.17385307 -0.11736236 0.06324609 0.08822128 -0.15998966 0.0396681 -0.19680203
-0.12518717 -0.22753254 0.0119539 -0.056461208 -0.13203052 -0.116602086
00000000: 11c6 4dbd 0745 cd3d fe91 41be 10ae 4cbf
00000010: 9783 72be 299d 8dbd bef2 803d c4c8 2a3e
00000020: 190f b9bc 6ddb 81bd c88b 623e 5043 fdbd
00000030: c67f d4bb 2072 d73d 47f3 5fbd c2b5 a0bd
00000040: 539e d13c ccd7 dd3d b0e6 c5bc 8cc7 6a3d
00000050: b030 283c 2e6c d33c 9901 2abd 6e84 f9bd
00000060: c92f 5fbe 7664 03be 4e3e 2d3d 5e97 1dbd
00000070: f867 ea3d 9725 f2bd 062a debd 8fde fc3d
00000080: 42b2 b13d ed6d 1abe 4d54 883d 81e8 3c3e
00000090: 8f75 8fbd 2b7f 18bd 17b1 9d3e 2c2a ef3d
000000a0: 9b5b 6b3d 269c 203e 6954 503d 633d 343e
000000b0: 7056 1e3e b110 0a3e 476b b63d a3cf 743d
000000c0: b25e b0bd 147a 9fbc b5e3 13bd c94b eabd
000000d0: 0380 673e 4b81 933e 00e6 4e3c 9eed 3e3e
000000e0: 2478 0f3e 1d08 8cbd b980 38be 3f26 623d
000000f0: 19b0 00be 27be 273a 292a 7d3d a14a b23d
00000100: 3c20 893e e6ec 8b3a 7024 7d3d 545d acbd
00000110: 63db b63d 4c55 4b3d 95ef 183e 41b3 b6bd
00000120: 27cb 8f3d e1f5 9dbd e988 663d 39b0 cc3b
00000130: 0232 d03b b4e0 243e ebeb ebbd 791f 0b3d
00000140: 0737 083c 63e6 f6bd b777 a23d 8fa7 12be
00000150: d481 0d3e 700c f83c 0a9b 8b3d 8b09 96bd
00000160: 9d67 933d 0ea0 b43d b9b8 c13d edb6 e03b
00000170: 5cff c33d 1e28 e2bd d8a3 533e 1553 95bd
00000180: 6b2a c33d 4d72 e93d 52a5 d7bd bfa9 633d
00000190: cf53 07be cf7b bfbd c482 4dbe 7c98 183d
000001a0: 1cfd a33e 131f 91bd 2204 d6bd 3699 c93d
000001b0: c043 0b3e 9d48 05bd 148e 033f 25aa d4bd
000001c0: e921 db3d 06d9 1ebd 4336 313e 357a d0bd
000001d0: ba74 01be 702c 7c3d 0569 14be bbfb 0ebe
000001e0: db24 e73c 0f8c 14be edb9 10be b199 2abd
000001f0: 25dd ac3d 4905 79bd c11f ac3c 6db9 83bd
00000200: b533 b9bc 15d1 0abd 1f0e bfbd fbd1 d2bd
00000210: bc72 6bbd 5825 663c ab21 673d 3bda 61be
00000220: 9640 21bd cc22 91bd 7c7e 8bbb 6bf1 e93d
00000230: a9c2 893e 9ac1 d13c f70e 35be 179a 17be
00000240: 8ee4 abbd fbdd f93d 67bc b2bd 9b8b 203d
00000250: 8142 33bd 18fb aabc 5279 49bc 3572 2abd
00000260: c028 4abd eaba 72be 29d3 02be 9efe 5abe
00000270: 0b59 83bd 625a 48be 055f 29be e6a9 a03d
00000280: a574 dfbd 73ff 57be 63c9 e33c bb68 97be
00000290: a0e8 6ebe 46f9 36be e87b 15bd 1984 6fbe
000002a0: af50 62be 52c9 6dbc 9a2d 98be 4b45 4ebe
000002b0: 3003 91be 3703 65bd 53d4 b2bd 5672 5d3d
000002c0: 242f bcbb 8c5c 9a3d bf8e f1bd 7429 14bc
000002d0: c7de d1bd dd2b 1dbb b3b2 cdbc 3b93 0fbc
000002e0: 1d0d 023e 0f90 1bbe 6337 20bc d120 b8bc
000002f0: 3f7a 19be 9dc8 6c3d 3006 27be 11b5 ad3d
00000300: d03d fa3a f3ad 5d3d 4323 bdbd 3b78 fd3c
00000310: c51b 863d 31ed 903d 0577 12be ca7c 6d3d
00000320: d281 5fbe 8a06 323e ad5b f0bd 2b87 813d
00000330: 5cad b43d 54d4 23be 057b 223d 7986 49be
00000340: 1131 00be 4afe 68be 4ada 433c de43 67bd
00000350: 0233 07be 13cd eebd

fc_2.bias f4 [2]
0.20045432 -0.1804559
00000000: e643 4d3e 6ec9 38be
