runs/0016_NN_1_bsz-1024_lr-0.001_ep-200-desc-.pth (torch, 49560 bytes, 4 tensors)

fc_1.weight f4 [107, 107]
000000 1e 10 8f be ab 4f 90 bc 92 89 76 3c 81 56 33 be
       -0.27941984 -0.017616114 0.015047448 -0.17513467
000010 c9 f0 8c bd bd e5 6e 3e 19 4a 79 bd af d8 00 3d
       -0.068818636 0.23329826 -0.06086168 0.031456646
000020 df 82 c3 bb dc d8 1a 3d fa 8f 86 be 74 a9 b1 3e
       -0.005966529 0.03780447 -0.2628172 0.34699595
000030 a3 63 0f be 9c 75 06 3e ab bf e6 3d fc bf 2e be
       -0.14002852 0.13130802 0.112670265 -0.17065424
000040 14 86 15 3e 35 0e 33 3e 57 73 af bd be 33 c0 be
       0.14601928 0.17485888 -0.08566921 -0.37539476
000050 ff 18 25 3e 21 e3 1f be d4 fd 06 be 88 c6 8e be
       0.16122817 -0.15613987 -0.13182765 -0.27885842
000060 3b 04 09 3d 08 df aa bd 49 42 d8 bb 55 f9 4e bb
       0.0334513 -0.08343321 -0.0065996987 -0.003158172
000070 09 89 57 bc be d6 d3 3d f5 18 cb bd 3a ba 22 be
       -0.01315523 0.10343693 -0.099168696 -0.15891352
000080 a3 47 f7 3d 7e 27 63 3e 4d 8e 78 3e d6 a4 d9 3d
       0.120742105 0.22183034 0.24273033 0.10627143
000090 db 3e 86 bd 4d 18 fb bd 59 56 34 3e 16 49 df be
       -0.065549575 -0.122604944 0.17611064 -0.43610448
0000a0 af 03 91 3d 84 88 8a 3e 36 8c 81 3e 7a 0b 94 be
       0.07080781 0.27057278 0.25302285 -0.28915006
0000b0 e3 ae a0 be 90 a3 56 3d 26 d8 55 be 9d ff ba 3d
       -0.31383428 0.05240208 -0.20883235 0.091307856
0000c0 65 7f e2 bd 44 83 94 bd 9a 74 65 3e fa 62 df 3c
       -0.11059455 -0.072515994 0.22407761 0.027268875
0000d0 ed 8b c5 bd 13 c7 72 3d 4b b0 42 be f3 fc 0c 3d
       -0.09645829 0.059271883 -0.19012563 0.03442092
0000e0 bc 59 6e be 61 1f 0d bb d9 8c d0 3d ee cb fc 3d
       -0.23276418 -0.0021533596 0.101831146 0.12343584
0000f0 57 19 1d be bd d3 0f bf e7 93 8d 3c 21 73 ba 3e
       -0.15341698 -0.5618246 0.01728244 0.3641596
000100 47 f3 06 3e ca 7c 00 3d 6f 5b e6 bd f5 6a ff 3d
       0.1317874 0.031369008 -0.11247908 0.12471572
000110 00 72 03 3e 61 84 57 be 95 60 1e be 62 9a b6 bb
       0.12836456 -0.21046592 -0.1546653 -0.005572603
000120 9d 13 0e 3e 4d 62 6b 3d 76 65 cc 3d c7 16 8c bd
       0.1387467 0.057466794 0.0998029 -0.06840282
000130 fe 68 10 be 9f fc 40 3e c7 fe 0b 3e 2f 3c 85 3d
       -0.14102551 0.18846367 0.13671409 0.0650562
000140 b5 20 ea 3d 6a 90 36 be 8f a8 05 3e e9 33 03 3d
       0.114320196 -0.17828527 0.13052581 0.032031927
000150 57 64 b8 bd b8 47 ca bd 96 85 49 be 1d 34 9a 3c
       -0.09003513 -0.098769605 -0.19679865 0.018823678
000160 ee a7 24 be c1 00 80 bb 02 52 50 be c9 67 4e bd
       -0.16079685 -0.00390634 -0.20343783 -0.050391946
000170 52 0d 43 be 76 95 11 3e 21 18 36 be a0 5c 1f be
       -0.1904805 0.14217171 -0.17782642 -0.15562677
000180 09 5e 75 3d da d7 41 be 3f 39 34 3e a9 cf 51 be
       0.059904132 -0.18929997 0.17599963 -0.20489372
000190 a3 b1 1d 3e a6 7a d7 3d 40 03 47 3d 59 de c8 3b
       0.15399794 0.1052144 0.048587084 0.0061300215
0001a0 f4 7c 02 be 2f a4 a1 3d 2e 71 ee 3d 4b 8c 2b be
       -0.12742978 0.07892644 0.11642681 -0.16752736
0001b0 93 f2 bf bd c3 a2 76 bc 23 10 55 3e 98 53 21 3e
       -0.09372439 -0.015053454 0.20806937 0.15754545
0001c0 0c 03 13 3e 6c 7c 16 be e2 3c 3e be b4 fa b3 bd
       0.14356631 -0.146959 -0.18577912 -0.08788052
0001d0 7e b5 62 3d 05 f1 83 3c 0f f2 61 3e 05 1b 6c be
       0.055348866 0.016106138 0.22064994 -0.23057182
0001e0 71 69 e2 3d 6e d3 96 3d e7 18 cd 3d 85 f2 cf 3d
       0.110552676 0.07364546 0.10014515 0.10153679
0001f0 f1 50 07 be 10 7e 2a 3d 33 e4 97 bd 33 66 0e bd
       -0.1321447 0.04162413 -0.074165724 -0.034765434
000200 3d f0 33 3d b4 6a 0a be a9 6c 13 3e b4 10 27 3e
       0.04393028 -0.13517267 0.1439692 0.16314965
000210 36 88 19 3e 20 8e f5 3d 48 9c 5f 3e aa b8 56 bc
       0.14993367 0.11989999 0.2183696 -0.013105551
000220 39 f0 5c 3c 53 95 83 be 74 1d bc bd 8f eb 0b 3e
       0.013485008 -0.25699863 -0.09185305 0.13664077
000230 8e 63 d4 3c 0d d9 2c bd 03 3e 6c 3b 37 07 16 3e
       0.025926378 -0.042199183 0.0036047704 0.1465119
000240 79 2e ff 3d c2 76 27 bd fe dd 0e bf 58 a6 54 3e
       0.12460036 -0.04088474 -0.55807483 0.2076658
000250 ac 6a 01 bd c1 2b 2f be a5 04 39 be d9 48 af be
       -0.03159587 -0.17106535 -0.18068178 -0.34235266
000260 8a 50 0d 3e 22 a6 bf 3d b7 79 f2 3d 59 77 18 3c
       0.13800254 0.09357859 0.118396215 0.009305798
000270 09 30 15 be c3 39 06 3e a3 f3 6a be dd dc 22 3c
       -0.14569105 0.13107972 -0.22944503 0.009940353
000280 50 79 80 3e 1c 8a 81 bd e7 92 13 3d 2c 53 c2 be
       0.25092554 -0.063251704 0.03602877 -0.3795408
000290 b3 c8 48 bc 93 25 2e 3d 1e aa 40 3e ad ad 3f 3e
       -0.012254882 0.042516302 0.18814895 0.18718596
0002a0 c3 11 8d 3e 29 80 23 be 27 05 72 be 0d e5 06 be
       0.27552614 -0.15966858 -0.23634778 -0.13173313
0002b0 05 83 20 3c bf 72 3b be dc 84 6c bd 42 05 b1 3d
       0.0097968625 -0.18305491 -0.057743892 0.08643581
0002c0 47 50 e0 bd b7 80 6f 3e 67 ec 17 bd 62 27 1c 3e
       -0.10952812 0.23388945 -0.037090685 0.15249398
0002d0 26 97 6f bd 8e 75 16 3e 39 d1 02 be 11 14 c6 bc
       -0.058493756 0.14693281 -0.12775125 -0.02417949
0002e0 ae 98 3c 3e 43 63 9a bd 8c 6a 45 3e 74 eb c7 bd
       0.18417618 -0.07538464 0.19278926 -0.09761706
0002f0 dd e9 06 3e bc 2c 0e 3e f6 22 1d 3d 9e 31 b4 3d
       0.1317515 0.13884252 0.03836342 0.08798526
000300 31 7c 1b 3e 07 83 fb 3d c0 3a ea 3c 5d b2 21 be
       0.15184094 0.12280851 0.028592467 -0.15790696
000310 7a b8 e1 bd d5 0c 56 bd 8c 45 11 3e 1a d4 08 3e
       -0.11021514 -0.05225833 0.14186686 0.1336216
000320 5b 43 1f 3d de 43 10 3e 0d 6a 18 be 00 12 30 3e
       0.038882595 0.1408839 -0.14884205 0.17194366
000330 d3 99 2a bd fb 96 4b 3e 17 6c af bc c5 64 c2 bd
       -0.041650604 0.19881813 -0.021413846 -0.094918765
000340 f6 7e 67 3d ef e8 f3 bc 89 99 2e 3e 34 26 9a 3d
       0.056517564 -0.029774157 0.17050757 0.07526818
000350 87 8c f3 bb e7 33 1a 3e d7 a3 03 bf ff 87 65 be
       -0.0074325236 0.15058862 -0.51421875 -0.2241516
000360 30 43 93 bc 51 3b 0f bf 4d 4c 24 be bb dc ff bc
       -0.017976373 -0.55949885 -0.16044731 -0.031233182
000370 d1 f1 6b be d8 ad c7 3e 4d c2 e7 bc e6 5c 22 3d
       -0.23041464 0.3899982 -0.028290892 0.039639376
000380 25 b6 c2 be 9a e0 80 3e 20 da 83 3e f6 f1 77 3d
       -0.3802959 0.25171357 0.25752354 0.060533486
000390 c8 48 e4 3d 5e 76 9a 3d b2 a3 c2 3d b2 46 6d 3c
       0.111466944 0.07542108 0.09503879 0.014482187
0003a0 d4 c3 9e 3d 05 d8 35 3e d4 41 3d be b6 26 0f 3e
       0.07752195 0.17758186 -0.18482143 0.13979611
0003b0 3d e9 0a 3d 42 f8 54 3e 02 92 a7 bd a4 22 eb be
       0.03391384 0.20797828 -0.08182146 -0.45924866
0003c0 8e bf 0a bd 80 bd a6 3c d5 d6 14 be da be 50 be
       -0.033874087 0.020354033 -0.14535077 -0.20385304
0003d0 2d cc c0 bd 30 23 94 bd fd 26 83 bc e7 e7 b1 ba
       -0.094139434 -0.07233274 -0.016009802 -0.0013573141
0003e0 a5 76 5d 3e 3a 69 0f 3e 81 cd 1f 3e 17 ed a2 3e
       0.2162729 0.14004984 0.15605737 0.3182151
0003f0 f3 8f 3a be f6 c9 d5 3b dc e5 16 be 0d 68 35 3d
       -0.18218975 0.0065243198 -0.14736122 0.044288684

fc_1.bias f4 [107]
000000 94 32 65 3d 71 2f 91 bd 71 12 c2 3d 89 b1 9b 3d
       0.05595644 -0.07089127 0.09476174 0.076022215
000010 a2 59 06 bc 9b cd 30 3d e8 93 e5 3d be a5 04 3e
       -0.008200081 0.04316483 0.112098515 0.1295385
000020 ca b5 da bc 3e a9 25 bd 94 76 bb 3c 34 2e bb bc
       -0.026698012 -0.040444605 0.02288369 -0.02284918
000030 8a f0 92 bd 01 31 04 3d 61 05 12 bc c9 4f 01 3e
       -0.071747854 0.032273296 -0.008912415 0.12628092
000040 9c e4 bd 3c e4 4c 65 bd 48 da c4 3d ca 9b bc 3d
       0.023180299 -0.05598153 0.09611946 0.09209402
000050 fd 46 9b bd 70 44 d7 bd 6d 38 46 bd d9 16 97 3c
       -0.07581899 -0.105111 -0.048393656 0.018443512
000060 9c e4 bb 3d c1 3d 7c bd ad 19 c9 bb 8b 09 27 be
       0.09174463 -0.06158233 -0.006137094 -0.16312234
000070 95 7a ec bc 32 f2 ce ba 6a 42 b2 3d 63 d2 3b 3d
       -0.028867045 -0.0015788733 0.08704074 0.045854937
000080 91 0d 9e 3d d5 1b c4 bd ce d5 f6 3d dc 78 23 3d
       0.07717431 -0.09575621 0.12052499 0.039910182
000090 fa 9f f1 bc 3f e6 9c 3c d9 ff e0 bd 7c 03 df bd
       -0.029495228 0.019152759 -0.10986299 -0.108893365
0000a0 4b f3 e7 bd c7 ac ed 3d 77 97 86 bd 09 0f d4 3d
       -0.11325701 0.1160522 -0.065718584 0.1035443
0000b0 ff 57 51 bd 07 ba e5 3b ad 65 39 bd ab 7f b6 3d
       -0.05110931 0.0070107016 -0.04526298 0.089110695
0000c0 11 22 94 3d cc a6 12 3c b4 44 b0 3d 83 f3 70 3d
       0.0723306 0.0089509 0.08606854 0.05882598
0000d0 36 07 c5 3d 6a 26 b7 ba b3 e8 b2 3d 3b 9f 19 be
       0.09620516 -0.001397324 0.0873579 -0.15002148
0000e0 72 8e cb 3d ae 09 6a 3b 0f b5 5d 3e 6f 5e 2f 3d
       0.09939279 0.0035711336 0.216511 0.04281467
0000f0 d9 c9 2a 3d 42 62 b4 bd bc b2 75 3d 08 60 30 be
       0.041696403 -0.08807804 0.059984908 -0.17224133
000100 f9 eb b6 3c da a7 92 bd 9a 34 5c be 8e cb bc 3d
       0.022329317 -0.071609214 -0.21504441 0.092185125
000110 b7 49 c0 bc 19 d4 9e 3b a8 fd e3 3c 39 c0 23 bb
       -0.02347265 0.0048470614 0.027830914 -0.00249864
000120 76 8b 3c 3e b2 79 b4 3b 40 e2 a9 3d 11 c3 f4 bd
       0.18412575 0.0055076713 0.08295107 -0.119512685
000130 2d 9b 9e bc bd 06 6b 3d 79 ce a5 bc df 1f 03 3e
       -0.019361103 0.057379473 -0.020240055 0.12805127
000140 fc b6 af 3d 7c 90 2f 3d 0f 04 d9 3d 2c 2f 12 bc
       0.085798234 0.0428624 0.10596477 -0.008922379
000150 15 f7 b3 bb 7e de ec bd 74 e2 7b 3c 01 56 a8 3d
       -0.005492101 -0.115658745 0.015373815 0.08219529
000160 28 f6 74 bd d7 a4 b2 bc 37 61 ae bd df 19 9b bc
       -0.059805065 -0.021807117 -0.08514636 -0.018933235
000170 c8 75 a3 3d 16 d8 94 3d da e0 5d 3d 16 8a c7 bd
       0.07981449 0.072677776 0.054169513 -0.09743135
000180 71 fc d7 3d 48 a0 83 3c f4 2a b1 3d c8 83 0e bd
       0.10546196 0.016067639 0.08650771 -0.034793645
000190 2e d3 85 bc 0b 70 ea 3c ff 95 60 bd eb a4 5e bc
       -0.01633605 0.02861788 -0.054830547 -0.013589124
0001a0 b5 3c 7a bd e6 f9 1f bd 8a 45 38 bd
       -0.06109305 -0.03905668 -0.044988193

fc_2.weight f4 [2, 107]
000000 c7 c8 62 3e f7 2f 7e be 3c 44 52 3e 86 70 9d be
       0.22146903 -0.24822985 0.20533842 -0.3074991
000010 c2 73 fc 3e 10 f2 bc 3e b4 8c f1 be ed 05 f9 be
       0.49307066 0.3690343 -0.4717766 -0.48637334
000020 f3 c6 ab bd b8 b0 5c be f6 b9 ef be 01 60 f3 3e
       -0.08387556 -0.21551788 -0.46821564 0.47534183
000030 82 bb 98 3e 8b 10 dc be 6d 18 f7 3e 1c f2 7e bd
       0.29830557 -0.4298137 0.48260823 -0.062242612
000040 1a 9c 8a be de 09 59 be 1c 02 63 3e 0e c5 ad be
       -0.2707222 -0.2119517 0.22168773 -0.33939403
000050 12 8f ea 3e 93 28 7c 3e 45 48 e4 3e 52 07 97 be
       0.4581228 0.24624853 0.44586387 -0.29497772
000060 30 ad 12 bf a3 57 dc 3e 3f 2e ca be 3b 59 ff 3e
       -0.57295513 0.43035612 -0.39488408 0.49872765
000070 e4 3c b2 3e bd db 04 3f 10 38 0b 3f 4a a7 c6 3e
       0.3481208 0.51897794 0.5438242 0.38799506
000080 15 1a 58 be 5f fb f4 3e fc b0 ce be e5 36 18 3e
       -0.211037 0.4784803 -0.40369403 0.1486469
000090 26 84 e1 3e 19 99 a7 3e 3a a9 c9 3e a9 16 ae 3e
       0.44046134 0.32733992 0.39386922 0.34001663
0000a0 b7 33 b4 3e 2a 22 b4 be 2c 4d c5 3e 4a 36 e0 be
       0.35195705 -0.35182315 0.3853544 -0.4379142
0000b0 de a5 a6 be 51 1f ab 3e 90 a6 e2 be 00 3d b4 be
       -0.32548422 0.3342233 -0.44267702 -0.3520279
0000c0 b9 42 bd be c2 c5 db 3e c6 00 cc be ee 83 dd 3e
       -0.36964968 0.42924315 -0.3984434 0.43264717
0000d0 14 a6 1c be b6 c1 c9 be d3 d2 cc be 05 55 b4 3e
       -0.15297729 -0.39405602 -0.40004596 0.35221115
0000e0 91 b2 d2 be bf 0f 84 3e 7e 2d d1 be b9 71 9e 3e
       -0.4115186 0.25793263 -0.4085502 0.30946139
0000f0 c4 eb e2 be ca a2 9b 3e 84 3a f4 3e 1a e2 dd 3d
       -0.443205 0.30397636 0.47700894 0.10834141
000100 c8 f9 d2 3e 81 11 c5 3e e3 bb 95 3e 9b 90 83 be
       0.41206193 0.38489917 0.2924491 -0.25696263
000110 0a 54 25 3e 66 09 d1 3e 72 76 99 3e e5 09 a6 3e
       0.1614534 0.40827483 0.2997318 0.32429424
000120 ef 35 b2 be 38 ea 1c be b7 fe 9e be 93 e7 83 3e
       -0.34806773 -0.15323722 -0.31053707 0.25762615
000130 d4 06 ec 3e 70 db f3 be f9 fa 9e 3e 7e 3c b6 3e
       0.4609896 -0.47628355 0.31050852 0.35593027
000140 1f 3c 8e 3e 12 08 e5 3e 1a 18 f0 be ff f0 cf 3e
       0.27780244 0.4473272 -0.46893388 0.40613553
000150 15 19 96 3e 37 ab e4 be 70 05 f1 3e c4 c1 c0 be
       0.2931601 -0.44661877 0.4707446 -0.3764783
000160 ca 57 b1 3e cc f8 ae 3e da b7 af 3e d8 92 b2 3e
       0.3463729 0.34174192 0.34319955 0.34877658
000170 75 c2 ed be b6 ee d6 be 86 8b f1 bd 50 76 05 3f
       -0.4643742 -0.41978997 -0.1179419 0.52133656
000180 50 69 07 bf 8e 62 af be a8 97 e3 be 56 76 dc 3e
       -0.5289507 -0.3425488 -0.44451642 0.43059033
000190 41 9c 56 3e 50 cd b9 be d9 9a ed 3e 4c 99 a1 be
       0.20958044 -0.36289454 0.46407202 -0.3156227
0001a0 6d ae c2 3e be 7b 74 be be 2c a1 be bf f1 3a be
       0.380237 -0.23875329 -0.31479448 -0.18256281
0001b0 d9 dd c7 3e 1b 13 e4 be 52 6c aa 3e a8 fb b7 be
       0.39036444 -0.44545826 0.33285767 -0.35934186
0001c0 d2 d0 c6 be e2 13 9e 3e 8f 17 08 3e 1c 6a d6 3e
       -0.38831192 0.30874544 0.13290237 0.4187783
0001d0 8c 7b f4 3e bc 23 01 3f 41 18 c7 be cd 01 a2 be
       0.4775051 0.5044515 -0.38885692 -0.31642
0001e0 33 96 08 3e 3e 11 0c bf 7b 2e da 3e 72 c2 d9 3e
       0.13338546 -0.5471381 0.42613587 0.42531163
0001f0 27 1e 9b 3e a4 29 b0 be 74 21 99 3e fc f8 97 be
       0.30296442 -0.3440677 0.29908335 -0.29682148
000200 a6 a5 12 bf 22 f5 65 be e6 f8 97 3e 0b 26 e9 3d
       -0.5728401 -0.22456792 0.29682082 0.11384209
000210 9f 79 83 be 65 72 5c 3e 3e 7c 5b be e5 42 9a be
       -0.25678727 0.21528013 -0.21434113 -0.3012916
000220 6a 93 d9 be 55 b9 ce be 9e b8 96 be 04 25 bc 3e
       -0.4249528 -0.40375772 -0.29437727 0.3674699
000230 4e 3d af be 8c e6 44 3e c7 47 09 bf f3 27 97 be
       -0.3422646 0.19228572 -0.5362515 -0.29522666
000240 04 df 9d bd f7 e7 a8 be 31 6c 8b be a5 3d d0 be
       -0.077085525 -0.32989475 -0.2723098 -0.4067203
000250 5c e4 b4 3e ed 40 c0 be 04 e5 7a 3e 5f 37 0e 3f
       0.35330474 -0.37549534 0.24501425 0.5555324
000260 c0 10 a8 be ed 85 97 3e 94 c5 b6 3e 23 f9 cf 3e
       -0.3282528 0.29594365 0.35697615 0.40619764
000270 0c 00 c2 be 0a 1e fc 3c c7 5b b7 bd 67 a9 c5 3e
       -0.3789066 0.030776042 -0.08953052 0.38605806
000280 57 9a f1 3e 32 4d c0 3e 82 a6 da be 90 b7 16 3e
       0.47188064 0.37558895 -0.4270516 0.14718461
000290 37 2f d0 be f5 75 85 3e 6a c7 d7 be e6 38 99 3e
       -0.40661022 0.26066557 -0.42144328 0.29926223
0002a0 7b a0 b1 be 49 c4 2f be 31 22 f8 be ed 10 6a bd
       -0.3469275 -0.1716472 -0.48463586 -0.057145048
0002b0 03 9c 08 bf 3d af d7 be 31 95 c4 3e 96 00 ce be
       -0.53363055 -0.42125884 0.38395074 -0.40234822
0002c0 4b 90 b3 be 90 c1 01 bf 50 56 80 be a6 48 fd 3d
       -0.35071024 -0.5068598 -0.2506585 0.12367372
0002d0 4f 66 98 3e 77 35 be 3e 13 84 ac be 61 11 82 be
       0.29765555 0.37150165 -0.33694515 -0.25403884
0002e0 69 09 83 3e 33 68 ea be 59 6c 58 be 68 c5 5c be
       0.25593117 -0.45782623 -0.21135081 -0.2155968
0002f0 07 9a 13 be 96 94 b1 3d 58 cb 0f bd 08 4a e7 be
       -0.14414226 0.08670919 -0.035106033 -0.4517367
000300 99 f1 a8 3e 3b 3f e1 be c7 26 d5 3e ec 72 dd be
       0.32996824 -0.43993554 0.41631147 -0.4325174
000310 49 df 5f be c4 8c e6 be f7 0d 23 bf 0a e2 a5 3d
       -0.2186252 -0.4502927 -0.63693184 0.08099754
000320 38 ae 85 3e 41 0b db 3e 8a 73 8d be 71 3c 4d 3e
       0.2610948 0.42782024 -0.27627212 0.20042588
000330 49 de 97 3e b7 10 d4 3e e4 14 61 be 8a 7e 05 bf
       0.29661778 0.41419002 -0.21980625 -0.5214621
000340 a7 4d 7d 3e be 92 8e be ad 26 4e 3e 01 a7 af be
       0.24736653 -0.2784633 0.20131941 -0.343071
000350 2b c4 d1 3e 91 4d 84 3e
       0.40969977 0.25840428

fc_2.bias f4 [2]
000000 e1 44 2b bc 9e 72 f9 3c
       -0.010453434 0.030450162
