runs/0017_NN_1_bsz-32_lr-0.001_ep-200-desc-.pth (torch, 49544 bytes, 4 tensors)

fc_1.weight f4 [107, 107]
0	0x3f8f80da	1.1211197
1	0xbebdd1f8	-0.37074256
2	0x3e2188d7	0.15774857
3	0xbf1d897c	-0.6153791
4	0xbcd28c84	-0.025701769
5	0xbf35eac6	-0.7106136
6	0xbc5e3948	-0.013563462
7	0x3f438733	0.7637817
8	0xbf7a891c	-0.9786546
9	0x3f13ffa5	0.5781196
10	0xb9ecd406	-0.00045171398
11	0xbc72555c	-0.014790859
12	0x3e86737c	0.26259983
13	0xbeef3971	-0.46723512
14	0x3ed63a62	0.41841418
15	0x3e9bd0fd	0.30432883
16	0xbf46b1c3	-0.7761499
17	0x3e92697c	0.28596103
18	0x3eb356ea	0.35027248
19	0x3d4d9781	0.050193314
20	0x3f35f1ae	0.710719
21	0xbf0815d0	-0.53158283
22	0x3f582639	0.84433323
23	0x3bf3f505	0.00744498
24	0xbd852513	-0.06501212
25	0x3cd24030	0.025665373
26	0xbf202235	-0.62552196
27	0x3ef1a9ca	0.4719985
28	0x3ec12c7f	0.3772926
29	0x3e5c6c7f	0.21525763
30	0xbe8e0847	-0.2774069
31	0xbf72c768	-0.9483552
32	0x3e89c7c4	0.26910222
33	0x3e4e4749	0.2014438
34	0x3eae437c	0.34035861
35	0xbd18e8d0	-0.037331402
36	0x3e1b0d3b	0.15141766
37	0x3e3bba4e	0.18332788
38	0xbe998341	-0.2998295
39	0xbf29ee00	-0.66378784
40	0x3e5b780d	0.21432514
41	0xbedd1bc5	-0.4318525
42	0x3ed8bed0	0.42333078
43	0xbdccb62f	-0.09995686
44	0xbcd3d0d1	-0.025856407
45	0xbf5452c3	-0.82938784
46	0xbeef34d0	-0.4671998
47	0x3f13c676	0.577247
48	0x3ec594ee	0.38590187
49	0xbf8b4b26	-1.0882308
50	0x3ed61154	0.41810095
51	0x3e8194d3	0.25308856
52	0x3e571827	0.21005307
53	0xbe31591c	-0.17319149
54	0xbea4efe3	-0.3221427
55	0x3f3e28a8	0.74280787
56	0x3e7bf3cb	0.24604718
57	0xbe5b0bc9	-0.21391214
58	0x3ec2f4bb	0.3807734
59	0xbce6d6fe	-0.028178688
60	0xbd5900c8	-0.05297926
61	0x3f1cb532	0.6121398
62	0xbebb21a6	-0.3654911
63	0xbe90073e	-0.28130525
64	0x3f0c8a61	0.5489865
65	0xbf29d038	-0.6633334
66	0x3e90866f	0.28227565
67	0x3c091daf	0.0083688935
68	0x3eb3dc9c	0.3512925
69	0x3e5544e6	0.20827064
70	0x3eafbd9c	0.34324348
71	0xbebb6b9d	-0.3660554
72	0x3f1f317a	0.6218487
73	0x3eab4968	0.33454442
74	0x3ec508d9	0.38483313
75	0x3d98f3b8	0.07468361
76	0xbd96f7cd	-0.07371483
77	0xbe599601	-0.21248628
78	0x3d0a4ca1	0.033764485
79	0x3edb4cf9	0.42832163
80	0x3e173117	0.1476482
81	0x3eab3b48	0.33443666
82	0x3db5a001	0.08868409
83	0xbe083463	-0.13301234
84	0xbe45cdce	-0.1931679
85	0xbe2be8af	-0.1678798
86	0x3e1a3a85	0.15061386
87	0x3e885d15	0.26633516
88	0xbe5dd16a	-0.21661916
89	0xbdbcda56	-0.09221332
90	0x3de46bb5	0.11153356
91	0x3d8c780b	0.06858834
92	0x3ede236e	0.43386406
93	0x3eefef31	0.46862176
94	0x3eae4475	0.34036604
95	0xbf0848be	-0.53235996
96	0xbda63396	-0.08115308
97	0x3e9ff02b	0.3123792
98	0x3ea76f0d	0.32701913
99	0x3e83acec	0.25717866
100	0xbe90767f	-0.28215405
101	0x3e6fc358	0.23414361
102	0x3e7f21f3	0.24915294
103	0x3b7f4180	0.0038948953
104	0x3e2baefe	0.16765973
105	0x3d39bd3a	0.045346476
106	0xbd6485ad	-0.055791546
107	0x3eec02e2	0.4609595
108	0xbfac9ac9	-1.3484737
109	0x3d736f72	0.059432454
110	0x3f5bf8fe	0.85926807
111	0x3e171be6	0.14756736
112	0x3f39701b	0.72436684
113	0xbe9bcc3f	-0.30429265
114	0x3e2b8d88	0.16753209
115	0x3e0a7f91	0.13525225
116	0x3ebb4e94	0.36583388
117	0xbe0b153a	-0.13582316
118	0x3ea69ade	0.3254003
119	0x3d615933	0.055016708
120	0x3d81d13c	0.063387364
121	0x3e26110c	0.1621744
122	0x3ed44195	0.41456285
123	0x3eb27a56	0.3485896
124	0xbf0421da	-0.51614153
125	0x3e82d6b8	0.25554442
126	0x3ece1b5b	0.40255246
127	0x3e865a8e	0.26240963
128	0xbf02b65d	-0.51059514
129	0x3e3665f7	0.17812334
130	0xbd8f494c	-0.06996402
131	0x3e0e5cc9	0.13902582
132	0x3f400007	0.7500004
133	0x3e5e93d0	0.21736073
134	0xbf3fb847	-0.7489056
135	0x3e71ec13	0.23625211
136	0x3e1c4c8e	0.15263578
137	0xbf7780f9	-0.9668117
138	0xbf453b3f	-0.7704353
139	0xbd8dd1ba	-0.06924768
140	0xbd8faa00	-0.07014847
141	0xbeec9d2e	-0.4621367
142	0x3f5eaf33	0.8698608
143	0xbeff7793	-0.49895915
144	0xbf888425	-1.0665327
145	0xbdc87d6f	-0.097895496
146	0x3f18c458	0.59674597
147	0x3e9c365b	0.3051022
148	0xbc9b3800	-0.018947601
149	0x3ea9ddc2	0.33177
150	0xbe7c79a4	-0.24655777
151	0xbe5a5661	-0.21322013
152	0xbe13c6d9	-0.14431323
153	0xbfc497a2	-1.5358775
154	0x3ee53f83	0.44775018
155	0xbef51682	-0.47868735
156	0xbf25847d	-0.64655286
157	0x3e9ea530	0.30985403
158	0x3f309a25	0.68985206
159	0xbeb42950	-0.3518777
160	0xbe007129	-0.12543167
161	0x3e068308	0.13135922
162	0x3ebc9986	0.3683588
163	0x3f1b5ede	0.6069163
164	0x3e37d4b6	0.17952237
165	0xbf1b136e	-0.6057652
166	0x3e95155a	0.29117852
167	0xbeec1f31	-0.46117547
168	0x3f06d4f8	0.52668715
169	0x3e8055c9	0.2506545
170	0xbe91b924	-0.28461564
171	0x3dcc4d10	0.09975636
172	0x3e0d2097	0.13781963
173	0xbe090d1b	-0.13383906
174	0xbd2a76f3	-0.041617345
175	0x3e010533	0.1259964
176	0x3e2c9f11	0.16857554
177	0x3ea4676c	0.32110155
178	0xbe34beae	-0.17650864
179	0x3ee91d15	0.4553
180	0x3d8607ec	0.0654448
181	0x3d922048	0.071350634
182	0x3de05842	0.10954334
183	0x3e02c174	0.12769109
184	0x3e120802	0.14260867
185	0xbe36ee31	-0.178643
186	0x3e81af8b	0.2532924
187	0x3e804e17	0.25059578
188	0x3ebf4f0d	0.37364998
189	0xbd9d36cf	-0.076764695
190	0xbd02b280	-0.031908512
191	0xbea67fbb	-0.32519326
192	0x3e29a75b	0.16567747
193	0x3df0e711	0.117628224
194	0x3ed2418b	0.4106563
195	0xbe6c340a	-0.23066726
196	0xbda79079	-0.08181853
197	0xbcc55c53	-0.024091875
198	0xbd833858	-0.06407231
199	0x3de84e81	0.113430984
200	0x3ede511c	0.43421257
201	0x3d39e037	0.045379844
202	0x3e515ff1	0.20446755
203	0x3e265da8	0.16246665
204	0xbd8b779a	-0.068099216
205	0x3e1ada8c	0.15122432
206	0x3e6c6702	0.2308617
207	0x3dc5f70c	0.09666261
208	0x3df60cd2	0.12014164
209	0x3e5b25c7	0.2140113
210	0x3e13def4	0.14440519
211	0x3dce1325	0.10062245
212	0x3e8f912e	0.2804045
213	0x3d8020ae	0.06256233
214	0xbfb10f4d	-1.3832794
215	0x3ebba38f	0.36648223
216	0x3e81c36e	0.25344414
217	0x3fb781b9	1.4336463
218	0xbe57a657	-0.21059547
219	0xbf6a9941	-0.91640097
220	0x3eb24596	0.34818715
221	0xbea973fd	-0.33096305
222	0x3e10dcb3	0.1414669
223	0x3dc940fe	0.098268494
224	0x3da50514	0.08057609
225	0xbf2a2dc4	-0.6647608
226	0xbf0d35bd	-0.55160123
227	0x3e9b9241	0.3038502
228	0x3e659653	0.22420625
229	0x3e81c0c4	0.2534238
230	0xbf5cba07	-0.86221355
231	0x3ed8b303	0.42324075
232	0xbea1c166	-0.31592864
233	0xbe98a291	-0.29811528
234	0xbf0fe00e	-0.56201255
235	0xbf29777e	-0.66197956
236	0xbe5f3083	-0.2179585
237	0x3f20f4e1	0.62873656
238	0x3e10bf4b	0.14135472
239	0x3d257723	0.04039682
240	0xbe98c4fe	-0.29837793
241	0xbeb4c5d9	-0.35307196
242	0x3dc8c7d1	0.09803737
243	0xbbbcc1e9	-0.0057604206
244	0xbef67bd6	-0.48141354
245	0xbea28ef4	-0.3174969
246	0x3e3e60cc	0.18591613
247	0xbe23b802	-0.15988162
248	0x3f229fd7	0.63525146
249	0x3e5d88df	0.21634243
250	0xbe06e275	-0.13172324
251	0xbf69d82b	-0.9134547
252	0x3e8d4168	0.27588964
253	0xbf988f0d	-1.1918656
254	0xbd41f46e	-0.047352247
255	0x3e4e610d	0.2015421

fc_1.bias f4 [107]
0	0xbee5f5be	-0.4491405
1	0xbea369e8	-0.31916738
2	0xbdfd514a	-0.1236902
3	0xbfa5149a	-1.2896912
4	0xbdea02ba	-0.11426301
5	0xbf443927	-0.7664971
6	0xbf1db2b7	-0.6160082
7	0xbe746655	-0.23867162
8	0xbf56e2e6	-0.8393997
9	0xbe958a9a	-0.29207307
10	0xbf80a7c7	-1.0051202
11	0xbf371776	-0.71520174
12	0x3e04cbb8	0.12968338
13	0xbecbfe78	-0.39842582
14	0xbf878ef3	-1.05905
15	0xbf53627c	-0.8257215
16	0xbeffa862	-0.49933153
17	0xbe4dc7aa	-0.20095697
18	0xbf8b860d	-1.0900284
19	0xbf769fa4	-0.9633734
20	0x3d39584b	0.04525022
21	0xbf2cbd28	-0.6747613
22	0xbea68641	-0.32524303
23	0xbf2f11e9	-0.68386704
24	0xbedbbe36	-0.42918557
25	0xbe408db1	-0.18804051
26	0xbddd3d70	-0.10802734
27	0xbbfc98a8	-0.0077086277
28	0xbf9ef685	-1.2418982
29	0xbe3e5e1e	-0.1859059
30	0xbf78de75	-0.9721444
31	0xbed35661	-0.4127684
32	0xbf00c5ad	-0.5030163
33	0xbe792c3d	-0.24333282
34	0xbf9291be	-1.1450727
35	0xbf407189	-0.7517324
36	0xbf83f3ef	-1.0308818
37	0xbf8b376e	-1.0876291
38	0xbff59c51	-1.9188329
39	0xbfb2797b	-1.3943323
40	0xc00ec307	-2.2306535
41	0xbdce15e5	-0.1006277
42	0xbf42c85f	-0.7608699
43	0xbda5bce0	-0.08092666
44	0xbe677513	-0.22603254
45	0xbfb1ae82	-1.388138
46	0xbf8810f0	-1.0630169
47	0xbf186241	-0.59524924
48	0xbf4b50bb	-0.7942006
49	0xbf4336fb	-0.7625577
50	0xbe90ceb1	-0.28282693
51	0xbeee3c69	-0.46530464
52	0xbeb2b44f	-0.3490319
53	0xbee2ad69	-0.44272926
54	0xbf2f67f8	-0.6851802
55	0xc0387826	-2.8823333
56	0xbef1c4e3	-0.47220525
57	0xbf2738c5	-0.65321
58	0xbf8a547e	-1.0807035
59	0xbfc808f1	-1.5627729
60	0xbea68055	-0.32519785
61	0xbf2bbd9a	-0.67086184
62	0xbdfffbf7	-0.1249923
63	0xbf71958b	-0.9436881
64	0xbfcdea2f	-1.6087092
65	0xbf2757e1	-0.6536847
66	0xbfb8a1b5	-1.4424349
67	0xbe679bfd	-0.22618099
68	0xbf49237d	-0.78569776
69	0xbf291ba2	-0.6605779
70	0xbf5547c0	-0.83312607
71	0xbec697b9	-0.3878763
72	0xbef14ed0	-0.47130442
73	0xbecc0f53	-0.3985544
74	0xbfa760f3	-1.3076462
75	0xbc43cfef	-0.011951431
76	0xbf152511	-0.58259684
77	0xbd8b307f	-0.06796359
78	0xbfceca4a	-1.6155484
79	0xbecd7b3a	-0.40133077
80	0xbf5f2915	-0.8717206
81	0xbfb6d405	-1.4283453
82	0xbe99a3ba	-0.30007726
83	0xbf024724	-0.508898
84	0xbf783dec	-0.96969485
85	0xbf0d86d6	-0.5528387
86	0xbefd750c	-0.49503362
87	0xc055cd3a	-3.340651
88	0xbef2d7a6	-0.47430152
89	0xbe28a095	-0.16467507
90	0xbf0c36a4	-0.54770875
91	0xc012d74b	-2.2943904
92	0xbe80ffc1	-0.25195125
93	0xbf74874f	-0.95518965
94	0xbf63de21	-0.89010817
95	0xbf35f73f	-0.7108039
96	0xbeaa00e2	-0.332038
97	0xc033d880	-2.810089
98	0xbf81480a	-1.010011
99	0xbf475c88	-0.77875566
100	0xbe9eace6	-0.30991286
101	0x3daeb4fe	0.08530615
102	0xc004298f	-2.0650365
103	0xbf3fa6e8	-0.74864054
104	0xbee8f3cf	-0.4549851
105	0xbf534912	-0.8253337
106	0xc056487b	-3.3481739

fc_2.weight f4 [2, 107]
0	0xbe0d2353	-0.13783006
1	0xbea28c98	-0.3174789
2	0xbe60c9de	-0.21952006
3	0x3e8f7676	0.28020066
4	0xbe4a8bd0	-0.19779897
5	0x3e59be81	0.21264078
6	0xbe5b3f2a	-0.21410814
7	0x3e89b9d1	0.2689958
8	0x3e815655	0.2526118
9	0x3c280b9f	0.010256677
10	0x3eb48b1d	0.35262385
11	0xbeab2fb8	-0.33434844
12	0xbe3dc0dc	-0.18530601
13	0x3e7b80be	0.2456083
14	0x3eb21004	0.34777844
15	0x3e74aead	0.23894759
16	0xbe7f8e08	-0.24956524
17	0xbe2cc2d0	-0.1687119
18	0xbe83b894	-0.2572676
19	0x3d5d7b06	0.054072402
20	0xbe93d54e	-0.28873676
21	0x3e79dbc8	0.24400246
22	0xbea75149	-0.32679203
23	0x3e8dfc63	0.27731618
24	0xbe750fc7	-0.239318
25	0xbe9b5349	-0.3033698
26	0xbde7d531	-0.1131996
27	0xbee9a749	-0.4563544
28	0xbf1a3b45	-0.6024669
29	0xbe9e13de	-0.30874532
30	0x3e740e49	0.23833574
31	0xbf168603	-0.58798236
32	0xbeb80022	-0.359376
33	0x3ea2f78e	0.31829494
34	0x3eaf2136	0.34205025
35	0x3e10b820	0.14132738
36	0x3ea3fa02	0.32026678
37	0x3e8f2ea0	0.2796526
38	0xbf3e44e0	-0.74323845
39	0xbefae278	-0.49000907
40	0x3f713523	0.94221705
41	0x3ed9d833	0.4254776
42	0x3dfb2d6c	0.12264523
43	0x3e8d7e06	0.2763521
44	0xbebb56a3	-0.36589536
45	0xbed613f4	-0.41812098
46	0x3e124b83	0.14286618
47	0x3e419183	0.18903165
48	0xbee4323e	-0.44569582
49	0x3e5f55cf	0.21810077
50	0xbed22170	-0.41041136
51	0xbe1ee2dd	-0.15516229
52	0x3eb8ff63	0.36132345
53	0xbe1fe9c0	-0.15616512
54	0xbe9fd601	-0.3121796
55	0x3f71843a	0.94342387
56	0x3e8fe0a7	0.28101084
57	0x3e8f33b6	0.2796914
58	0x3e90057c	0.28129184
59	0x3e56ac63	0.20964198
60	0xbe31a474	-0.1734789
61	0x3e9aeeb8	0.30260253
62	0x3eae8909	0.34088925
63	0x3ee4019b	0.44532475
64	0x3e8faf82	0.2806359
65	0x3dec7c0e	0.11547099
66	0xbefc7a04	-0.4931184
67	0xbdd5e974	-0.10444918
68	0x3e7a9366	0.2447029
69	0x3eb66de0	0.35630703
70	0x3e8f39b0	0.279737
71	0xbe981ae8	-0.29708028
72	0xbc2214bc	-0.009892639
73	0xbe6e7452	-0.2328656
74	0xbea93a87	-0.33052465
75	0xbea485ce	-0.32133335
76	0xbeb1c3f7	-0.34719822
77	0xbe98b15a	-0.29822809
78	0x3eab79d9	0.334914
79	0xbe82b411	-0.25528005
80	0x3eed2240	0.46315193
81	0x3ede0b8c	0.43368185
82	0xbe430868	-0.19046175
83	0x3e68fc48	0.22752488
84	0x3eba2732	0.3635803
85	0x3ed3bf17	0.41356727
86	0x3e737c10	0.23777795
87	0x3f30f925	0.69130164
88	0x3ee231c2	0.44178587
89	0x3e9980c9	0.29981068
90	0x3d41a6f8	0.047278374
91	0x3f3a9205	0.7287906
92	0x3e158a70	0.14603591
93	0x3eb869e6	0.36018294
94	0x3ba11b71	0.0049166013
95	0xbe136a85	-0.14396103
96	0xbebf251b	-0.37332997
97	0x3f710c79	0.94159657
98	0x3ebb425b	0.36574063
99	0x3ee221f2	0.44166523
100	0x3e7953fc	0.24348444
101	0xbe954f8f	-0.2916226
102	0x3f21cc73	0.6320259
103	0x3e49de00	0.19713593
104	0x3e3e90d7	0.1860994
105	0x3e4ceed6	0.20012984
106	0x3fa934e4	1.3219266
107	0x3ea27a10	0.3173375
108	0x3d449cc3	0.048001062
109	0x3eabcb79	0.33553675
110	0xbe985646	-0.2975332
111	0x3e67c530	0.22633815
112	0xbf10be0a	-0.56539977
113	0x3eca8520	0.3955469
114	0xbeb9634b	-0.36208567
115	0xbe145f9e	-0.144896
116	0xbea7b7aa	-0.32757312
117	0xbe7f7e39	-0.24950494
118	0x3ea5ed16	0.32407445
119	0x3dbf1789	0.09330661
120	0xbea3b303	-0.31972513
121	0xbe208661	-0.15676261
122	0xbe9e676e	-0.30938286
123	0x3e3bf183	0.18353848
124	0x3ed13eb8	0.40868163
125	0x3edb40f8	0.42823005
126	0xbef5bffa	-0.4799803
127	0x3e99506b	0.29944167
128	0xbe9b42ac	-0.30324304
129	0x3dcb7c9f	0.09935879
130	0xbe03c6fb	-0.12868874
131	0x3e56f7e9	0.20993008
132	0x3ecd409d	0.4008836
133	0x3f0bf678	0.54672956
134	0x3dce6c79	0.10079283
135	0x3ec97ce8	0.39353108
136	0x3eab397d	0.33442298
137	0xbe8925a9	-0.26786545
138	0x3eb1a844	0.3469869
139	0x3d83ce41	0.06435824
140	0xbe9416ba	-0.2892359
141	0xbf2079f7	-0.62686104
142	0xbecd40cf	-0.40088508
143	0xbe9a4823	-0.3013316
144	0xbee1d1b2	-0.44105297
145	0x3ec0622e	0.37574905
146	0x3efb6abb	0.49104866
147	0xbf1895d5	-0.59603626
148	0xbe10fb7e	-0.14158437
149	0xbebcd49c	-0.36880958
150	0xbc5d99ed	-0.013525468
151	0x3e24a8d5	0.1608003
152	0x3ed3a092	0.41333443
153	0xbecbe97a	-0.39826566
154	0xbd1278f3	-0.035759877
155	0x3ea2088e	0.31647152
156	0xbea0b671	-0.31389192
157	0x3eb3a8e3	0.35089788
158	0x3ea72b56	0.3265025
159	0xbe91b803	-0.28460702
160	0x3e744c3b	0.23857205
161	0x3f07da87	0.5306782
162	0xbf6f5e14	-0.93502927
163	0xbe26b663	-0.16280513
164	0xbec6ec7d	-0.388523
165	0xbf0b6435	-0.5444978
166	0xbeb1150d	-0.34586373
167	0x3e7c3000	0.24627686
168	0xbe931c75	-0.28732648
169	0xbe5ce327	-0.21571027
170	0xbe450240	-0.1923914
171	0xbe0f25d7	-0.13979279
172	0xbe8aa57c	-0.2707938
173	0x3e276f4b	0.16351049
174	0x3e92acc4	0.28647435
175	0xbe782a5a	-0.24234906
176	0xbc989eea	-0.018630464
177	0xbdd62bc6	-0.10457568
178	0x3e22ede3	0.15911059
179	0xbe91f22c	-0.28505075
180	0x3e903f34	0.2817322
181	0x3f25ccae	0.6476544
182	0x3e6cdb01	0.23130418
183	0x3e6f64a5	0.23378237
184	0x3e44afc3	0.19207673
185	0xbe2c1a5d	-0.16806932
186	0x3eacd43b	0.3375567
187	0xbee09d36	-0.43869942
188	0xbe74e213	-0.23914365
189	0x3e94a1b5	0.29029623
190	0xbe98d823	-0.298524
191	0xbe143b7b	-0.14475815
192	0xbe657a6e	-0.22409984
193	0xbe3d6364	-0.18494946
194	0xbf86d441	-1.0533525
195	0xbcf5a667	-0.029986573
196	0xbe8cbb72	-0.2748676
197	0xbe8554ab	-0.2604116
198	0xbf083ef8	-0.5322108
199	0xbe5c8942	-0.21536735
200	0xbe6fe362	-0.23426583
201	0xbe8ce861	-0.2752104
202	0x3e845962	0.25849444
203	0x3e838af7	0.2569196
204	0xbf5dec16	-0.86688364
205	0xbe62a5e1	-0.2213359
206	0xbe82f6a3	-0.25578794
207	0xbe9e3052	-0.3089624
208	0x3e920cf6	0.28525513
209	0xbf0f27dd	-0.559202
210	0xbea2605a	-0.31714135
211	0xbe96ac9f	-0.29428574
212	0xbe2b9f40	-0.16759968
213	0xbf8c3fb5	-1.0956942

fc_2.bias f4 [2]
0	0xbe37db7d	-0.17954822
1	0x3e4c4fb8	0.19952285
