runs/0026_NN_1_bsz-128_lr-0.001_ep-100-desc-wt-dec-5e-4.pth (torch, 49768 bytes, 4 tensors)

fc_1.weight f4 [107, 107]
0	0xbe18e3aa	-0.14930597
1	0x3d5336d7	0.05156597
2	0xbc83d1a0	-0.016091168
3	0x3c309717	0.01077821
4	0x3e3cc7ca	0.18435588
5	0x3dae821a	0.08520909
6	0x3d7e095d	0.06202065
7	0x3e13cb9a	0.14433137
8	0xbe3f3aa7	-0.18674718
9	0xbb1be47a	-0.0023787306
10	0x3b8d0f23	0.004304783
11	0xbccdcd0c	-0.025122188
12	0xbc02e22d	-0.007988495
13	0x3d038907	0.0321131
14	0xbabe5640	-0.0014521554
15	0x3dd752b9	0.10513825
16	0x3b0dff28	0.0021666978
17	0xbc7cd8a3	-0.01543251
18	0xbcdb331d	-0.026757771
19	0xbdb8dc18	-0.090263546
20	0xbba84423	-0.0051350757
21	0x3d159a1d	0.036523927
22	0xbdda9143	-0.10672238
23	0xbd940f4c	-0.0722948
24	0x3d77e879	0.060524438
25	0x3d133e5d	0.035948146
26	0x3d86788a	0.0656596
27	0xbbf42437	-0.007450606
28	0xbc0e1b5e	-0.008673517
29	0x3c7a1aaf	0.015265151
30	0xbdb30a1c	-0.087421626
31	0x3e1b799f	0.15183114
32	0x3c86fe61	0.01647872
33	0xbe0c0263	-0.13672785
34	0x3d816b26	0.06319265
35	0xbc3b6f9d	-0.011440185
36	0x3dacffe1	0.084472425
37	0xbca57893	-0.020199096
38	0x3d833953	0.06407418
39	0xbd560095	-0.05224665
40	0x3b0db3c6	0.0021622046
41	0x3d838f9b	0.06423875
42	0xbd637f4b	-0.055541318
43	0xbbfd45b3	-0.007729256
44	0xbdce3813	-0.10069289
45	0xbd861a9a	-0.065480426
46	0x3d82c085	0.063843764
47	0xbaca741b	-0.0015445979
48	0x3c43ae6d	0.011943442
49	0xbc1db7b6	-0.00962632
50	0xbd61d94e	-0.05513888
51	0x3d5db89d	0.05413114
52	0x3df62c86	0.12020211
53	0xbdff3f20	-0.12463212
54	0x3de715de	0.11283468
55	0xbcd30bb6	-0.02576242
56	0xbdd17a25	-0.10228375
57	0x3e0a511a	0.135075
58	0x3d465234	0.04841824
59	0x3dd4234d	0.103582956
60	0xbdaf0dee	-0.08547579
61	0xbd95afa1	-0.07308889
62	0xbd0dd0d2	-0.034622975
63	0x3da51d44	0.080622226
64	0xbd5398e7	-0.05165949
65	0x3d48df9e	0.049041383
66	0xbd1426d4	-0.036169842
67	0xbd2928ee	-0.0412988
68	0xbd46e70e	-0.048560195
69	0xbc751efa	-0.014960999
70	0x3c15925a	0.009129131
71	0x3be5383d	0.0069952295
72	0xbbb03817	-0.00537778
73	0xbc9afeb1	-0.018920274
74	0x3c54e6b7	0.01299446
75	0xbcbb5b5e	-0.022870716
76	0xbc155679	-0.009114855
77	0x3d2ca63b	0.042150717
78	0x3c736ba0	0.014857203
79	0x3c048936	0.008089354
80	0xbce96511	-0.028490575
81	0x3c26c4fe	0.010178803
82	0xbc894d88	-0.016760603
83	0xbcbbb33a	-0.02291261
84	0x3d6762f3	0.05649085
85	0xbca67e75	-0.020323971
86	0xbcef757d	-0.029230827
87	0x3d2df47e	0.042469494
88	0x3d003622	0.031301625
89	0xbcde0e22	-0.027106348
90	0xba9065de	-0.0011016687
91	0x3d46f5fa	0.048574425
92	0xbc24666f	-0.010034188
93	0xbb4757ce	-0.0030417326
94	0xbbc00b93	-0.0058607548
95	0xbd9dda92	-0.077077046
96	0xbd10b4da	-0.035328723
97	0xbaa7d635	-0.0012804928
98	0x3d41f1e1	0.047349814
99	0xbc4248f4	-0.011858214
100	0x3d314a72	0.043283887
101	0x3d2e56f1	0.042563383
102	0xba9c2bd1	-0.0011914914
103	0xbc369422	-0.011143716
104	0x3d04de0e	0.03243833
105	0xbbe712a7	-0.007051784
106	0x3c535992	0.012899773
107	0x3ee50b46	0.44735163
108	0x3e37a718	0.17934835
109	0xbe2278cc	-0.15866393
110	0xbe797326	-0.24360332
111	0x3dadbd9a	0.08483429
112	0xbe647414	-0.22309905
113	0xbd56dd4c	-0.05245714
114	0xbd87148e	-0.06595717
115	0xbda62354	-0.08112207
116	0x3b53d50c	0.003232303
117	0x3c811fbc	0.015762202
118	0x3dbbdd8e	0.091731176
119	0xbd0cfbdd	-0.034419883
120	0x3e3714b7	0.17878996
121	0x3c959f22	0.018264357
122	0x3d2ac3ed	0.041690756
123	0x3d015346	0.031573556
124	0x3c911e9e	0.017714795
125	0x3d2bc67b	0.041937333
126	0x3d883a25	0.06651715
127	0x3d931086	0.07180886
128	0xbcb61459	-0.0222265
129	0x3dd4c487	0.10389047
130	0x3c391be4	0.011298154
131	0xbd8cbf8c	-0.06872472
132	0x3ca35c34	0.019941427
133	0x3d3f3f8e	0.04669147
134	0xbe4ab701	-0.19796373
135	0x3c4d9f72	0.012550222
136	0xba9886ad	-0.0011636816
137	0xbc604b35	-0.013689806
138	0x3d4ec3b1	0.050479595
139	0x3c9b06f2	0.01892421
140	0xbd663c9d	-0.05621015
141	0x3d745fde	0.05966174
142	0xbd2ea3f7	-0.042636838
143	0x3e4c4be4	0.19950825
144	0x3d9c83d8	0.07642335
145	0xbd4a2ed7	-0.049361076
146	0x3e5e01f0	0.21680427
147	0x3cb09f7a	0.02156042
148	0xbd79d8cf	-0.06099778
149	0xbd039f96	-0.032134615
150	0xbe2a1dcd	-0.1661293
151	0xbe2f72fe	-0.1713371
152	0xbd9300f0	-0.07177913
153	0x3d0e88c0	0.034798384
154	0x3d1595c7	0.036519792
155	0x3dc927a9	0.09822018
156	0xbce6ec01	-0.028188707
157	0x3d448a40	0.047983408
158	0xbd8a930b	-0.067663275
159	0xbdc975c8	-0.09836918
160	0x3d09b458	0.033619255
161	0x3dbd7c56	0.09252231
162	0xbe39b1cc	-0.1813423
163	0xbe3cc2d1	-0.18433692
164	0x3df0ebfa	0.11763759
165	0xbd92462e	-0.07142292
166	0xbdaf5b9f	-0.08562397
167	0xbe1600d3	-0.14648752
168	0x3d987a59	0.07445211
169	0xba1a3f46	-0.0005884062
170	0x3d6433fb	0.055713635
171	0x3e037f9f	0.12841652
172	0xbe0a9160	-0.13532019
173	0x3ceb8316	0.02874903
174	0x3d410348	0.04712227
175	0x3d652dc8	0.055951864
176	0x3d0fcc02	0.035106666
177	0xbcec1994	-0.02882079
178	0x3d689b46	0.056788705
179	0xba0306b7	-0.0004998254
180	0x3dc01c80	0.09380436
181	0x3d03339b	0.032031637
182	0x3d18fd6b	0.037351053
183	0x3cc53b60	0.024076164
184	0xbc759285	-0.014988546
185	0x3d2c557f	0.042073723
186	0x3dca2b7e	0.09871577
187	0xbd12ec59	-0.03586993
188	0x3b90fde3	0.004424797
189	0x3d81f334	0.063452154
190	0xbc22baf6	-0.00993227
191	0xbd17f12a	-0.037095226
192	0x3cbb1722	0.022838179
193	0x3c220a41	0.00989014
194	0xbe107605	-0.14107521
195	0xbbf781b6	-0.0075533045
196	0x3bd82fab	0.0065974793
197	0x3b79c7fa	0.003811358
198	0x3d77d448	0.06050518
199	0x3d2619c0	0.0405519
200	0x3c8d1758	0.017223045
201	0xbc091732	-0.008367347
202	0x3da679f6	0.08128731
203	0xbcda1bb1	-0.026624532
204	0xbd3fe604	-0.04685022
205	0x3c07df94	0.008293051
206	0x3c3bb795	0.011457344
207	0x3c3aa3d1	0.011391596
208	0xbc69b864	-0.014265154
209	0x3bff57da	0.007792455
210	0x3cdc1472	0.026865218
211	0x3c2c5bcb	0.010519932
212	0x3b3ea976	0.0029092706
213	0x3d73c9d6	0.059518658
214	0xbdf7c024	-0.12097195
215	0x3e9bb2aa	0.30409747
216	0xbcfd3334	-0.030908205
217	0x3ad2144f	0.0016027781
218	0xbdadf0e5	-0.084932126
219	0xbcab1a09	-0.020886438
220	0xbd68e3d3	-0.056857895
221	0x3c772c60	0.015086263
222	0x3de8a26a	0.11359103
223	0xbba00932	-0.0048839087
224	0xbc8a2408	-0.016862884
225	0xbc551476	-0.013005367
226	0x3bc884e4	0.0061193574
227	0xbd11be93	-0.035582136
228	0xbc0d5cbc	-0.008628067
229	0xbd80a135	-0.06280748
230	0xbcd938fb	-0.026516428
231	0xbe0fdab1	-0.14048268
232	0x3d157a02	0.03649331
233	0xbd1debe2	-0.038555034
234	0x3d90a892	0.07063402
235	0x3dcbd33c	0.09952399
236	0xbc971005	-0.018440256
237	0xbe29379f	-0.16525124
238	0x3c4c2f0b	0.012462388
239	0xbddf0fc1	-0.10891677
240	0xbd27b6b5	-0.040945727
241	0x3d99c5b6	0.075084135
242	0xbbbe6645	-0.0058105313
243	0xbd9b7845	-0.07591299
244	0x3e06c346	0.13160428
245	0xbd88c115	-0.066774525
246	0x3d003087	0.03129628
247	0x3da64b69	0.08119852
248	0xbd169f76	-0.036773168
249	0xbc938187	-0.0180061
250	0x3c953310	0.018212825
251	0xbda7c4a0	-0.081918
252	0xbd662bf0	-0.056194246
253	0x3cff9080	0.031196833
254	0xbb08c768	-0.0020870809
255	0x3d7e3c14	0.062069014

fc_1.bias f4 [107]
0	0xbd1b5201	-0.037920002
1	0xbe8ab5e7	-0.27091905
2	0x3d21f240	0.03953767
3	0xb8f9ecd0	-0.00011917355
4	0xba329693	-0.00068125984
5	0xbd209529	-0.03920475
6	0xbc257edc	-0.010101046
7	0xb9973504	-0.00028840464
8	0xbcde15b6	-0.027109962
9	0x3d1ba459	0.03799853
10	0xbe8a1860	-0.26971722
11	0xbe1635b5	-0.14668925
12	0xbe41c24f	-0.18921779
13	0xbe5b8e9e	-0.21441123
14	0xbd8d521c	-0.06900427
15	0x3d4becab	0.04978625
16	0xbd183cba	-0.03716729
17	0xbd1bd52d	-0.038045097
18	0x3c295b8e	0.01033677
19	0xbc8a88ef	-0.016910998
20	0xb99190bc	-0.0002776439
21	0xbdfb799c	-0.122790545
22	0x3db8b060	0.09018016
23	0xba51d2c5	-0.00080041244
24	0xbd5477c2	-0.051872022
25	0xbc2c74e6	-0.010525918
26	0xbc797ae7	-0.015227056
27	0x3d9b32d7	0.07578056
28	0xbd047f46	-0.03234794
29	0xbbd3d5fa	-0.006464717
30	0xbe457beb	-0.19285552
31	0xbd418ea6	-0.04725518
32	0x3cbee3b4	0.023301937
33	0xbdf19ad3	-0.117971085
34	0xbd690b54	-0.05689557
35	0xbda4aa17	-0.080402546
36	0xbbb83628	-0.0056216903
37	0x3ca5d2e9	0.020242171
38	0xb81c0758	-3.7200138e-05
39	0x3d815300	0.06314659
40	0xbc318a9b	-0.010836269
41	0xbd620508	-0.05518058
42	0xbe29642d	-0.1654212
43	0xbe29067b	-0.16506378
44	0xbe35b325	-0.1774412
45	0x3d302804	0.043006912
46	0xbd39f8c1	-0.045403246
47	0x3ce27e48	0.027648106
48	0xbba2edec	-0.00497221
49	0xbe7f3254	-0.24921542
50	0xb8c44abc	-9.359929e-05
51	0x3d66bb1b	0.05633078
52	0x3d7ae2e7	0.061251547
53	0x3d0ce2fe	0.034396164
54	0x3d519b56	0.05117353
55	0xbc07c8a5	-0.0082875835
56	0xbe488710	-0.19582772
57	0xbd3f5b84	-0.046718135
58	0xbd6daeb3	-0.058027934
59	0xbc421f41	-0.011848272
60	0xbe2e70c6	-0.17035207
61	0xbcae7afd	-0.02129888
62	0xbb9cfcac	-0.004790863
63	0x3ceb39a2	0.028714005
64	0xb8b4715a	-8.604182e-05
65	0xbdb6d331	-0.08927
66	0xbe12df34	-0.14342958
67	0xbaad19f0	-0.0013206583
68	0xbddbb9ed	-0.10728822
69	0xb905a1a0	-0.00012744078
70	0xbc9753fd	-0.018472666
71	0xbe9361cc	-0.2878555
72	0xbdb9d692	-0.09074129
73	0xbe121f1d	-0.14269681
74	0xbccbee23	-0.024893826
75	0xbc10f511	-0.008847491
76	0xbe458493	-0.19288854
77	0xbe1f5f95	-0.15563805
78	0x3d9b2f34	0.07577363
79	0xbd8549de	-0.0650823
80	0xbd4e295f	-0.050332423
81	0xbe1bb144	-0.1520434
82	0xbe57099f	-0.20999764
83	0xbd28f950	-0.041253388
84	0xbd7144a4	-0.05890335
85	0xbdcbdf24	-0.0995467
86	0xbc81af8e	-0.015830781
87	0xbdbe2f76	-0.09286396
88	0x3dd08e8e	0.1018344
89	0x3de5e401	0.11225129
90	0xbceeb033	-0.029136753
91	0xbce36f99	-0.027763175
92	0xbafaa838	-0.001912362
93	0xbda550db	-0.080720626
94	0xbdce4441	-0.10071612
95	0xbd302c82	-0.043011196
96	0xb92e5060	-0.00016623875
97	0xbcd74409	-0.026277559
98	0xbcb57dd5	-0.022154728
99	0x3cc46e9a	0.02397852
100	0xbe0563ff	-0.13026427
101	0x3d1765f4	0.036962464
102	0xbc69ec4d	-0.01427753
103	0xbd02ac03	-0.031902324
104	0xbd96fc1a	-0.07372303
105	0xbda1ca9d	-0.078999735
106	0xbe05df00	-0.13073349

fc_2.weight f4 [2, 107]
0	0xbe443c8f	-0.19163726
1	0x3e9eb9e6	0.31001204
2	0xbde23c67	-0.11046677
3	0x38222f06	3.8667604e-05
4	0xb79cb9fc	-1.8683255e-05
5	0x3e936e58	0.28795123
6	0x3a8cf3f5	0.0010753857
7	0xb9a26806	-0.0003097655
8	0x3ba6e4e2	0.005093203
9	0xbe6c7369	-0.230909
10	0x3eb77354	0.35830176
11	0x3e98f2ef	0.29872844
12	0x3e8e362b	0.27775702
13	0x3e88875c	0.2666577
14	0x3eb59b77	0.35470173
15	0xbe9e9fac	-0.30981195
16	0x3de9f129	0.11422951
17	0x3e643830	0.22287059
18	0x3eb8f487	0.3612406
19	0x3b09019f	0.0020905507
20	0xb79d6877	-1.8764504e-05
21	0x3ee20591	0.44144872
22	0xbe738c97	-0.237841
23	0xbe713733	-0.23556213
24	0x3ea3d4d9	0.31998327
25	0x3eb77c10	0.3583684
26	0x3a692372	0.00088935264
27	0x3eae669b	0.34062657
28	0x3eadadc8	0.33921647
29	0xb9d501db	-0.00040627908
30	0x3e923bbc	0.285612
31	0xbed34cc6	-0.4126951
32	0xbe749a1a	-0.2388691
33	0xbeb0f14d	-0.34559098
34	0x3ead27a5	0.3381931
35	0xbe9c6460	-0.3054533
36	0x3ebcf55d	0.36905947
37	0xbe9de895	-0.30841509
38	0xb704b511	-7.909971e-06
39	0xbe79d623	-0.24398093
40	0x3e9da918	0.3079307
41	0x3ead8f16	0.33898228
42	0x3e838556	0.25687665
43	0x3ec5d8f4	0.38642085
44	0xbe60c068	-0.21948397
45	0xbe781799	-0.24227752
46	0x3e8e0ae7	0.27742693
47	0xbe9fd550	-0.31217432
48	0xb9ee6457	-0.00045469656
49	0x3ee771a8	0.452039
50	0xb9c47a11	-0.0003747498
51	0x3e8b319f	0.27186295
52	0xbe9e4b3e	-0.3091678
53	0xbebbdfe6	-0.36694258
54	0xbdc631a9	-0.09677441
55	0xba7e3f12	-0.0009698729
56	0x3ea8657d	0.3288993
57	0xbe8a88c3	-0.27057466
58	0xbde9445b	-0.11389991
59	0x39d32d41	0.00040278773
60	0xbe4a4d68	-0.1975609
61	0xbebd7ed2	-0.3701082
62	0xb7e1a1b2	-2.6897385e-05
63	0xbe9a4933	-0.30133972
64	0x37b2bf86	2.1308439e-05
65	0xbe9a388c	-0.30121267
66	0x3ec956ac	0.39323938
67	0xb97cfe0b	-0.00024127231
68	0x3e37d60b	0.17952745
69	0x3698f238	4.558151e-06
70	0x3e27f5a4	0.16402298
71	0x3e95b466	0.29239196
72	0x3e482131	0.19543912
73	0x3ec1fb2b	0.37886938
74	0xb8dd8aeb	-0.00010563977
75	0xbef3c713	-0.4761282
76	0x3e16dc94	0.14732581
77	0x3ea77627	0.3270733
78	0x3ebe803b	0.37207207
79	0xbe960c05	-0.29306045
80	0x3e8e8533	0.27835998
81	0x3e9eeab4	0.3103844
82	0xbe6f1934	-0.23349458
83	0xbb613809	-0.0034365675
84	0x3dfe77a6	0.12425165
85	0x3ee134b4	0.43985522
86	0xbb211e08	-0.002458455
87	0x3eb11c8e	0.34592098
88	0xbebbc7e2	-0.36675936
89	0xbe8f3738	-0.27971816
90	0xbb1ba551	-0.002374966
91	0xbead6caa	-0.33871967
92	0xb8733f0a	-5.7994424e-05
93	0x3e9ee380	0.31032944
94	0xbe8e7fe0	-0.27831936
95	0x3e27b4fc	0.16377634
96	0xb8f58672	-0.00011707553
97	0x3b656841	0.0035004767
98	0xbea7c410	-0.3276677
99	0x3e9caa22	0.3059855
100	0x3e785f3d	0.2425508
101	0x3e8715c7	0.26383802
102	0xb9fb4e30	-0.00047932705
103	0x393b1a16	0.00017843427
104	0x3e3879c0	0.18015194
105	0xbe81e679	-0.2537115
106	0x3e968d1b	0.2940453
107	0x3e3fcc9f	0.187304
108	0xbed23adf	-0.4106054
109	0x3e56de01	0.20983125
110	0x383bb418	4.4752e-05
111	0x38488207	4.7804813e-05
112	0xbe3f9c66	-0.18712005
113	0xba995dc9	-0.0011700924
114	0x39a4f44b	0.0003146253
115	0xbbaa53ab	-0.0051979623
116	0x3e2e4135	0.17017062
117	0xbeabf768	-0.33587193
118	0xbe2f1672	-0.17098406
119	0xbeaf024f	-0.3418145
120	0xbe9b0ef4	-0.30284846
121	0xbe972043	-0.295168
122	0x3e41c5aa	0.18923059
123	0xbe238bfa	-0.15971366
124	0xbe8cf67f	-0.27531812
125	0xbecb317a	-0.39686185
126	0xbb0d91fb	-0.0021601904
127	0xb7b9f7a3	-2.2169033e-05
128	0xbeef7d1c	-0.46775138
129	0x3e935d69	0.28782204
130	0x3e7cc7e7	0.24685632
131	0xbe94039d	-0.28909007
132	0xbeb98b7f	-0.3623924
133	0xba55e77f	-0.0008159801
134	0xbeb21532	-0.34781796
135	0xbe7d0948	-0.24710572
136	0x39b1c803	0.0003390909
137	0xbed3692a	-0.4129117
138	0x3eb75eec	0.35814607
139	0x3e730a02	0.23734286
140	0x3eb38df9	0.35069254
141	0xbead44f8	-0.3384168
142	0x3e797294	0.24360114
143	0xbed0e589	-0.4080012
144	0x3e8cc494	0.27493727
145	0x37c39228	2.331387e-05
146	0x3e9844e2	0.29740053
147	0xbe9785e0	-0.29594326
148	0xbeb42965	-0.35187832
149	0xbe7da323	-0.24769263
150	0xbe9e23ad	-0.30886593
151	0x3e9baada	0.30403787
152	0x3e5676e6	0.20943794
153	0xbeaa81aa	-0.3330205
154	0x3ea96be1	0.33090118
155	0x3a4d2ae2	0.00078265194
156	0xbed56648	-0.41679597
157	0x39dc72d1	0.00042047215
158	0xbeb3c6f5	-0.3511273
159	0x3eacdef5	0.33763853
160	0x3e9a4b06	0.30135363
161	0x3e02c5a5	0.12770708
162	0x3a759adf	0.0009369086
163	0xbeb1cd6e	-0.34727043
164	0x3e9f65f4	0.31132472
165	0x3dee3213	0.11630645
166	0xb9f59f04	-0.00046848517
167	0x3e8748e1	0.2642279
168	0x3eb6aea0	0.35680103
169	0xb5e644ec	-1.7156394e-06
170	0x3e4f9e7f	0.20275305
171	0x3860537d	5.3483516e-05
172	0x3eada7cf	0.3391709
173	0xbecd1326	-0.40053672
174	0xb94f57fc	-0.00019773835
175	0xbe9f213d	-0.31080046
176	0x379136e4	1.7310907e-05
177	0xbdbaaa1d	-0.09114478
178	0xbea691b5	-0.3253304
179	0xbe4fc483	-0.20289807
180	0xbecb7020	-0.39733982
181	0xb97e733b	-0.00024266254
182	0x3ef12f56	0.47106427
183	0xbe1fc0c6	-0.15600881
184	0xbe9a8e29	-0.30186585
185	0xbe8de9b7	-0.27717373
186	0x3ea215a8	0.31657147
187	0xbe9d5a21	-0.30732825
188	0xbe8e8151	-0.27833036
189	0x3e1375f9	0.14400472
190	0x3b61fe85	0.003448398
191	0xbe27152a	-0.16316667
192	0xbed4ed65	-0.41587368
193	0x3b1cbeb8	0.0023917388
194	0xbe8eeb40	-0.27913857
195	0x3ebc26db	0.36748394
196	0x3e84a2bb	0.25905403
197	0x3b234d72	0.0024917987
198	0x3eacf212	0.33778435
199	0x386d26d3	5.654136e-05
200	0xbe8291e1	-0.25501922
201	0x3e8f607d	0.28003302
202	0xbe2d00f6	-0.16894898
203	0xb8de2cde	-0.00010594142
204	0xbb8440ca	-0.004036044
205	0x3e8f2b47	0.27962705
206	0xbea6ea72	-0.32600743
207	0xbe805c94	-0.25070632
208	0xbe884aff	-0.26619717
209	0x39da7ad2	0.00041671708
210	0xb8dff3a7	-0.000106788524
211	0xbe2c9df3	-0.16857128
212	0x3e9aca2b	0.30232367
213	0xbe84ac2f	-0.25912616

fc_2.bias f4 [2]
0	0xbda41a5b	-0.080128394
1	0x3dbe2944	0.092852145
