runs/0027_NN_1_bsz-8192_lr-0.001_ep-100-desc-wt-dec-5e-4.pth (torch, 49776 bytes, 4 tensors)

fc_1.weight f4 [107, 107]
00000000: d17e 9dbd 5354 75bd 7312 383d 3898 93bd
00000010: 46bb dcbc cfaa 86be e0d3 c73d e544 493a
00000020: b5cc c73d c8d3 3fbd d111 b7bd 285a 3ebd
00000030: 04d1 dbbc f873 5b3c 5927 a33d e4ba 88bd
00000040: bcdf d63d 3c7d 263d 0515 29bd e263 f73c
00000050: 0755 f0bd ebb6 e13d fa47 59bd e915 c9bd
00000060: 1dc7 c73d 9cdd 94bd 5b85 083e cc46 29be
00000070: 96c6 1ebd b2ee e3bd d324 21be b7d5 273e
00000080: 71bf 06bd ecce 1dbe 27d3 7b3d ccdd 96bd
00000090: b6fc 1b3c e4e8 4dbe b676 20bd c22d f73d
000000a0: 416f a93d 558a d83d e895 9e3d 26dd 8fbd
000000b0: 784b 193d b934 0a3e 6c4c 183e 9f41 ef3d
000000c0: fec0 b33c 97b4 c3bc c089 aabd 158c e53c
000000d0: 6a1b 183e 9998 cabd e019 293e 951c 233d
000000e0: ce31 01be 39fd b1bc c73c 16be af5d 21be
000000f0: f1d4 a83d 9eaf 82bd 5d70 13be 3bff 6a3d
00000100: dca8 c4bd 6af5 043d f62a 5dbb 2561 80bd
00000110: 40f9 0fbe f09d 013d 6c0f 0c3e b3cf 4a3c
00000120: 3bd7 973d 4ec8 043e 7158 a8bc c262 99bd
00000130: b88b 70bd d4f4 e7bc 6871 0e3d 326d 82bd
00000140: ad62 213d 8670 7e3c 4a04 c73c facd 863d
00000150: eb0e 003e 92d4 9dbd 9164 5d3c ab94 833d
00000160: 69db 82ba 23fe a83d 391b 68bd 3d33 bd3c
00000170: 9471 aa3c 586d 1bbd 95a0 b23d a189 4cbc
00000180: 0953 173e b76a cbbd 3e78 bb3c 6825 153d
00000190: 6bc4 6abd 3c12 4d3d 3df1 323d 5806 11bd
000001a0: 7bd2 38bd 6116 eb3d 55e7 a83c fe00 0dbe
000001b0: 3b5c 11bd 31d7 ca3c 038b 0dbd 8ae5 a3bc
000001c0: d94e 983d 2ed3 1ebd c081 b03d 62d7 9bbd
000001d0: 5af8 f7b9 bfae 08bd 452f 8ebc 557d 86bd
000001e0: e70a 153d d4aa 6fba 2f74 c83d 2ec5 253d
000001f0: 39a4 d03c d48b 9cbc ced3 4c3d de0e a33d
00000200: e0ab 87bd c868 ebbc 05e1 a33d e5f9 5b3d
00000210: e9d4 82bc dfb8 ae3c 99ac 043d 7a62 013d
00000220: 4c76 a73b 2898 633d 7ee3 443d bb37 68bc
00000230: 807b 1dbe 9da1 1bbc 28e8 80bc 3f1b 4d3d
00000240: 12ac 4b3d 1c1c 23bd b3c1 40bd bcb1 d7ba
00000250: 2712 6f3c f331 3bbe 631d 6dbc 9990 3b3d
00000260: 2706 563c ec88 e33d a7e8 c3bc fa23 c23d
00000270: d6e2 a43d 82d4 523d c9e7 02bd 4fc8 d1bd
00000280: 7607 b1bd 114e 53bc 17a7 e3bc 9b00 80bd
00000290: e19f b9bc 02b3 ecbd 1f8b 8dbd e4f0 a7bc
000002a0: ef24 26bd d1a9 a53c cc9b 153c 23c8 923d
000002b0: 80dc ecbd 2d89 c8bc 1c52 7f3c 0832 133d
000002c0: 0fc1 193d ed98 8ebc 900d 003b 6b20 293c
000002d0: 39ab 5c3c 3c50 2ebc 777d e0bb 4082 e9bb
000002e0: 470b 723d 51a8 b83c f114 f5bc 1848 2e3d
000002f0: 0c23 8bbb 4eea 853c 2d15 d0bb 41e1 6cbd
00000300: 189c e03a 418b ad3c 208c 2d3d 38f2 863b
00000310: 6e9e 19bd 67c9 983c 76ce 883d 3864 e73c
00000320: 6b6d a63b 011f 843c a14b b4bd 4a62 75bd
00000330: d774 5dbd e0d7 643c c76b 663c ea4f c93c
00000340: de8a 25bd 4c6b 8c3c 1b8e cb3c e0bb 8fbd
00000350: 5c53 5bbc 1e02 853c b74a adbe 2206 903d
00000360: 3ff3 86bd e6be 71be a8e7 67bd 1b80 78be
00000370: 6201 863d 3cc4 ce3d f214 31bd b5de f7bb
00000380: 2220 813c c3ac 84bb 560f 683c 0a3e d6bd
00000390: 106a 25bc f551 0a3e 2638 a6bd 7eff 8a3d
000003a0: 360b 913c c4bb d7bd f69d 98bd ccea 4abd
000003b0: 1831 c5bd 367b 423d 5b0e 2f3d ae6c 9ebd
000003c0: a46b 8f3d a1dd f7bd a2e7 c8bc 1770 d4bc
000003d0: 6e22 f4bd 37a5 99bb 93fe bcbc 16ed dcbc
000003e0: 7306 963c 053d 7ebc bd97 713d 7d6a b63d
000003f0: f2ff d9bd afd1 663d d513 f73b 88f6 c43b
-0.07690204 -0.05989487 0.04493947 -0.07206768 -0.026944768 -0.26302192 0.09757209 0.00076778076
0.09755842 -0.04683283 -0.08938945 -0.0464727 -0.026833065 0.013394348 0.07966489 -0.066762716
0.10491893 0.040646777 -0.04127981 0.030198995 -0.11734968 0.11021217 -0.053047158 -0.09818632
0.09754775 -0.07268831 0.13332121 -0.16530913 -0.038763605 -0.11129512 -0.15736704 0.1639012
-0.032897417 -0.15410966 0.061480667 -0.07366523 0.0095207 -0.20108372 -0.03917571 0.120692745
0.08273173 0.1057326 0.07743436 -0.070246026 0.03742549 0.13496675 0.14872903 0.11682438
0.021942612 -0.023889823 -0.08327055 0.028020898 0.14854208 -0.09892387 0.16513777 0.03982218
-0.12616655 -0.021727191 -0.14671622 -0.15758394 0.0824374 -0.063811526 -0.14398332 0.057372313
-0.0960252 0.032460608 -0.003374753 -0.06268529 -0.14059925 0.03164476 0.13677758 0.012378621
0.07414099 0.12967035 -0.020549985 -0.0748954 -0.058726996 -0.028314985 0.03477612 -0.063684836
0.039400745 0.015529757 0.024294037 0.06582256 0.12505691 -0.0770656 0.013512746 0.064248405
-0.0009983602 0.08251598 -0.056666587 0.023095721 0.020806111 -0.037946075 0.08722035 -0.012483985
0.14777769 -0.099324636 0.022884484 0.036412627 -0.057316225 0.050066218 0.043687094 -0.03540644
-0.045122605 0.11478878 0.02061812 -0.1376991 -0.03548835 0.024760814 -0.0345564 -0.020006914
0.07436914 -0.038775615 0.08618498 -0.076094404 -0.00047296548 -0.033369776 -0.017356524 -0.06566874
0.03638735 -0.0009142582 0.09787785 0.04047125 0.025468932 -0.019109644 0.05000668 0.0796182
-0.066245794 -0.028736487 0.080019034 0.053705115 -0.015970664 0.021328388 0.032391164 0.031588055
0.0051105376 0.05556503 0.048068516 -0.014173443 -0.15379143 -0.009498981 -0.0157357 0.050074812
0.049724646 -0.03982173 -0.047059726 -0.0016456167 0.01459173 -0.18280773 -0.014472338 0.045792196
0.01306299 0.111101 -0.023914648 0.09479518 0.08051078 0.051472194 -0.03195933 -0.10243284
-0.08644001 -0.01289703 -0.027789636 -0.062501155 -0.022659244 -0.115575805 -0.06911301 -0.020500608
-0.040562566 0.020222576 0.009131383 0.07167079 -0.115654945 -0.024479473 0.015583541 0.035936385
0.03753763 -0.017406905 0.0019539334 0.01032267 0.013468557 -0.010639247 -0.006850894 -0.0071261227
0.059092786 0.022541197 -0.029917212 0.042549223 -0.0042461213 0.016347077 -0.0063501806 -0.057832006
0.0017136363 0.021184565 0.04236996 0.00411823 -0.037504606 0.018650724 0.06680004 0.02824603
0.0050789616 0.016128065 -0.088034876 -0.05990819 -0.054066505 0.013967484 0.014063782 0.024574239
-0.040415637 0.017141007 0.024848035 -0.07018256 -0.013386574 0.016236361 -0.33846065 0.0703242
-0.06589364 -0.23607978 -0.05661741 -0.24267618 0.065432325 0.100960225 -0.043232866 -0.0075643905
0.015762392 -0.004048915 0.014163813 -0.10461052 -0.010096088 0.13507827 -0.08116178 0.067870125
0.017705541 -0.1053386 -0.07452004 -0.049540326 -0.096285045 0.047480784 0.0427383 -0.07735573
0.07002953 -0.12102819 -0.024524514 -0.025932355 -0.119206294 -0.0046888846 -0.02307061 -0.02696852
0.018313622 -0.015517478 0.0589826 0.0890703 -0.10644521 0.056352314 0.007540206 0.006010834

fc_1.bias f4 [107]
00000000: 3bd9 253d 012b 203d 62b6 b53d 40b9 3cbc
00000010: 951d 173d d042 2b3d f780 053d 0aaa 083a
00000020: 48e8 813d 2a37 e33b fe55 573b aebd 563d
00000030: 82b0 1f3c 447a f83d 1dc0 b53c 8ffa 553d
00000040: 0725 203d dc60 efbb 16ce e6bb 6f89 303d
00000050: 877b 153d 7a6c 5e3d 6e1a 243b 9ea9 79bc
00000060: 4fc8 3c3c c008 9d3b a389 8f3d b8b5 22bb
00000070: b5c0 623d ae4a 9abb 4618 853d e58d 8d3a
00000080: cc21 683d 47fa 40bb 150b a83d 6a78 453d
00000090: 3066 0c3d 2e1f 4d3d 6b0d 4e3d a4b0 093b
000000a0: fe69 e43c 086a 3abc 1c58 823b cc72 26bc
000000b0: 406a 3a3d 8ace 5c3d 7add 16bc d605 ebba
000000c0: bbc3 2abc 874b f93c e90b 8d3d 720a 5a3d
000000d0: dcc2 5b3d 669f 1bbc 8a27 043d 4ad6 b3bc
000000e0: f23a 20bc c642 4fbc 7a46 873c e6e6 063d
000000f0: a414 40bb acc6 7e3b f10e 0e3d a989 92bc
00000100: 3355 5f3d 5ec4 8abb 626a 3dbc 6b6e a93d
00000110: 0123 483d 6e05 203d b869 4f3d 056c f63b
00000120: 8e9d ad3d 9cf9 3b3d 403c 543d 32c6 9c3a
00000130: a500 b2bb 2507 7f3c 1040 c3bb 3e93 9bbc
00000140: 57c2 383d 17a7 10bc ab2a b1bb 7852 6e3d
00000150: ac68 9a3b fcb6 153d 54fb 453d bda9 86bc
00000160: 28ff 283d 86fd 5e3d 97d1 7fbc 00ed 563d
00000170: 0d77 703d f817 92bc a036 443d 9204 50bc
00000180: 2109 1d3d 4378 6a3b 0e26 713d bb30 aabb
00000190: e81a 5f3d bf84 62bc 143b 783d ddd3 cb3b
000001a0: ada0 4f3d 4c87 a5bb f0c7 97bb
0.04049037 0.03910351 0.088726774 -0.011518776 0.036893446 0.041811764 0.032593694 0.0005213326
0.06343132 0.0069340663 0.0032857652 0.052426986 0.009746673 0.12132695 0.022186333 0.052240904
0.039097812 -0.0073052477 -0.0070436103 0.043099817 0.036494758 0.05430267 0.0025040167 -0.015238194
0.011522367 0.004792303 0.07008674 -0.002482755 0.05535956 -0.0047086095 0.064987704 0.0010799734
0.056672856 -0.0029446052 0.08205239 0.04821054 0.03427714 0.050078563 0.050305765 0.0021009827
0.027882572 -0.011377819 0.0039777886 -0.010159206 0.045511484 0.05390791 -0.009208078 -0.0017930816
-0.010422642 0.030431522 0.06887037 0.053232618 0.05365263 -0.009498453 0.03226427 -0.021952767
-0.009779679 -0.012650197 0.016513098 0.032935046 -0.0029309178 0.0038875742 0.034682218 -0.017887907
0.05452461 -0.0042348346 -0.011561008 0.08273014 0.048861507 0.03906768 0.05063793 0.007520201
0.08477317 0.045892343 0.05181527 0.0011960922 -0.0054322057 0.015565668 -0.0059585646 -0.018991109
0.045107212 -0.0088289 -0.0054066977 0.058184117 0.004712185 0.03655146 0.04833539 -0.01643836
0.04125896 0.054440998 -0.015613935 0.052472115 0.058707286 -0.017833695 0.047903657 -0.012696402
0.038338784 0.0035777248 0.058874182 -0.0051937974 0.05446902 -0.013825594 0.060603216 0.0062203244
0.05069034 -0.005051529 -0.0046319887

fc_2.weight f4 [2, 107]
00000000: ca14 343e 83cd 1f3e 4c1a 103e 593e 09be
00000010: 4e31 f33d 8071 813e 9561 083e 8bd2 56be
00000020: c300 443e 69e5 2cbe a612 f8bc 48d8 333e
00000030: bdb9 14be 3062 d3bd 24f5 7c3e 9290 0d3d
00000040: d26d 1a3d 0853 51be b0f1 16be ee1f 633e
00000050: 2941 c3ba fc3c fc3d 318b b4bd d76a 95bd
00000060: 5692 273d 84fc 43be d68c 81bd 8fd8 60bd
00000070: b0a2 6c3e fd2e 1bbe 53cd 283e 9bd3 e8bd
00000080: a2e4 783e bf39 cebd 2592 d2bd b304 7f3d
00000090: 901d 903d 5e26 4f3e 2f4b 373d 56ac 4dbe
000000a0: f4cc 3f3e 65cc 12bd ca92 6dbe d6da f8bd
000000b0: 618b 513e dad7 833e 2068 393c f6bf d2bd
000000c0: 7984 38be ee9b 813e 761e 463d f6ef 5c3d
000000d0: ad8e f6bd 8412 2e3d 2026 3a3e 7293 1bbe
000000e0: f4a2 67bd 6a5b 2abe 1e74 b4bc 90ab 223d
000000f0: 5b07 49be 3e17 36be 4f5c 523e 00b4 d23d
00000100: 28cc 683e 838c 1d3d b9d3 a63b ae90 433e
00000110: c051 733e fd6a e13d 9a5d 673e d742 613b
00000120: 5f60 1f3e c6c2 b83d 5616 163d c41b 63bd
00000130: e638 60be 1a0c 1dbe 8b5a fe3c 2805 37be
00000140: 2266 663e 2a08 09be 7c30 f8b9 d39e 2b3d
00000150: f551 67be 24ee 5d3e b58b 5b3e 8ca3 36bb
00000160: fd51 cd3c bb45 523e ce78 0bbd 5d81 3abc
00000170: 9238 9f3d dbbd fd3d 4a7e 833d c247 0bbe
00000180: cd46 833e 02f2 813d 83ae 453c ae88 1abe
00000190: 4a84 5ebc 4f87 01be 9731 8b3d b9f5 5fbe
000001a0: 0b7d 3a3e 3207 a6bd 4bd8 4abd 8080 75be
000001b0: 9629 5a3d 9545 91bb 73aa 233e abf4 d7bc
000001c0: b21c 6fbe fea6 08be 15e8 e33c 600e 943d
000001d0: 4585 493e 4d12 323e 9597 843b 6f37 513e
000001e0: d401 58be 538a ef3d 00a9 15be c026 69be
000001f0: 5ba3 03be 5536 1c3e 8cf7 0bbe 3e6b 5bbe
00000200: f503 24be f0ed 3d3e 5cce cd3c ed01 633e
00000210: c0ed 343e 4fe5 43be 7887 aa3d b057 fa3d
00000220: 98bc 333e d0c6 60bd 26e7 4fbd 4608 3ebe
00000230: 1383 593d 2ae0 46be 5ece 82be 4f5a e9bd
00000240: 31b1 84be 0a46 37be 3771 84bd 2339 0e3e
00000250: 646d 303e be54 87bd 9dfc e83d f294 4f3d
00000260: 5a17 323d 1e28 073e 7710 b33d 2ad6 a43d
00000270: d8fb 17be 0cc5 7bbe 6f61 16be e89b 6fbe
00000280: c904 a53d fb64 a7bc 19ca cf3c 8dbf 423e
00000290: a33b 553e bb0b e7bd fc2b 98bd d261 503e
000002a0: 61fd cebc 4308 5ebe 49c5 3e3e ac58 2abe
000002b0: d70f 5c3d 5b08 a93c 6bbc 683c 810c b73c
000002c0: 3131 82be f21d a2ba 15d4 f5bc ce3f 0f3d
000002d0: db04 e2bd 43f4 80be 13fd 013e d776 303d
000002e0: 0a64 5c3e 033e a73d 02fe 2f3d b1d6 1dbe
000002f0: 9d3f 573d be0f 243e fea2 c6bd 6645 063e
00000300: 0b52 003e 8fc9 2cbe 6e8b 1a3e 26a8 13be
00000310: 25c5 f9bc 24af 163e 5612 85be e67a 0abe
00000320: 9b6a 483e ca4c 2cbe cb93 563e 9e4c 5abe
00000330: a7fe 083e 2658 29be de74 6abc fe12 4ebe
00000340: 9baf a4bc 05f8 40bd eee2 9dbd e858 24bd
00000350: f9d7 943c bb62 aabb
0.17586055 0.1560574 0.14072531 -0.1340269 0.118746385 0.25281906 0.13318475 -0.20978753
0.19140916 -0.16884388 -0.03028233 0.17562973 -0.14523979 -0.10321462 0.24702889 0.0345617
0.03770239 -0.2044183 -0.14740634 0.22180149 -0.0014896739 0.12316319 -0.08815611 -0.07295769
0.04091104 -0.19139296 -0.063256904 -0.054894026 0.23108935 -0.15154643 0.16484575 -0.113684855
0.24305966 -0.10069608 -0.10281781 0.06226034 0.070368886 0.2022948 0.044749435 -0.20085272
0.18730527 -0.035839457 -0.23200527 -0.12151115 0.20463325 0.2575062 0.011316329 -0.1029052
-0.18019284 0.25314277 0.048368894 0.053939782 -0.12038932 0.042498127 0.18178606 -0.15192965
-0.05655189 -0.16636434 -0.022028025 0.039714396 -0.19631712 -0.17782304 0.20543025 0.102882385
0.2273413 0.03846408 0.0050911573 0.1909816 0.23761654 0.110067345 0.225943 0.0034372115
0.15564106 0.09021525 0.036642395 -0.0554464 -0.21896705 -0.15336648 0.031049034 -0.1787306
0.22499898 -0.1338202 -0.0004733837 0.041899513 -0.22589858 0.21672875 0.21440013 -0.0027868478
0.02506351 0.20534413 -0.034050755 -0.011383382 0.07774462 0.12389728 0.06420572 -0.13601592
0.25639954 0.063449875 0.012065533 -0.15091202 -0.013581345 -0.12649272 0.06796568 -0.2187108
0.18211763 -0.08106841 -0.04952268 -0.239748 0.053262316 -0.0044333437 0.1598299 -0.026361784
-0.2335079 -0.13344952 0.027820626 0.07229304 0.19679745 0.17389794 0.0040463903 0.20431302
-0.21094447 0.11696305 -0.1461525 -0.22768688 -0.12855284 0.15255101 -0.1366865 -0.21427628
-0.16017134 0.18547797 0.025122814 0.22168703 0.1766882 -0.19130443 0.0832662 0.12223756
0.17552412 -0.054877102 -0.05075755 -0.18557844 0.053103518 -0.1942145 -0.2554807 -0.11394178
-0.25916436 -0.17897812 -0.064669065 0.13888983 0.17229229 -0.0660796 0.11376307 0.050679155
0.0434793 0.13198897 0.08743375 0.08048661 -0.14842165 -0.24586886 -0.14685605 -0.23399317
0.08057553 -0.020433893 0.025364922 0.19018383 0.20823531 -0.11281534 -0.07430264 0.20349815
-0.025267305 -0.21682839 0.18629946 -0.16635388 0.053726044 0.020633867 0.014205079 0.02234483
-0.25428155 -0.0012368544 -0.030008355 0.03497296 -0.11036082 -0.25186357 0.12694196 0.043082085
0.21522537 0.08166125 0.04296685 -0.1541393 0.0525509 0.1602163 -0.09699057 0.13112411
0.12531297 -0.16873764 0.1509225 -0.14419612 -0.030489514 0.14715248 -0.25990552 -0.13523445
0.19571917 -0.16826168 0.20954816 -0.2131829 0.13378392 -0.16537532 -0.01431009 -0.20124432
-0.020103266 -0.04711153 -0.07709299 -0.04012385 0.01816939 -0.005199758

fc_2.bias f4 [2]
00000000: 99bc 0f3d fb54 78bc
0.03509197 -0.01515698
