runs/0028_NN_1_bsz-8192_lr-0.001_ep-100-desc-wt-dec-0.pth (torch, 49688 bytes, 4 tensors)

fc_1.weight f4 [107, 107]
000000 30 0c 77 3e 91 2c 38 bd 33 45 d7 3d 19 07 d0 39
       0.24125743 -0.044964377 0.105112456 0.0003967814
000010 5b e5 e0 bd dc 82 ae 3d 30 cd 82 bd aa 09 96 3d
       -0.10981246 0.08521053 -0.06386793 0.07326062
000020 32 e9 2d be 6e b9 4e bd de 49 8a 3d b4 77 03 3e
       -0.16983488 -0.05046981 0.0675237 0.12838632
000030 60 e3 60 3e 1f d8 71 3d 88 d2 15 3e 8b 1b 0b 3e
       0.21961737 0.059044 0.14631093 0.13584726
000040 4e c1 18 bb 08 4e 85 bd 1d 35 3a bd 08 71 9c 3d
       -0.0023308578 -0.06509024 -0.04546081 0.076387465
000050 c7 db 85 bc 47 d7 06 3e 36 d5 d5 bd f5 e6 94 be
       -0.01634015 0.1316806 -0.104410574 -0.29082456
000060 72 9d ad 3c c1 3d 82 bc c0 e8 17 3e f7 5a a5 3d
       0.02119324 -0.015898587 0.14834881 0.08073991
000070 c5 de a6 3d 13 77 8b 3d e2 b8 9a 3c c5 2d 11 3e
       0.08147959 0.06809821 0.018886987 0.14177616
000080 2f a8 a9 3d d8 6c d4 bd 12 da 82 bd 67 fa d9 bb
       0.082840316 -0.10372323 -0.0638925 -0.0066521647
000090 9d 96 39 bc 22 4c 2b be 8f c4 3c bd 58 4f 31 be
       -0.011327413 -0.16728261 -0.04608589 -0.17315423
0000a0 00 da 0f bd d7 11 a4 3c 14 4d 94 3d b7 29 2a 3e
       -0.03512001 0.020028038 0.07241264 0.16617475
0000b0 a4 71 f5 bd c1 72 e1 bc 62 9a d9 3c 6c 05 22 3d
       -0.11984566 -0.02752054 0.026562873 0.039555952
0000c0 86 b7 2a 3e a0 7f a8 bd de 22 00 3e bd 25 98 bd
       0.16671571 -0.082274675 0.12513301 -0.07429073
0000d0 45 cc 00 be 3b 26 2a be d5 df aa 3d 9d 39 7f 3d
       -0.12577923 -0.16616146 0.08343474 0.062310804
0000e0 ac 44 83 3c e2 7e 85 3d ee 74 09 3e 52 a9 28 be
       0.016023956 0.065183416 0.13423511 -0.1647084
0000f0 58 ba b2 bd 52 e4 b6 3c bb b7 1a be 58 68 13 be
       -0.087269485 0.022325668 -0.1510915 -0.14395273
000100 a1 18 0e bd 99 38 fe bd f0 2d 0d 3e 36 5d 59 3d
       -0.034691457 -0.12413139 0.13787055 0.05306741
000110 79 89 dc 3d 5a fc ab bd 78 05 11 3e c8 3f 00 3e
       0.10768408 -0.083977416 0.14162242 0.1252433
000120 c9 ce f2 bd 40 ff e9 3d 01 6a 16 be c1 de af ba
       -0.118558474 0.11425638 -0.14688875 -0.0013417826
000130 be 9a af 3d dd 65 11 3d 3b cb e1 3c 1c 2d c9 bd
       0.085744366 0.035497535 0.027562728 -0.09823057
000140 d2 02 50 bd 08 16 8f bd f6 f4 83 3c e3 bd 3a bd
       -0.05078394 -0.06986624 0.016108017 -0.045591246
000150 23 b7 96 bb 7c 57 4b bc 07 c0 b6 bc c3 9a d2 bd
       -0.0045994683 -0.012410995 -0.022308363 -0.10283425
000160 d6 9f d0 bd ff 8e 0d be 1b 79 06 be 60 37 06 be
       -0.10186736 -0.1382408 -0.13132136 -0.13107061
000170 88 4f dc 3d b8 69 47 3e ea 38 e1 3d 04 29 9d bd
       0.10757357 0.19473922 0.109971836 -0.07673839
000180 49 7a 01 be e1 c9 08 3e 18 af a0 bd 01 d6 18 be
       -0.12644304 0.1335826 -0.078458965 -0.14925386
000190 4f f4 cc bd fc f3 08 be c8 83 83 3d 26 a2 c8 bd
       -0.10007536 -0.13374323 0.0642162 -0.09796552
0001a0 9d 44 1f bd ff 21 cd 3c 7b 2a ce 3d d1 74 f3 3c
       -0.038883794 0.025040625 0.10066696 0.029718788
0001b0 2a 86 08 be 3b 03 04 3e 40 91 17 3e a6 ad ef bd
       -0.1333243 0.12891857 0.14801502 -0.11703043
0001c0 24 31 f9 3d f0 ca 6f bd ab 63 ea 3d 47 bf fd bd
       0.12167576 -0.058543146 0.114447914 -0.12389999
0001d0 88 9d 16 bd 4b 3a 6d 3d 24 d4 69 bd 7f fc 21 be
       -0.036771327 0.05791692 -0.05708708 -0.15818976
0001e0 9f eb f0 3d 01 19 67 3c 71 f5 10 3e dd ce 1b 3e
       0.11763691 0.0141050825 0.14156128 0.15215631
0001f0 94 7a 5c 3d 29 c1 37 bd 3f 13 34 bd 3b d4 2d be
       0.053827837 -0.044861946 -0.043963667 -0.16975491
000200 f2 d4 d2 bd 81 d8 08 be 10 ec 17 3e dd 78 ae bd
       -0.10294522 -0.1336384 0.14836144 -0.085191466
000210 5d c5 26 3e 69 e8 e8 3d f3 e3 e4 bd 22 85 c7 3d
       0.16286226 0.11372454 -0.1117629 0.0974219
000220 c6 e0 60 3d ed 71 f9 3d 03 89 9c 3d 6a 33 81 bd
       0.05490186 0.12179933 0.076433204 -0.063086346
000230 df ab 8d bc 86 63 b8 bd b7 05 88 bd 90 12 18 3e
       -0.017293869 -0.090033576 -0.06641715 0.14850831
000240 fe af 27 be 32 ff 02 3b 03 66 7d bd 52 4e 37 bd
       -0.1637573 0.0019988534 -0.061864864 -0.044752426
000250 d4 1b d4 bc 5e eb 9a 3c ec af e1 3d a9 76 19 3e
       -0.025892176 0.01891106 0.110198826 0.14986672
000260 39 3b 8c bd 46 90 0f be 91 2a 86 bd 7c ef 1b 3d
       -0.06847233 -0.1401988 -0.06551088 0.038070187
000270 f0 f5 a0 bd b2 db 43 be f9 e1 3d be a9 f5 f9 3b
       -0.07859409 -0.19126776 -0.18543233 0.007628162
000280 78 8d 18 be 98 7b 4c 3d 6e 0d c7 3d 4b 5f 73 bd
       -0.14897716 0.049922556 0.097193584 -0.05941705
000290 e2 12 2a be cd 92 a3 bd 37 62 06 3e 4a 01 b8 bd
       -0.16608766 -0.079869844 0.13123403 -0.08984621
0002a0 27 00 2c 3e 80 19 9b bd d0 b3 57 bc cb df d4 bd
       0.16796933 -0.07573223 -0.013165429 -0.103942476
0002b0 49 4f d9 bd 13 ae 22 be d5 cf c7 3d 18 2d ac 3b
       -0.106108256 -0.15886717 0.09756438 0.005254399
0002c0 00 9c 00 3e 58 4a 83 3d 29 59 1d be 94 ec a6 3d
       0.1255951 0.06410664 -0.15366043 0.081505924
0002d0 55 4d 1d be 87 8b 5f 3d 7c d3 10 be 19 29 d3 3d
       -0.15361531 0.054576423 -0.14143175 0.10310573
0002e0 af 58 e3 3c 37 15 21 3d ca 13 98 bd cd 93 28 3e
       0.027752249 0.039326873 -0.074256495 0.16462632
0002f0 14 63 16 be 3f 6c 3f 3d df c1 67 bd 97 ba 04 3e
       -0.14686233 0.04673409 -0.056581374 0.12961803
000300 0a 5b fb 3c 69 0f 09 be ef 32 b1 3c 9f 87 e4 3d
       0.03068306 -0.13384785 0.021630732 0.1115868
000310 74 12 0c 3e 1b 40 30 3d fd 71 99 bd 38 01 1a be
       0.13678914 0.043029886 -0.07492445 -0.15039527
000320 7d a2 a1 bc d5 5e e6 3c 64 89 0b 3e 59 da f5 3c
       -0.0197308 0.028121391 0.13626629 0.030011343
000330 06 1a 12 be 31 c0 fe 3d 12 aa c9 bd a9 bd 2b 3d
       -0.1426774 0.12439001 -0.098468915 0.04192892
000340 e8 cb 03 3e 0e 95 10 be b4 4b 33 3d a8 2a 8b bd
       0.12870753 -0.1411936 0.043773368 -0.067952454
000350 31 3a 52 3d bb 0b c1 bd 64 4d 9d 3c eb a0 33 3e
       0.051325027 -0.094260655 0.019201942 0.17541854
000360 01 4a ba bd 0b 64 f0 3d 5b 37 11 3e db ce 2e 3d
       -0.090961464 0.11737832 0.14181273 0.04267774
000370 c9 c0 71 3d 88 ca 3d 3c 87 99 49 3b 41 b5 b0 3d
       0.059021745 0.011583932 0.0030761675 0.086283214
000380 fd 6d b1 bd a2 89 87 bd aa e8 aa 3d ab 04 b1 3b
       -0.08663557 -0.06618048 0.083451584 0.005402168
000390 35 66 f4 3d 94 0a 06 3b d2 a6 fd bc af c1 f5 bd
       0.11933557 0.0020453082 -0.030963335 -0.11999833
0003a0 49 09 af bd 93 b9 0a 3d 86 b5 14 3e 80 ff 6a be
       -0.08546693 0.033868384 0.1452237 -0.22949028
0003b0 ff b6 0b 3d fb 74 e1 3d de d3 fa bc 7d a8 d7 3d
       0.034110066 0.110086404 -0.030618604 0.105301835
0003c0 65 80 9a bd 82 0e aa bd 41 07 1b be ea de b6 bd
       -0.075440206 -0.083035484 -0.15139486 -0.08929236
0003d0 96 c7 d9 3d 59 8e 80 bd 9a 37 bc bd c9 c4 9a 3c
       0.10633771 -0.06277151 -0.09190293 0.018892663
0003e0 12 e8 da bd 99 d9 ac 3c 74 45 2b bd 72 21 ce 3c
       -0.10688795 0.021099852 -0.041814283 0.025162432
0003f0 66 c7 d8 3d e8 54 0e be a6 26 c3 bd f6 ef 00 3e
       0.10584907 -0.13899577 -0.09528856 0.12591538

fc_1.bias f4 [107]
000000 22 0e 74 ba 05 01 03 3c 2d c7 b1 3b a1 a5 00 3e
       -0.0009309967 0.007995849 0.005425355 0.12563182
000010 f2 41 de 3c 5f af 9e 3d 30 01 8e 3b e7 f9 0e 3d
       0.027131055 0.07748293 0.0043336377 0.034906294
000020 46 2d fa 3c c3 80 a4 3c 79 9c 1c 3d db 2b d1 3c
       0.030539166 0.02008093 0.03823516 0.025533607
000030 e1 c5 d0 3c f9 46 ad 3d 1e 1c a2 3c 37 f9 31 bb
       0.025484981 0.084608026 0.019788798 -0.00271566
000040 98 01 01 3c 8f 6b 36 3e 05 3f 1a 3d a5 0d b1 3b
       0.007873915 0.17814468 0.037657756 0.005403238
000050 0f 92 40 3d 61 7f 38 3d e5 dd 31 3d c2 91 3b 3d
       0.047014292 0.045043353 0.043424506 0.045793302
000060 6a 1d b7 3d cd ab 49 3d cd e5 2e 3d b3 00 7f 3d
       0.08941157 0.049236108 0.042699624 0.062256526
000070 21 19 e1 3b d3 e0 ce 3b a2 98 c8 3a 3d 96 e5 3c
       0.0068694507 0.006313422 0.0015304277 0.02802574
000080 b7 d9 52 3d e2 58 88 3d a7 4c 9f 3d 73 a2 07 3c
       0.05147716 0.06657578 0.07778292 0.008278477
000090 1b 80 44 3b 36 31 d9 3b 0a d4 bb 3b 90 63 a5 3c
       0.0029983583 0.006628181 0.005732064 0.020189077
0000a0 3c b1 ef 3d a4 73 ff 3c e1 37 c4 3c 6f a9 0e 3e
       0.11703727 0.031183071 0.023952426 0.13931821
0000b0 48 9c dd 3d 1b e7 ea 3c 3e 5e fa bb 70 86 78 3d
       0.10820824 0.028674653 -0.007640629 0.060675085
0000c0 0c 41 6a 3b df e8 62 3d e1 9f 76 3c fa 54 8c 3c
       0.0035744337 0.055397864 0.015052767 0.017130364
0000d0 d2 43 ab 3c d3 f0 9a 3c 67 84 9c 3c d4 ea 11 3d
       0.020906363 0.018913662 0.019106103 0.03562434
0000e0 4a 26 3f 3c d2 8a 0a 3d 49 c9 99 3c 5a 81 f7 3c
       0.011666844 0.033823796 0.018772738 0.030213047
0000f0 15 be b2 3b 8c a6 13 3d ba db 25 bd 2a 0e 43 bb
       0.0054547885 0.036047503 -0.04049275 -0.002976308
000100 89 72 30 3d fa 73 33 3d c8 c5 27 bc c1 74 2f 3d
       0.04307798 0.043811776 -0.010240026 0.042835955
000110 8d 49 7f 3d af d7 28 3d 14 83 48 3d 3b 78 d6 3d
       0.062326003 0.041221317 0.04895313 0.10472151
000120 74 d6 f1 3d aa 06 e0 3c 52 6a 73 bd 49 00 33 3d
       0.11808482 0.027346928 -0.059427567 0.043701444
000130 d8 0a 24 3b f8 fb 86 bc a9 54 9b 3c 47 41 80 3c
       0.0025030877 -0.01647757 0.018961268 0.015656127
000140 fc d2 40 bc 40 08 47 3d 29 9d 84 3d 74 70 26 bc
       -0.011769053 0.048591852 0.064752884 -0.010158647
000150 70 af 33 3d c3 10 94 3d 61 52 ef 3c 59 3a 9f 3c
       0.043868482 0.072297595 0.029214086 0.019437002
000160 44 7b fd 3d a4 95 5d 3d 00 4e a9 3c f2 d3 78 3d
       0.12377027 0.054097787 0.020667076 0.060749
000170 01 bb 51 3d 8a 6d 63 3a 35 2a 83 3c c8 e9 96 3c
       0.05120373 0.00086756854 0.016011337 0.018422022
000180 27 a7 1a bd c2 38 47 3d 27 1c 0b bb 87 ae c5 3c
       -0.037757065 0.048638113 -0.0021226497 0.024131073
000190 11 23 26 3d 02 da 32 3b 2d 03 54 3d a9 6b f1 bb
       0.040560786 0.0027290587 0.05176084 -0.0073675704
0001a0 06 d1 23 3d 0e b7 0c 3d 33 3c 25 3c
       0.039994262 0.034354262 0.010085153

fc_2.weight f4 [2, 107]
000000 e9 01 7c 3d 36 e8 d7 bd 32 8a da bd ed 60 87 3e
       0.06152526 -0.105423376 -0.1067089 0.26441136
000010 3f 09 17 3e af ae 19 be d5 9d 08 3d e1 ae 9d 3d
       0.14749621 -0.15008043 0.033353645 0.07699371
000020 95 4f e5 3d 92 7b 10 be 09 b9 50 3e ac ee b5 3d
       0.1119682 -0.14109638 0.20383085 0.08883414
000030 06 cd 5a 3c 6f 3f 3b be 31 c7 23 be bf ce 50 3e
       0.013354545 -0.18285917 -0.15993954 0.20391367
000040 8a 9b 93 3c 02 b5 c9 bd 09 e0 19 3d 93 61 37 3e
       0.018018503 -0.098489776 0.037567172 0.17908315
000050 91 d0 e0 bd 7a 54 81 3e 22 c0 49 bd 49 1d 77 3e
       -0.10977281 0.25259763 -0.049255498 0.24132265
000060 4e fb 88 3e 79 6b 29 3e 76 b1 7d 3e ab 93 8e 3e
       0.2675423 0.16544904 0.24774727 0.27847037
000070 a5 23 02 3e f1 28 fb bd aa dd 0d be a2 b6 66 3e
       0.1270891 -0.12263668 -0.1385409 0.22530606
000080 c6 2f 75 3e 0e 3b 94 3e ff 6a 5d 3e f5 42 3f be
       0.23944005 0.28951305 0.21622847 -0.18677886
000090 77 b0 41 3e fd 2a 39 be bf 80 0f be 97 e5 87 3e
       0.18914972 -0.18082805 -0.14013956 0.2654235
0000a0 26 b6 19 be 47 ce ed 3d a2 8f e7 3d 9d 51 dc bd
       -0.1501089 0.1161161 0.11306693 -0.10757754
0000b0 67 48 d0 bb 93 8a 3b 3e 8b e8 28 be 45 07 5e be
       -0.0063562873 0.1831458 -0.16494958 -0.2168246
0000c0 59 8e 8d bd c0 97 cf 3c d7 a1 37 3d 00 98 08 3e
       -0.06911916 0.025340915 0.044832077 0.13339233
0000d0 44 e2 f7 bd a1 22 6c 3e c5 2c 18 3e 4a 3d c9 3d
       -0.121037036 0.23060085 0.14860828 0.09826143
0000e0 13 e9 83 be 1f 7c 92 3e ad bc 68 3e ae 7e c1 3d
       -0.2576376 0.28610322 0.22728224 0.0944799
0000f0 c6 b0 24 be 88 73 6c 3e d2 9f 4e 3e ac 06 84 bd
       -0.16083059 0.23090947 0.20178154 -0.06446585
000100 85 60 94 3e 6a 8a 52 be 14 d3 1c be 53 0c 5f 3e
       0.2897989 -0.20560613 -0.15314895 0.21782045
000110 df ae d7 bb 24 ce d6 bc 01 2b 39 be 7c 2a 2c be
       -0.0065821256 -0.026221342 -0.18082811 -0.16813082
000120 f0 01 22 3e 82 6b 06 be 25 06 47 3e 98 92 0f 3e
       0.15821052 -0.13126948 0.19435938 0.14020765
000130 2b 90 38 be 9a da 0d be d5 e1 34 3e 03 14 12 be
       -0.18023746 -0.13852921 0.17664273 -0.14265446
000140 5b a1 c0 bd d5 85 89 be 43 19 ea bc db 28 10 be
       -0.09405776 -0.26859918 -0.028576499 -0.14078085
000150 97 48 41 3e 42 d4 e6 3d 4d db 80 3e 38 d2 b1 3d
       0.18875347 0.11270954 0.25167313 0.08682674
000160 e8 64 4a be 91 92 9c bd 2e ec b2 3d 4e db 9c bd
       -0.19765055 -0.07645143 0.08736454 -0.076590165
000170 40 23 44 3d 43 5b 4f be 8c 55 90 bc f6 96 e9 bd
       0.04788518 -0.20249657 -0.017618917 -0.11405747
000180 bb 86 81 3e 82 18 82 3e 32 c5 9e bd c0 0a 5f 3d
       0.25298104 0.25409323 -0.07752456 0.05445361
000190 ed 84 63 3e 69 29 e2 3d 37 da 67 3e 2d 12 1e be
       0.22218676 0.110430546 0.22641836 -0.15436621
0001a0 93 84 ad 3d 83 46 9b 3d da ef 4a be 16 19 6f bd
       0.08472552 0.075818084 -0.19818059 -0.058373533
0001b0 13 c4 72 3e a5 39 43 3e 0a 96 0f bd 70 15 60 be
       0.23707609 0.19064958 -0.035055198 -0.21883178
0001c0 8f 95 f9 3c 78 cf 58 3e 3a 38 bb bd 3b 97 6e be
       0.030466823 0.21172893 -0.09141584 -0.23299877
0001d0 9f f0 ca 3d 58 f3 1f be 82 92 5c be 44 82 a0 be
       0.09909176 -0.15620172 -0.21540263 -0.31349385
0001e0 d6 4f 1b 3e 4e e9 27 3e ba df 3f bc c3 5d 0f 3e
       0.15167174 0.16397592 -0.011711055 0.14000611
0001f0 66 34 00 3e ec bb 86 be 8c 88 80 be fb 63 98 be
       0.12519988 -0.26315248 -0.25104177 -0.2976378
000200 e6 c4 79 be ba d8 37 3e 28 f5 63 3d 9a 97 34 3c
       -0.24391517 0.17953768 0.05565372 0.011022473
000210 76 66 26 be 3d 8e 1f be cc 17 05 3c 50 5e 86 3e
       -0.16250023 -0.15581603 0.008123349 0.2624383
000220 a8 f3 6f 3e df cc 36 bd e7 95 b0 3c f0 5e e9 bd
       0.23432791 -0.044628974 0.021555854 -0.11395061
000230 19 4e 91 bc 92 67 8c bd 9a 03 12 3e df 31 08 bd
       -0.017737435 -0.06855692 0.14259186 -0.033250686
000240 90 9a 4b 3e 36 48 0f 3c 7c cd 18 be 65 55 6e 3d
       0.1988318 0.008745244 -0.14922136 0.058186907
000250 9b 3a 80 3e b4 30 5c be f5 b6 2d 3e 3e 90 89 3e
       0.25044712 -0.21502954 0.16964324 0.2686786
000260 9e 17 05 be ca 96 a9 bd 3b a5 a1 3d 50 5b 95 3d
       -0.1299729 -0.08280714 0.07892843 0.07292807
000270 ed e9 7e be d1 44 3b be fc 1b 3b bd ce d7 b8 3d
       -0.24893923 -0.1828797 -0.045680985 0.090255365
000280 4d 6e 23 be 26 29 ca 3c a2 74 53 bd 00 ae 1e 3e
       -0.15960045 0.024677824 -0.0516249 0.15496063
000290 4a e9 47 3d 86 4d de bd 91 cb 61 be eb 1d 6e 3e
       0.048806466 -0.1085463 -0.2205031 0.232536
0002a0 1c c7 a1 bd f2 ca eb bc 97 f6 e3 3c fa 6d f5 3c
       -0.07899305 -0.028783295 0.027827544 0.029959667
0002b0 5b 8d 14 bc 60 90 0a bd 11 51 39 be 0e 4c 53 be
       -0.009066905 -0.033829093 -0.1809733 -0.20634481
0002c0 09 12 6a 3e 8d c2 52 bb 62 2c ef 3d 6c 8f c0 bd
       0.22858442 -0.0032159418 0.11678387 -0.094023556
0002d0 2b db ba 3d df c8 db bd fe fe e0 bd 87 58 18 3e
       0.09123834 -0.107316725 -0.10986136 0.1487752
0002e0 68 be 94 3d 93 f0 64 bd 96 ad 4e 3e 9a b6 ec ba
       0.072628796 -0.055893492 0.20183405 -0.0018059791
0002f0 98 d8 40 bd aa 84 a1 3e 42 fe 5e be 28 e5 23 be
       -0.04708156 0.31546527 -0.21776679 -0.16005385
000300 03 69 78 bd ac 43 8d 3d 1e 74 4e 3e d9 ba 8a bd
       -0.060647022 0.06897673 0.20161483 -0.067739196
000310 0a 0f a2 be 1f 0b 5e 3e 20 2a 53 3e fb f8 9d be
       -0.316521 0.2168393 0.20621538 -0.3085402
000320 10 84 ed bc d9 4b 88 be 3e 31 db 3d 85 75 1d be
       -0.028993636 -0.26620367 0.107027516 -0.15376861
000330 5b 26 e3 3d 30 86 1b 3d 81 64 27 be 57 73 10 be
       0.110913 0.037969768 -0.16346933 -0.14106499
000340 71 1b 7d 3e 81 da 15 be e3 85 74 bd cf 11 03 be
       0.247175 -0.14634134 -0.059697997 -0.12799762
000350 7c 65 e6 bd 25 a4 37 3e
       -0.11249825 0.1793371

fc_2.bias f4 [2]
000000 cc ae be 3c 3e c0 56 bb
       0.023276709 -0.0032768394
