runs/0029_NN_1_bsz-128_lr-0.001_ep-100-desc-wt-dec-0.pth (torch, 49616 bytes, 4 tensors)

fc_1.weight f4 [107, 107]
000000 43 4a 5b bf 39 a9 f9 be 55 08 3a be d1 23 db be
       -0.8566019 -0.4876192 -0.18167241 -0.42800763
000010 1c 39 90 bb f9 93 d6 be b9 2f 28 be b7 9b c3 3e
       -0.004401339 -0.4190977 -0.16424455 0.38204738
000020 98 88 37 3e 8d a9 f4 bd de 6d 3c 3d 03 29 64 3d
       0.179232 -0.11946402 0.046003215 0.055703174
000030 07 1d 99 3d 7e 21 6d be d0 d9 0e bd 79 0e 11 be
       0.0747624 -0.23157308 -0.03487569 -0.14165677
000040 0e 84 46 3e 2b eb e8 3d c2 fa 7a be b6 e7 b7 bd
       0.19386312 0.1137298 -0.24509719 -0.08979742
000050 0d c3 73 be f1 22 4c 3e da b9 95 bd f7 3d 9b 3e
       -0.23804875 0.19935204 -0.07310839 0.30320713
000060 12 53 17 bd 93 d1 d3 be df b8 82 bd 08 17 d8 bd
       -0.036944456 -0.4137083 -0.063829176 -0.10551268
000070 5e 3b fd 3d 12 09 69 be f2 a7 ea 3e 1e b1 2f 3e
       0.12364839 -0.22757366 0.45831257 0.17157409
000080 50 06 39 be 19 9c 65 be 9e a3 2c be 18 6a 55 3e
       -0.18068814 -0.22422828 -0.1685929 0.20841253
000090 99 64 91 3d aa fc 34 bf 57 eb 15 bd 6a 32 e3 be
       0.070992656 -0.70698035 -0.03660139 -0.443744
0000a0 b0 cf 68 3d 75 9e 56 be a5 8d 08 3e 8b 32 1a be
       0.05683869 -0.20958884 0.13335283 -0.15058343
0000b0 bb ef 2b 3d 90 b9 a2 3e 65 46 cf 3d f7 c2 53 3e
       0.04197667 0.31782198 0.101208486 0.20679842
0000c0 7f d7 50 be 9a 83 e1 be 80 02 bf 3c 10 d4 d6 3d
       -0.20394705 -0.44045717 0.023316622 0.104896665
0000d0 02 53 7e 3e a8 d7 32 bc 49 ca 5a 3e 6d 03 94 bd
       0.24836352 -0.010915674 0.21366228 -0.07227216
0000e0 a3 f0 8a 3d 0a ae 25 3e 2d f1 03 be fc 94 12 3e
       0.06784179 0.16179672 -0.1288497 0.14314646
0000f0 bd 58 1c 3e 3c 77 61 3e 61 4c 03 3c 1a cc 4f bd
       0.15268226 0.2201814 0.008013816 -0.050731756
000100 3f 85 35 bd 49 99 13 be 31 28 10 3e 8b 43 a9 3d
       -0.044316527 -0.14413942 0.14077832 0.08264836
000110 8a 3a dd 3d f0 2b 45 bd 3c 5b 04 3e 7b 9d 7f 3c
       0.10802181 -0.048137605 0.12925428 0.015601511
000120 ec 09 47 be e8 e1 11 3e 12 42 07 be 2c 8a 13 be
       -0.19437379 0.14246333 -0.13208798 -0.14408177
000130 95 eb 46 be 43 f2 43 3e 47 d6 01 3e a3 bd 37 be
       -0.19425805 0.19135384 0.12679397 -0.17943434
000140 de 06 0a 3e 4b 13 ad 3d 49 02 1e be 41 fb 86 bd
       0.13479182 0.084509455 -0.15430559 -0.06590892
000150 b3 df 3b bd 8b 8e 44 3d ed af 9b bd a2 2e 4e be
       -0.045867633 0.047987502 -0.076019146 -0.20134977
000160 5e 6d 48 be 25 e1 48 be f8 2b c3 3d 9f 39 3f 3e
       -0.1957297 -0.19617136 0.09529871 0.18674324
000170 c4 10 9d bd 08 72 f2 3d ad b5 71 bd da df fb 3d
       -0.076692134 0.11838156 -0.05901115 0.12298556
000180 bd 63 0b be 36 86 c7 ba 92 89 c5 bd fd 90 83 3d
       -0.13612266 -0.0015222493 -0.0964538 0.06424139
000190 9a c0 67 3c b6 ef 36 3e 85 17 57 be 50 d8 92 bd
       0.014145041 0.1786488 -0.21005066 -0.071701646
0001a0 ec c7 0a 3e 4e 1a ce bd bd 9f 0f be ee 3a 2f bf
       0.13552827 -0.10063611 -0.14025779 -0.68449295
0001b0 d7 eb ce 3e 6f 12 ce bd 1a 18 f3 3e 72 d6 ba 3d
       0.40414307 -0.1006211 0.47479326 0.091229334
0001c0 c2 3e 3c be 04 2b 1b bd 0b 76 7f be 31 ba 86 be
       -0.18383315 -0.03788282 -0.24947374 -0.26313928
0001d0 eb 9e ba 3e 16 2c 81 3e e1 89 09 bf da ba 0c 3e
       0.3644937 0.25228947 -0.5372601 0.13743153
0001e0 e8 39 9d 3c 07 c8 bc 3e 67 60 77 3e 3f d8 ec 3e
       0.01919265 0.3687136 0.24157868 0.46258733
0001f0 5d 05 35 bd 76 ff 84 be 9f e6 91 3c 4b 7f 83 be
       -0.044194568 -0.2597615 0.017810164 -0.25683054
000200 83 ac 02 3e 2a 68 05 3f 45 1c 24 be ef a0 51 be
       0.1276112 0.52112067 -0.16026409 -0.20471548
000210 8f 54 92 bc fd 68 a0 bd aa a7 66 be 48 f0 94 3e
       -0.017862586 -0.07832525 -0.22524896 0.2908957
000220 b7 93 09 3e 51 be e4 3d e3 44 1e 3e e9 31 c8 3d
       0.13435255 0.111691125 0.15455966 0.097751446
000230 74 84 8d bd ed fb d2 bb 58 bc 34 3e 84 1b 19 be
       -0.06910029 -0.0064387233 0.17649972 -0.14951903
000240 64 15 00 bf f5 a9 6b 3d b6 67 92 3e ee 72 ed 3d
       -0.5003264 0.05753513 0.2859475 0.11594187
000250 f6 98 a9 be 28 9e c4 3e 14 12 d6 be f5 7b 23 be
       -0.33124512 0.38401914 -0.41810668 -0.15965255
000260 03 db e1 3d 57 1b 0a 3d 42 5c 2f 3e 0f af ec be
       0.11028101 0.03371748 0.17125037 -0.4622731
000270 9f de 0f be de 9c 94 3d fe 93 0c 3e 4b f3 07 3d
       -0.14049767 0.072564825 0.1372833 0.033191007
000280 21 d5 4b 3e 02 81 35 be 3e ec fc ba ca 9e 9a 3e
       0.19905521 -0.17724994 -0.001929648 0.3019927
000290 c3 b2 e9 be c8 ec c4 bd 5a 9f 14 3e 59 52 86 3c
       -0.45644197 -0.09615475 0.14513913 0.016396688
0002a0 03 e7 a9 be 19 bb 64 3e 7a df cc 3e 0c ab 06 be
       -0.3318406 0.22336997 0.4001425 -0.13151187
0002b0 92 63 06 3d 13 fe 4e be 46 98 a8 bb 48 83 24 bd
       0.0328098 -0.20214109 -0.0051451055 -0.040164262
0002c0 4d 9a c5 bc cc c8 06 3e 84 cb ef bd 84 80 04 3e
       -0.024121428 0.13162535 -0.117087394 0.1293965
0002d0 08 fa 86 bd e9 29 32 3e 6c ff 06 3b d3 3a ff bd
       -0.065906584 0.173988 0.002059902 -0.12462392
0002e0 ab ee 0b 3e df 7a 4e bd c0 22 b4 bd ea 57 20 3e
       0.13665263 -0.050410148 -0.087956905 0.15658537
0002f0 02 7c 52 3d 37 fe c8 bc 25 51 36 3d b4 6b 28 bd
       0.051387794 -0.024535282 0.04451098 -0.04111834
000300 50 aa c7 3d d7 8d dc bc 30 3c f9 3d 9c 75 ac 3d
       0.097492814 -0.026923103 0.12169683 0.0842087
000310 24 f6 f2 3d cc 79 a1 3b 34 e5 86 3e 47 c6 0b 3d
       0.11863354 0.0049278494 0.26346743 0.03412464
000320 e3 70 63 3e c9 2c 2d 3c 8a 3c 52 3d 5d 8a 4d 3e
       0.22211032 0.01056976 0.051327266 0.20072313
000330 04 50 19 3d 80 ef 2c bd 1d 1a 12 3d 20 3b 16 3d
       0.037429824 -0.042220592 0.035669435 0.03667748
000340 60 1b 30 3d 14 c9 d8 bd 1c 41 65 3d a8 64 c9 bd
       0.042994857 -0.105852276 0.055970296 -0.09833652
000350 76 e1 81 3d 6c 23 1a 3e 6b fe ca be 2f 9d 02 be
       0.063418314 0.15052575 -0.3964723 -0.12755273
000360 bd d4 96 bc 0a cf 7a be 22 67 79 3e d9 6c 3d 3e
       -0.018411988 -0.24493042 0.24355748 0.18498553
000370 92 f6 a4 3d fd a3 93 be 52 a6 21 be ed 2f 00 3f
       0.08054842 -0.2883605 -0.15786102 0.5007313
000380 38 1e d1 3d cf 5c ad 3d 5e 3c 5b 3e c6 66 6b be
       0.10210842 0.084649675 0.21409747 -0.22988424
000390 75 3d d2 3e 51 8d 89 3e e2 8f 9e bc 42 c2 07 be
       0.41062513 0.26865628 -0.019355718 -0.13257697
0003a0 83 0f e9 3d 74 64 0d 3e d1 f1 1e 3e 25 f5 6f 3e
       0.11379912 0.13807851 0.15521933 0.23433359
0003b0 60 41 19 3c c0 c6 32 3e 7a b9 21 3e d1 e3 1b bd
       0.0093539655 0.1745863 0.1579341 -0.03805906
0003c0 f4 5d 0e bf 85 ba a2 3c fa 4f 04 3f 92 77 35 bc
       -0.5561211 0.01986433 0.51684535 -0.011075871
0003d0 a2 6d c9 3d fe 29 3f 3e b7 b5 b8 bd ec a2 9a bd
       0.09835364 0.18668362 -0.09019034 -0.07550606
0003e0 c8 b4 02 3e 05 60 d8 3b 0b 21 9f 3c 3a ac 99 3e
       0.12764275 0.0066032433 0.019424936 0.3001421
0003f0 e1 a7 fd 3d c5 f3 02 3e 8c fa 03 3e 60 8e 3e bc
       0.12385536 0.12788303 0.12888545 -0.0116306245

fc_1.bias f4 [107]
000000 70 e0 64 3d fd 20 5c be d6 b1 b2 be fa 58 cc be
       0.055878103 -0.21496959 -0.34901303 -0.39911634
000010 66 59 b7 be fb 40 71 bd e3 2b 4b bd 54 d0 93 be
       -0.35810393 -0.05889986 -0.0496024 -0.2886988
000020 d0 af fe be 26 a2 9a be 9d 35 9e bc 8b 9a 8b be
       -0.4974351 -0.30201834 -0.019312674 -0.27266344
000030 79 a0 5a be 0c 86 46 be 19 25 77 be 4d df ef 3d
       -0.21350278 -0.19387072 -0.24135245 0.11712513
000040 fa 07 d2 bd c1 f1 fc bd d5 1f 16 be 60 8a 9f be
       -0.10255428 -0.123507984 -0.1466058 -0.3116026
000050 2a 2f 9b 3c 15 76 2b be 69 b4 97 bb b3 1e 7c be
       0.018943388 -0.16744263 -0.004629661 -0.24621086
000060 85 55 ac bd 13 1e 8e be 43 e3 68 be c7 30 01 be
       -0.08414749 -0.2775732 -0.22742943 -0.12616263
000070 f2 96 c6 be 05 e1 4e bd fb de 8c 3d f5 80 cf bc
       -0.38787037 -0.050507564 0.06878468 -0.025330046
000080 2f 8a 88 be 9b 62 76 be ba b1 82 be 8b bb 8e 3d
       -0.26667926 -0.24061053 -0.2552622 0.06969365
000090 ac 53 a4 be bc ea 0f 3e 93 23 13 bd 27 cc c8 3d
       -0.32095087 0.14054388 -0.035922598 0.09804564
0000a0 6c 42 61 3d 9e 5c 76 3d d4 f5 df be 79 e4 8e be
       0.054994985 0.06014692 -0.4374224 -0.27908686
0000b0 ca b0 9a be cc 5f 67 bd ee f5 84 be 00 77 2c 3e
       -0.30213004 -0.056487843 -0.2596888 0.1684227
0000c0 fb ae 07 3e c2 d2 5b be 8f f2 93 be ea 2e 4b 3d
       0.13250344 -0.21467116 -0.28895995 0.049605288
0000d0 e2 f0 ee bb fa fc a4 bd 29 05 47 be 68 29 07 bc
       -0.007291899 -0.08056064 -0.19435562 -0.008249618
0000e0 eb 72 16 bd 87 df 0f be e6 72 0e be 1f 10 97 bd
       -0.036730688 -0.14050113 -0.13911018 -0.07376122
0000f0 c9 8b 3a bd 38 eb 83 3d 8a e5 7a 3c 7c 87 b3 3d
       -0.045543466 0.06441349 0.015313515 0.08766076
000100 5b 1a 47 bd b3 cf 87 be 42 68 bb bc 0d aa 07 3e
       -0.04860912 -0.2652565 -0.022876862 0.13248463
000110 87 48 86 be 0e d7 a0 bd 9b f4 8e be f7 87 da 3c
       -0.2622721 -0.078535184 -0.27920994 0.026676161
000120 f9 7a 94 be 49 71 23 3b 6c f6 87 3d 9c 76 82 3d
       -0.2900007 0.002493935 0.06638798 0.06370279
000130 6a 47 1d be 0c 8d 46 bd 45 2f 1d 3d e8 bd d9 be
       -0.15359274 -0.048474357 0.038375158 -0.425277
000140 81 79 dd bd b1 fc 90 be 8b a1 88 bd 12 91 45 be
       -0.10814191 -0.28317788 -0.06671437 -0.19293621
000150 e2 83 c7 be 6c 05 34 be 77 e4 84 3e 89 4a 1d be
       -0.38967806 -0.17580193 0.25955555 -0.15360464
000160 7d 97 20 bd 7b 9a e7 bd c1 64 92 be b6 fa bb 3d
       -0.03920697 -0.11308762 -0.28592494 0.09178679
000170 b4 60 b7 be 3c b8 4d bc 15 70 99 3d 04 1b 10 bd
       -0.35815966 -0.012556132 0.07492081 -0.035182014
000180 3e e2 7d be da 30 97 bc 0b e3 2d be 42 aa 12 be
       -0.24793336 -0.018455911 -0.16981141 -0.1432276
000190 b4 73 51 be 91 cc 8a be aa 69 3f be 34 fd 35 ba
       -0.20454293 -0.27109197 -0.18692651 -0.0006942332
0001a0 be cb f8 bd b0 9e dc bd bb f6 67 be
       -0.12148236 -0.10772455 -0.22652714

fc_2.weight f4 [2, 107]
000000 0e 2a fc 3e 8e 57 98 3e 8c 39 a2 3e 90 5e 67 3e
       0.49250835 0.297543 0.3168453 0.22594666
000010 08 0e 8e 3e c6 5f 80 bc d7 c5 47 be ca 66 af 3d
       0.2774508 -0.015670668 -0.19509064 0.08564527
000020 b4 9e c0 3e 5c 23 7d 3e 5d 33 fd be 11 6d 8e 3e
       0.3762108 0.2472052 -0.4945325 0.27817586
000030 74 ec 14 3d ff c8 bf 3e 0b b8 db 3e f9 0b 3d be
       0.03635831 0.37458035 0.4291385 -0.18461598
000040 f5 44 96 3e cd 84 9b 3d f1 55 49 be 53 6d 3a 3e
       0.29349485 0.07593689 -0.1966169 0.18205766
000050 12 72 4a 3e 98 30 a5 3e ae 9c 8a be 18 02 b5 3e
       0.19770077 0.32263637 -0.27072662 0.3535316
000060 02 6e fa 3c cc fa 8c 3e de 02 71 3e 86 de db 3d
       0.030570034 0.27535093 0.2353625 0.10735802
000070 8c d8 fa 3d 04 27 d0 be 79 92 98 be fe 99 ae be
       0.12248334 -0.40654767 -0.2979925 -0.34101862
000080 5f 57 ca 3e 67 1c af be eb 8f bf 3e 3b 7f 64 be
       0.39519784 -0.34201357 0.37414488 -0.2231416
000090 04 a5 b8 3e 12 9a 8a be 9e 5d 3f be b3 df 71 3e
       0.36063397 -0.2707067 -0.18688056 0.2362049
0000a0 6e 2c 91 be 57 0a a7 be 13 ad 9c 3e 6c 40 62 3d
       -0.2835421 -0.32625076 0.30600795 0.05523722
0000b0 95 3f b8 3e 79 00 a8 3e 89 f0 0c 3e 6c 70 e7 be
       0.3598601 0.3281286 0.13763632 -0.4520296
0000c0 be 47 23 be 53 de c5 3e a8 22 3b 3e a8 f4 1d be
       -0.15945336 0.38646182 0.18274939 -0.1542536
0000d0 bd 57 84 3e ab 78 91 be d4 c6 af 3e 51 6d ba be
       0.2584819 -0.28412375 0.3433138 -0.36411527
0000e0 27 55 d3 be e0 62 a4 3e df 56 73 bd e8 04 35 3e
       -0.41275904 0.32106686 -0.05940902 0.17677653
0000f0 5c 66 d3 3d 94 d8 1f be 84 96 46 be 0d 2e 28 be
       0.10322258 -0.15609962 -0.19393355 -0.16423817
000100 d3 58 59 3d 50 f2 87 3e ef 5e b7 be a5 ff c7 be
       0.053063225 0.26552057 -0.35814616 -0.3906223
000110 9c c3 2e bd cd 9e ec 3d 6d 03 63 3e b5 5e 13 bb
       -0.042667016 0.11553726 0.22169276 -0.002248687
000120 74 19 42 3e b3 19 82 be 28 00 59 be 7c ac a4 be
       0.18955022 -0.25410232 -0.21191466 -0.32162845
000130 2e 4c c6 3e 68 c0 a8 be 8b af 97 3e b2 ee d8 3e
       0.38729995 -0.32959294 0.29626116 0.4236961
000140 5a 06 6e 3e d0 88 bd 3e 4e 8c b4 bd d4 d2 8b be
       0.2324461 0.37018442 -0.088158235 -0.27309287
000150 2d 80 b6 3e 02 39 27 3e 8c b7 a8 be 3e cb d5 3e
       0.35644665 0.1633034 -0.32952535 0.41756624
000160 6f b1 c2 be 16 56 ae 3e ff be 71 3e 26 12 cc be
       -0.38025996 0.34050053 0.23608015 -0.39857596
000170 83 3f af 3e e8 a8 d6 3e 90 e8 cc bd 86 bc 30 3e
       0.34228143 0.4192574 -0.10005295 0.17259416
000180 99 57 98 3e 2a be 85 be 38 a9 a3 3e 1a af 8d 3e
       0.29754332 -0.26121646 0.3196504 0.27672654
000190 46 30 b1 be f3 81 02 bf 4a 82 ff 3e 8d 79 34 3e
       -0.34607142 -0.50979537 0.4990409 0.17624493
0001a0 06 2a bd 3b be 1a 79 be e5 45 93 3e 63 52 be bd
       0.005772832 -0.24326608 0.28764263 -0.09293058
0001b0 20 69 8b be b0 50 ce 3c 62 32 af be 45 68 53 be
       -0.27228642 0.02518496 -0.34218127 -0.20645244
0001c0 50 62 7d be 23 d4 b2 3e b4 a9 c0 be f7 c6 ba be
       -0.24744534 0.34927472 -0.37629473 -0.36479923
0001d0 f4 41 2c be 13 77 09 3f dc e9 e0 bd 8d 11 9e be
       -0.16822034 0.5369732 -0.10982105 -0.30872765
0001e0 58 57 dc bd 85 e3 0c be 22 89 a9 3e 2d 68 2f be
       -0.10758847 -0.13758667 0.33112437 -0.17129584
0001f0 ae 70 bd be 93 df 5e 3e 53 d5 fd be 59 da 4d be
       -0.3700003 0.21764974 -0.49576816 -0.20102824
000200 47 a1 02 be 8b 09 1d 3e 2a 3f 26 bd f8 29 d8 be
       -0.12756835 0.15335672 -0.04058758 -0.4221952
000210 b4 12 8d be a3 64 c1 be 77 f1 51 be c4 85 f2 be
       -0.27553332 -0.37772092 -0.20502268 -0.4736768
000220 ce 3a a6 3d 66 0f 53 3e 6b 73 92 3e fb 77 8b bd
       0.08116685 0.20611343 0.28603682 -0.06809994
000230 4b 45 80 3e c8 91 50 be e9 2b a3 3d cf 5a 9f be
       0.25052866 -0.20368111 0.079673596 -0.3112397
000240 49 1a 97 3e 14 fb 00 3e bd 63 3b be 84 af 9a 3e
       0.2951224 0.12595779 -0.18299766 0.30212033
000250 e4 90 b8 3e e9 46 d9 be 96 5f 87 be 2d 95 c1 bd
       0.36048043 -0.42436913 -0.26440114 -0.09452281
000260 62 bc 12 be 7c a2 af be 5b 68 69 3e 8f ae 95 3e
       -0.14329675 -0.34303653 0.22793715 0.2923474
000270 04 97 02 be 40 6d bf be 84 6a c4 3e 70 da db be
       -0.1275292 -0.3738804 0.38362515 -0.42940092
000280 c8 c5 cc 3d 1d 61 17 be 1b 8c c8 3e c4 c2 7f 3e
       0.09998661 -0.1478314 0.39169392 0.24976641
000290 88 f9 79 3d 52 67 e0 3e 15 16 17 be ad 6b 4b be
       0.061028987 0.43828827 -0.14754517 -0.19865294
0002a0 bc b1 cd 3e 1a 72 a7 3e 7f ef 77 3e 48 ac df be
       0.40174663 0.3270424 0.24212454 -0.43686128
0002b0 a5 da 89 be 1c 2f 4a 3e 15 db d0 3e a3 53 b1 be
       -0.26924625 0.19744533 0.40792146 -0.34634122
0002c0 48 1c 43 be 1a bd 2e be 3c 34 a8 be 26 97 8e be
       -0.19053757 -0.17064324 -0.32852352 -0.27849692
0002d0 d6 fa 13 3d 17 18 45 3e 1a fd 40 3e f3 cf ad bc
       0.036127888 0.19247471 0.1884655 -0.021217322
0002e0 9d c3 7a 3e 5e 69 4b be 6b 57 82 bd 21 ce 46 be
       0.24488683 -0.19864413 -0.0636433 -0.1941457
0002f0 b5 00 11 bd b1 ad d1 3e a8 c7 66 3e 03 bd 28 be
       -0.035401065 0.4095283 0.225371 -0.16478352
000300 13 58 92 be 91 0b 0f 3e af 5f 02 be 01 b1 a7 3e
       -0.2858282 0.13969256 -0.12731813 0.3275223
000310 c5 6d 21 be e0 da b7 be 16 35 0c 3e 32 0f 87 be
       -0.1576453 -0.35909176 0.13692126 -0.2637878
000320 7f 3f b1 be 41 ba e9 3e f8 95 00 be d3 37 99 bd
       -0.34618756 0.45649913 -0.12557209 -0.07481351
000330 35 5d 68 3e d6 2d b5 bd f1 e6 2e be 9a 27 2c 3e
       0.22691806 -0.08846633 -0.17080285 0.16811982
000340 35 05 2c 3e 0c 2a cd bd 70 e0 6d be 77 31 3e be
       0.16798861 -0.100177854 -0.23230147 -0.18573557
000350 72 3e 98 3e f1 f0 9c be
       0.29735142 -0.30652574

fc_2.bias f4 [2]
000000 00 b9 15 be 57 32 2a 3e
       -0.14621353 0.16620766
